notebooks/graphsage_v2/runs_graphsage/run5_20251023T150858Z/graphsage_encoder_run5.pt (torch, 338121 bytes, 6 tensors)

convs.0.lin_l.weight f4 [128, 262]
000000 40 c0 b6 3c 4b 4e 9b bd 19 98 8b 3d 10 6b f6 3b
       0.022308469 -0.075832926 0.0681612 0.007520087
000010 ec 6e 15 3e 43 bd 4d 3c 8f 46 fc bc a4 31 6f ba
       0.14593095 0.012557331 -0.030795364 -0.00091245235
000020 7c 7d a8 bc 32 2d d8 3d 45 67 f0 3d 04 91 c1 bb
       -0.020567648 0.10555495 0.11738447 -0.00590718
000030 79 dc 9b 3d e6 56 3c 3d 85 b3 a8 bd c3 e1 d8 bd
       0.07610411 0.04598131 -0.08237366 -0.10589936
000040 f1 cf 23 3d d5 19 a3 bc 9e b9 c3 3d 9e 42 d6 bc
       0.03999323 -0.019909779 0.09556888 -0.026154812
000050 eb 25 0e be 84 0e c8 bd ed 2a fd bd 23 20 7d bd
       -0.13881652 -0.09768394 -0.12361703 -0.061798226
000060 ee f7 ac bc 46 3a 01 be 0f ef 6b bd 08 5f 78 3c
       -0.021114316 -0.12619886 -0.05760103 0.015159376
000070 dc 4d bf 3d f4 f7 89 bd 19 7a 91 bd b6 3a 9b 3c
       0.09341022 -0.067367464 -0.071033664 0.018948894
000080 0c 37 73 bd 34 25 36 bd 58 28 66 3d 38 c3 90 bc
       -0.05937867 -0.044469073 0.05619082 -0.017671213
000090 4d 1a 02 bc be 6b d8 3c 42 1c e8 3d 14 28 bc ba
       -0.007940841 0.026418563 0.11333515 -0.0014355206
0000a0 6b 5f 63 bd ac ca 81 bd 4f 15 97 bd 43 83 b8 3c
       -0.05551092 -0.06337485 -0.07377111 0.022523528
0000b0 90 5a f5 bd 3a a0 ef 3d 45 6f 24 3d db 8e ff 3c
       -0.11980164 0.11700483 0.040145177 0.031196048
0000c0 f8 df 54 bb d1 14 80 ba 2b 05 cc bd 46 3a c4 bd
       -0.0032482129 -0.0009771829 -0.09961923 -0.09581427
0000d0 b7 83 59 3d 3c 6f f6 3c ab b4 ed 3d 31 b1 d2 bd
       0.05310413 0.030082338 0.11606725 -0.10287703
0000e0 17 03 bf 3c 9e 18 e2 3d 73 d5 b3 bd 30 48 cf bc
       0.023316903 0.110398516 -0.087809466 -0.025302976
0000f0 d0 75 d8 3c f4 68 09 3d c2 d7 94 bc d5 ab 1e be
       0.026423365 0.033547357 -0.018169288 -0.15495236
000100 1c 1a 72 3c 59 db 8c bd b8 95 82 3d 8b 25 83 bd
       0.014776733 -0.06877775 0.06376213 -0.06403645
000110 66 4f 0a be 8b 34 79 bc 9a dd af b9 03 c6 63 3d
       -0.1350685 -0.015210281 -0.00033543707 0.05560876
000120 75 17 86 bc 08 67 01 be ea b5 90 bd c7 2d ce 3d
       -0.016368607 -0.1263696 -0.07065947 0.10067325
000130 3a 00 49 3d 4d c2 c2 bd cf 1c 2e 3d 33 7e 88 bd
       0.04907248 -0.09509716 0.042507943 -0.066646956
000140 48 f5 3c bd 9b 36 c6 bd 9b 29 89 bc 63 e6 29 3c
       -0.046132356 -0.09678384 -0.016743472 0.01036987
000150 4f f3 c8 3d 02 3e b2 bd 36 e4 04 bd d6 d7 32 bb
       0.098120324 -0.08703233 -0.0324442 -0.0027289293
000160 30 a6 32 3d fd ce a8 3c ab cd 05 bd f7 f5 46 3d
       0.04361552 0.020606512 -0.032666843 0.048574414
000170 71 ca 8b 3c ed a0 e6 3d 7f 8c df 3b ac 30 89 bc
       0.017064305 0.11261163 0.0068221684 -0.016746841
000180 fd b9 9c 3d b4 3e 94 3d f9 5a 1f bd 7b 4c 2f 3d
       0.07652662 0.07238522 -0.038905118 0.042797547
000190 16 70 d6 bd 71 7d 65 be 1d 51 01 be 91 12 2e bc
       -0.104705974 -0.22411133 -0.12628599 -0.010624544
0001a0 e7 fc 0a be 80 70 bb 3d 87 01 f2 bc 18 0a ed ba
       -0.13573037 0.09152317 -0.029541744 -0.0018084673
0001b0 a0 d7 ab bd 2c 4d aa 3c 75 7f 9e 3b 41 29 30 3c
       -0.083907366 0.020788752 0.0048369714 0.010752023
0001c0 94 de 8a bc 4c b0 a2 bd 6c 74 f3 3b 94 14 43 3c
       -0.016951837 -0.07943782 0.00742965 0.011906762
0001d0 0d 5e fc 3c c0 25 b2 3d 52 33 a9 3c 14 80 ba bd
       0.030806566 0.086986065 0.020654354 -0.0910646
0001e0 a5 cc 03 3d 3d 7f f6 bd 61 0b 54 3d d1 f7 a6 3d
       0.032177586 -0.120359875 0.051768664 0.08152736
0001f0 82 0e 80 bd 52 91 c6 bc 19 37 b6 3d de 7a 93 bd
       -0.06252767 -0.024239216 0.08897228 -0.072011694
000200 4f 76 85 3d e0 40 c8 3d 9d 3a 27 be c9 1f c0 bd
       0.06516706 0.09777999 -0.16330953 -0.093810625
000210 a9 09 02 bd c9 6b e5 bc 2e ba 86 bd cd b6 26 3c
       -0.031747494 -0.028005498 -0.0657848 0.010175419
000220 be 70 a1 83 79 eb 42 3d b0 f2 78 3d d6 f0 b1 3d
       -9.488614e-37 0.047587845 0.06077832 0.08688514
000230 ed 9c 07 be 49 7b 7b bd a0 79 b8 3d 6f 6d 59 3d
       -0.13243456 -0.06139687 0.09007573 0.05308288
000240 5d 09 87 bc 90 aa 12 bd ad 68 f2 3d e4 ff 9b bb
       -0.016483957 -0.035807192 0.118363716 -0.004760729
000250 25 50 31 bc 00 f6 0d 3e e1 74 9b 3d 8e 3b ee 24
       -0.010822331 0.13863373 0.07590652 1.03316936e-16
000260 a6 ab de 3d 28 cb 09 3e 78 43 a8 3c 41 fc aa 3d
       0.10872583 0.13456404 0.020539984 0.08348895
000270 75 ee 08 3e 1e 32 4a 3e f5 52 b0 3d 63 4e 1a 3e
       0.13372214 0.1974568 0.08609573 0.15068965
000280 19 0c 07 3e 00 90 97 3d ae 6d 48 3d 46 de 60 3d
       0.13188209 0.07400513 0.048932724 0.054899476
000290 9a 5a ea 3b e5 af 3c 3d 0e 51 14 3d cc 3b 11 3e
       0.007151914 0.046066184 0.036210112 0.14182967
0002a0 5b 53 76 3d 0d f6 c1 3d 7d 78 9d 3d 0f 53 bc 3d
       0.060138088 0.094707586 0.07688997 0.0919553
0002b0 40 31 e1 3c 7b 1c 36 bb 95 cd 31 3d 1b 14 25 3d
       0.027489305 -0.0027787972 0.04340895 0.040302377
0002c0 8a d3 dc 3c a2 e5 03 3e 0d f7 8d 3d 02 a0 6f 3d
       0.026956338 0.12880567 0.06931887 0.058502205
0002d0 af 76 8c 3d c7 68 f7 3a af 7f c6 3c f8 bc 18 3d
       0.068585746 0.001887583 0.024230806 0.03728959
0002e0 e9 5e b8 3c 23 54 05 3d 20 91 58 bd ba 57 6f bd
       0.022506194 0.032550942 -0.052872777 -0.058433272
0002f0 d9 4f c0 3d 11 4d b7 3d 16 c7 ce 3c 13 51 97 3d
       0.0939023 0.08950246 0.025241416 0.073885106
000300 3d 54 9e bd ba 8d 1c bc 03 62 88 bc 16 48 97 3c
       -0.07730911 -0.009555275 -0.016648298 0.01846699
000310 1f 91 68 bd 8f 6b fc bc b5 f8 36 bc be 90 48 3c
       -0.056779023 -0.030813007 -0.011167695 0.0122415405
000320 b1 96 b8 bc ab 27 21 bc 90 dd 8a bd 7d f0 1f bc
       -0.022532793 -0.009836118 -0.06780541 -0.009761927
000330 17 45 81 bc f2 3a 86 3d 68 76 58 bd 25 f6 3c 3d
       -0.015780015 0.06554212 -0.052847296 0.04613318
000340 94 ca cb bc 75 e0 60 bd ee c6 f1 ba 67 f6 90 bc
       -0.02487687 -0.05490156 -0.0018446126 -0.017695619
000350 96 d2 d9 bd af 86 ab b9 43 9b 9d bd 4c ad 66 bd
       -0.10635869 -0.0003271601 -0.076956294 -0.056317613
000360 a0 70 da bb 65 70 72 bb 23 ca d1 3c 56 ac 15 39
       -0.006666258 -0.0036993262 0.025609082 0.00014273947
000370 8f 7e 32 3e 6b 81 82 bc 30 82 5f bc 3b d5 14 3d
       0.17431091 -0.015930852 -0.013641879 0.036336165
000380 a8 07 9c bd df 76 1d 3e e3 58 a0 3c 62 d5 85 bd
       -0.07618648 0.15377377 0.019573634 -0.0653484
000390 ad 25 50 bd 46 a1 14 bd c7 b4 45 3d d6 b0 2d 3e
       -0.05081718 -0.036286615 0.048268106 0.16961989
0003a0 cb aa 84 3d f0 4e 95 bd b3 58 90 3d ad 02 97 ba
       0.06477889 -0.07290447 0.07048168 -0.0011521183
0003b0 e5 8b 17 bd ac ee 0e 3b e7 94 f7 3c af a4 9b 3c
       -0.03699865 0.002180974 0.03022237 0.018999426
0003c0 e2 3b eb 3c cd 6e 4e bc ae f0 cc bb e9 5d bd 3a
       0.028715078 -0.012599659 -0.006254277 0.0014447543
0003d0 c6 03 97 bd e3 27 1d 3c e7 c0 aa bc af a8 03 bc
       -0.073737666 0.009592029 -0.020843936 -0.008035823
0003e0 cd 1e 3b 3c 88 80 10 bd 66 19 19 3e 2d b3 e3 bc
       0.011420918 -0.035278827 0.14951095 -0.027795399
0003f0 17 52 39 bc 44 c2 8b 3d 45 5e 86 3d 88 f1 00 3c
       -0.011311076 0.068241626 0.06560949 0.007870086

convs.0.lin_l.bias f4 [128]
000000 0a aa a8 3c da 65 15 bc 3c 2b 3c 3d f3 86 5a bd
       0.020588893 -0.009118522 0.04593967 -0.053351354
000010 a9 9a 34 ba 05 aa 6b bd 79 87 47 3c 3d 0e 49 3d
       -0.0006889501 -0.05753519 0.012178295 0.049085844
000020 f6 36 4b bd fd 4e e5 3c 9c 3c 7d bc 87 14 09 3d
       -0.04961296 0.027991766 -0.015456345 0.033466842
000030 3a a1 b6 bc 80 9f 83 bc 1a 0b 9e 3c b7 32 2c bd
       -0.022293676 -0.016067266 0.019292403 -0.042040553
000040 08 05 26 3d 6b 81 e2 b8 0d 14 af bb ce 0d d1 3c
       0.040532142 -0.00010800626 -0.0053429664 0.025519278
000050 5d ac 59 3c 88 b2 e0 3c bf 70 a0 bc e9 f8 64 3c
       0.0132857235 0.02742888 -0.019585012 0.01397536
000060 6f 4d 55 bd c6 e1 7c bb e3 82 0e 3d ba 3a 2d bb
       -0.0520758 -0.003858672 0.034792792 -0.002643271
000070 60 27 22 3d b6 b9 2e 3d 51 83 c0 3c c7 6e e8 3b
       0.039588332 0.042657577 0.023500117 0.007093284
000080 0f 09 07 bc eb 6f c9 3b 79 07 23 bd 44 5a 16 3d
       -0.008241906 0.006147375 -0.03980205 0.036707178
000090 68 f4 1e bd 3a dd 18 3d 9e 85 9a bc 4d 9d 11 bd
       -0.038807303 0.037320353 -0.018862542 -0.035550404
0000a0 db c2 d1 3c 41 bf 8e bc 49 9a 69 bc 6f 15 93 3b
       0.02560561 -0.017425181 -0.014257976 0.004488639
0000b0 f8 87 ad bb 38 c2 f9 3c 71 73 c0 bc 86 56 2d 3d
       -0.0052957498 0.030488119 -0.023492547 0.042318843
0000c0 fd 2f 53 bd 39 b6 3b bc 4b f9 92 37 35 fe 02 bd
       -0.051559437 -0.0114570195 1.7520642e-05 -0.031980712
0000d0 44 04 ef 3c 23 cc 83 3c c6 99 85 bc 65 47 94 3c
       0.029176839 0.01608855 -0.016308676 0.01810045
0000e0 43 4d 1b bd 17 a7 35 3d a4 04 83 3c e7 19 0b bc
       -0.03791548 0.044348802 0.015993424 -0.008490062
0000f0 ad 8a e4 3c 2f 4e 34 bd ce 72 4a bc 12 5b 2d bd
       0.027898157 -0.044019874 -0.012356473 -0.04232318
000100 32 30 01 bc 42 e0 7a bd c0 0a 98 bb 7f 49 19 3d
       -0.007885026 -0.061249025 -0.0046399534 0.037423607
000110 bc a6 ed bb b0 fc 18 3d de 54 1c bd 12 92 2d 3d
       -0.0072525423 0.037350357 -0.038166873 0.04237563
000120 74 43 61 bd c5 30 dc 3b 45 c5 f2 ba cb b0 ba bc
       -0.05499597 0.006719681 -0.0018521926 -0.02278938
000130 9e 69 24 3d 15 b7 6b 3c ac 87 45 bd e3 53 29 bd
       0.040139787 0.014386912 -0.04822509 -0.041339766
000140 36 29 0c 3c d4 48 29 3d c8 c6 83 bd 4f 59 6c 3d
       0.008554747 0.04132922 -0.06434399 0.05770236
000150 c2 7e 13 3c e5 01 fb bc ea 69 91 bc 36 e1 da bc
       0.009002389 -0.030640552 -0.0177507 -0.026718717
000160 b9 e1 df 3c 16 43 7e bc 58 a5 56 3c e3 39 09 bd
       0.027329313 -0.015518924 0.013100944 -0.03350247
000170 ee 32 53 bd 83 44 df bc 27 00 45 bd 43 4b bc bc
       -0.051562242 -0.027254349 -0.04809585 -0.022985106
000180 bc b5 4d 3d 7b ec 13 3d 11 6c 5f bd c7 1e 8c bd
       0.050222144 0.036114197 -0.05454642 -0.06841808
000190 40 fe 0e bd 4a 3c ab bc e9 a6 65 bd b9 94 a4 3c
       -0.03491044 -0.020902772 -0.05606738 0.020090448
0001a0 c6 95 73 bd 0f 3d 10 3d d2 59 ea 3c b7 cc aa 3c
       -0.059469007 0.03521448 0.028607283 0.020849569
0001b0 e0 46 a0 ba 99 a2 71 bb 9b 26 85 3d b9 1f 89 3d
       -0.0012228154 -0.0036870597 0.06501504 0.06695504
0001c0 ab 8e 9c 3c 7a da 59 bd f0 be 47 bd 16 8e e2 bc
       0.019110998 -0.05318687 -0.048766077 -0.027655642
0001d0 f6 bd 55 3a 9b 55 20 bd a0 53 a7 3c 4b aa da bc
       0.00081536116 -0.03914414 0.020425618 -0.02669253
0001e0 89 fd 44 bd c9 b5 58 bc 83 5a 4c 3a 81 89 0f bd
       -0.048093352 -0.013226935 0.000779547 -0.035043243
0001f0 8d 9f 47 3d 62 59 02 3c ea 3a bc 3c b7 2b e5 3c
       0.048736144 0.007955881 0.022977311 0.027974946

convs.0.lin_r.weight f4 [128, 262]
000000 65 f6 87 bc eb 9e 4b bd 7b 66 ba 3a de fe 52 bd
       -0.016596982 -0.049712103 0.0014221215 -0.05151259
000010 19 d4 a1 3d 0b ff 92 bb 72 d3 81 3c 9f 21 57 bd
       0.079017825 -0.00448597 0.015847895 -0.052522298
000020 d8 6f 2d 3d 12 f1 be 3c 1e 34 2d bd cc c7 43 3d
       0.04234299 0.02330831 -0.04228603 0.047797963
000030 84 8c 79 3d da d4 a8 bc e7 bb 09 bc af 34 c9 bb
       0.06092502 -0.020609308 -0.008406616 -0.0061403136
000040 b2 29 49 3d c0 7f 9f bc a3 b1 97 3d 5a 83 be bc
       0.04911203 -0.019470096 0.074069284 -0.023255993
000050 20 49 4c bd a3 5b a1 bd 34 34 3e 3d 41 e7 87 3d
       -0.049874425 -0.078788064 0.046436504 0.06635905
000060 d0 d1 86 02 d1 10 67 3d 0c 40 90 3d c0 6b 06 3d
       1.9809957e-37 0.05641252 0.07043466 0.032817602
000070 d3 bc 3d 02 91 d2 89 3c a0 36 cb bc 01 6f 65 3c
       1.3939717e-37 0.016824039 -0.02480632 0.014003516
000080 50 45 47 3b bb 9e 0c 03 1b 78 c2 bc ca 66 a9 3c
       0.0030406304 4.1324516e-37 -0.023738911 0.020678896
000090 01 e4 9b 3c 94 7a 28 bc 70 c7 0f 3d b5 58 3b bd
       0.01902962 -0.010283131 0.035102308 -0.045738894
0000a0 44 1d 1f bc 66 d3 82 bc 8b a8 fd bb 10 d2 72 bb
       -0.009711567 -0.015969943 -0.007741039 -0.0037051477
0000b0 c1 51 22 3c c6 68 a5 3d 10 a4 ed bc 2c 6f 79 bd
       0.009907187 0.080766246 -0.029008895 -0.060897037
0000c0 64 0f 59 83 63 28 92 3c ee 97 8d 3b 44 07 f1 3a
       -6.3788236e-37 0.017841524 0.00432109 0.0018389006
0000d0 b0 3a 0b bd c0 57 c8 3d e0 d6 1f 3d 12 a7 b6 bc
       -0.033991516 0.09782362 0.03902328 -0.022296462
0000e0 fb e3 8c 3a 24 98 03 3d 26 c6 20 83 88 75 e3 02
       0.0010749096 0.032127514 -4.7247237e-37 3.3422112e-37
0000f0 a5 5b 0a bd f5 8b 41 3d 26 ff 14 3c 91 4d 81 3c
       -0.033778805 0.047252614 0.009094035 0.015784057
000100 fb a1 bd 3d de 55 20 83 29 68 8b bc 63 67 31 3d
       0.09259411 -4.7118345e-37 -0.01701744 0.043311488
000110 51 31 52 bc 51 35 24 3d a2 2b 04 bd 44 b9 2c 3c
       -0.012829141 0.04008991 -0.032268174 0.010542218
000120 ad 0a a2 3c dd 2a ac 3c 01 0a 50 bd eb 21 8c 3d
       0.019780481 0.021016533 -0.05079079 0.06842407
000130 b7 37 9f bd 40 60 48 bc 77 16 c0 3d bb 3c e9 bb
       -0.07774299 -0.012229979 0.09379285 -0.0071178353
000140 f4 0a 22 83 7f 71 8e 3b 2c bd e4 03 e2 3a 23 3d
       -4.7620095e-37 0.004347026 1.3444067e-36 0.039851077
000150 0d a7 5c bd 35 85 a4 3c 81 e4 e4 01 1d c8 26 bd
       -0.05387025 0.02008305 8.408186e-38 -0.040718187
000160 a3 25 9f bb f6 60 1a 3b f9 0b 01 bc eb 7f 41 bb
       -0.0048567816 0.0023556328 -0.00787639 -0.0029525708
000170 7f 50 2e bc 0b 7f 18 03 e2 5c dc 03 5b 40 de bc
       -0.010639309 4.4814624e-37 1.2951763e-36 -0.027130296
000180 37 ce e5 bc fc 6c 39 3c de 23 49 ba fc e7 8f bd
       -0.028052432 0.011317488 -0.0007672886 -0.070266694
000190 2d 02 26 bd 71 54 7a bc 2d 91 14 3d fe 84 f0 3b
       -0.04052942 -0.015278921 0.036271263 0.0073400727
0001a0 9c 7f 0b 81 54 31 1e bc e2 85 35 3c 73 76 3e bd
       -2.5621823e-38 -0.009655315 0.011079283 -0.04649968
0001b0 66 53 bf 82 c5 b8 37 3d 2f fc 1a bd 69 3d 99 3c
       -2.8112796e-37 0.044853944 -0.037838157 0.01870604
0001c0 5e 66 ab bd 44 9b 90 3d 82 79 4b 3d 92 51 af 3c
       -0.08369134 0.070608646 0.049676426 0.0214012
0001d0 22 77 b6 3d eb 90 06 bc 92 32 46 bd 6b 78 57 bc
       0.089094415 -0.008213262 -0.04838807 -0.0131512685
0001e0 8a e0 14 bc de e4 81 3c 98 2f 7d 82 1a 67 4e 3d
       -0.009086737 0.015856203 -1.8601163e-37 0.050391294
0001f0 fd 53 c2 3c 79 71 07 02 c8 e5 37 82 0c 9a df bc
       0.02372169 9.950799e-38 -1.3510661e-37 -0.027295135
000200 51 3d 21 82 40 a1 33 03 cf 76 cd bb 32 ec 0f 83
       -1.1846009e-37 5.278848e-37 -0.0062702666 -4.229506e-37
000210 ce 09 cf bc df 1a 03 bd 62 a3 9d bc 9e f9 99 3c
       -0.02527323 -0.03200805 -0.019242946 0.018795785
000220 84 19 c7 bc 0c 4c 8f bd 2b 1b 3f 3c f8 fa 8d 3d
       -0.024304159 -0.06996927 0.011664192 0.06932634
000230 28 3c f7 bb 4c 9a 12 bd 6c 19 c5 3d 74 20 95 3d
       -0.007545013 -0.03579168 0.096239895 0.072815806
000240 43 ca 04 bd 9c a6 67 bd 11 78 fd ba 07 19 4f bc
       -0.032419454 -0.056555375 -0.0019338151 -0.012640244
000250 c6 1e f1 3c f7 1d 92 3d 34 b5 63 3c ff 97 4d 3d
       0.02943362 0.071346216 0.013898183 0.050193783
000260 0d 04 6a 3c 2a 05 4d 3d eb ce c2 3d 20 f9 ce 3a
       0.014283192 0.050053753 0.09512123 0.0015790798
000270 e9 46 6d 3c c4 20 2d 3d 4c 49 ca 3b ea ed 83 3c
       0.014482238 0.042267576 0.0061732884 0.016104657
000280 39 bb 68 3d 9b d4 ce 3c a4 de 73 bd d9 7c 8a 3c
       0.056819174 0.025247863 -0.0595385 0.016905235
000290 83 3d c6 3c 2b 07 66 bc 4a 18 77 bd b2 63 ce 3c
       0.024199253 -0.014039795 -0.0603259 0.025194023
0002a0 43 35 75 bb f6 ed 8e 3d be f6 70 3b 03 69 a5 3c
       -0.003741578 0.06978981 0.0036768164 0.020191675
0002b0 0f 83 b3 3c 71 1a d7 bc a7 fe 89 bc 8a 6e fd 3c
       0.02191308 -0.026257725 -0.01684506 0.030936498
0002c0 86 d5 d6 bc 87 ec f0 3c bf 8a da bb b0 f6 6c bc
       -0.026224863 0.02940966 -0.006669372 -0.014463112
0002d0 8b 13 59 bd 8f f1 8f 3c b4 6c a6 bd 53 ef 49 3b
       -0.052997153 0.017571239 -0.08126202 0.0030812814
0002e0 b3 0f 7a bd bd 16 96 bd 96 97 8a bd 04 e2 2a 3d
       -0.06105013 -0.07328556 -0.06767194 0.04171945
0002f0 a3 4a 23 bd 86 71 99 bc fb 1b f7 bb 79 7e 08 bc
       -0.0398661 -0.01873089 -0.0075411773 -0.008330935
000300 20 85 8f bd 91 7e 01 bd f8 b8 8b 3a 13 74 cf 3b
       -0.070078135 -0.031614844 0.0010659983 0.006330976
000310 f4 48 57 bd f8 c6 3d bd 35 94 d1 3c d9 f6 a0 bc
       -0.052559808 -0.04633233 0.025583366 -0.019648956
000320 89 47 77 3c 82 46 96 bc 1f 11 07 bd 03 e8 39 3d
       0.015092739 -0.018344168 -0.032975312 0.04538728
000330 7a ea 64 bb 14 14 42 3c 36 33 9f 3c e2 34 b5 3a
       -0.0034929798 0.011845607 0.019433599 0.0013824964
000340 b1 7e 01 b9 33 4d 0b bc 13 43 45 bd 5b 3e 8d 3a
       -0.00012349595 -0.008502292 -0.04815967 0.001077603
000350 d3 16 8d bd 2a a6 7a 3c 03 2c 80 3c ae 6d 33 bd
       -0.06889119 0.015298406 0.015645986 -0.04380577
000360 a4 8e 97 bb fe 05 0a bd 5a 27 04 3c 48 d8 53 bc
       -0.0046251584 -0.03369712 0.008066023 -0.012929983
000370 4b 93 8a 3d 7e e4 f9 bb 26 a4 6d 3d a0 14 b1 bb
       0.06766375 -0.0076261153 0.058017872 -0.00540407
000380 1a de f9 bc 91 69 ac 3c 7d 5d 7a 3d f9 9d 6e 3d
       -0.030501414 0.021046432 0.061124314 0.058256123
000390 1d 7b 27 03 97 72 f3 3c 25 f4 fe 3c 7d e1 66 3d
       4.9218216e-37 0.029717727 0.031122277 0.056367386
0003a0 cb 95 60 3d 3c 00 42 bd 24 11 b8 3c 69 45 69 3c
       0.054830354 -0.047363505 0.02246911 0.01423774
0003b0 f9 d0 2b bc fc 4f e1 bb 54 cb 2d 3c f3 32 44 bc
       -0.010486835 -0.00687599 0.010607559 -0.011975038
0003c0 6f c3 d3 3c 6f c6 da 3c 46 34 39 bc 75 2b c7 bb
       0.025850026 0.026705949 -0.011303967 -0.0060781785
0003d0 43 70 75 bc 1c 6d 66 bd a6 e4 de bc 27 f2 ec bc
       -0.014980379 -0.0562564 -0.027208637 -0.028924061
0003e0 05 54 c5 3c 34 ca 73 bb 40 59 1a bd ef e6 73 bc
       0.024087915 -0.003719938 -0.03768277 -0.014886602
0003f0 8f da eb 3c ec dd ef 3c 62 54 3b 3d 39 ce 41 3c
       0.02879074 0.029280625 0.04573477 0.0118289525

convs.1.lin_l.weight f4 [64, 128]
000000 9e 6f 5a bc cc 60 c8 3d e1 8b 63 3d 4d 85 08 3e
       -0.013332276 0.097840875 0.05555332 0.133321
000010 46 a8 9d 3d 4c 89 8e ba 0e f9 07 3d 56 22 41 3d
       0.07698111 -0.0010874658 0.0331965 0.047151886
000020 b5 56 5e bd 31 fe 31 3d 27 bc c8 bc f8 1e 46 3d
       -0.05428191 0.043455306 -0.02450378 0.048369378
000030 d2 e4 d3 bd 6d 66 f3 bc 02 c4 43 bd 71 1a d1 bc
       -0.103463784 -0.029711926 -0.04779435 -0.025525304
000040 67 c7 c4 3d 37 03 b6 3d c7 a0 97 3c 9e f9 33 bb
       0.096083455 0.08887332 0.018509282 -0.0027462016
000050 b0 d9 a2 3d 94 8e 8e bc 6d 43 61 bd 98 dc 47 3c
       0.07951677 -0.01740197 -0.054995943 0.01219859
000060 f0 bb 9e 3d b1 7d be 3c 1a f1 0b 3e 60 06 82 bb
       0.0775069 0.023253294 0.13666192 -0.003968045
000070 85 49 0a bd 27 39 97 3d 33 b8 e1 3d 3a 64 76 3d
       -0.03376152 0.07383948 0.11021461 0.060154177
000080 91 97 86 3d 94 a3 eb bc 22 12 d7 bc 38 3f d5 3c
       0.06571878 -0.028764524 -0.026253764 0.026031122
000090 d4 7f 21 3e eb 94 f5 bd f2 15 c9 bd c1 26 8b 3c
       0.15771419 -0.119912945 -0.09818639 0.016986253
0000a0 85 1d 57 3d 71 3a 4d bd a9 e8 0b bd ba a4 57 3d
       0.052518386 -0.050104562 -0.03415743 0.05264733
0000b0 4e 58 0a be 41 b3 ab bd 4d 56 8b bd 76 db c4 bd
       -0.13510248 -0.08383799 -0.0680357 -0.09612171
0000c0 09 20 e9 3d 59 f2 c4 3c ef 02 cd 3d b3 cb d6 3c
       0.11383063 0.024041342 0.10010325 0.026220178
0000d0 73 26 a2 bd f0 11 30 bc 00 4f 1e 3e fe 70 2c bd
       -0.0791749 -0.010746464 0.15459824 -0.042099945
0000e0 fe 92 72 3d 50 3e 71 3d 2e d8 f0 bc 94 df 5d bd
       0.059222214 0.058897316 -0.029399958 -0.0541683
0000f0 6e 7c 9f bd cc a5 23 be a8 37 b0 3b a6 1c 86 bb
       -0.07787405 -0.15981215 0.0053777285 -0.0040927706
000100 b1 3e cc 3c 1d 31 9d bd 2f 34 75 bc 22 9c 75 3b
       0.024932237 -0.07675383 -0.014966055 0.0037477096
000110 20 76 4c bd 24 03 21 bc 65 43 5c bc 89 46 bc 3c
       -0.04991734 -0.009827409 -0.0134438025 0.022982853
000120 a2 99 10 3e d0 45 ba 3d d5 36 a6 bd c0 88 b4 bd
       0.14121106 0.09095347 -0.08115927 -0.088151455
000130 ce 03 60 bd d3 66 f8 bd 56 9e ab bc 75 4b c5 3d
       -0.05469113 -0.12128987 -0.020949524 0.09633533
000140 ce 50 18 3d 8c 84 47 3d 97 f0 5c bd 9b fb 8e 3d
       0.037186436 0.04871039 -0.05394038 0.06981584
000150 30 f9 5b 3d 06 32 b8 bd e7 89 0d bd 1c c7 38 3e
       0.05370444 -0.08993916 -0.034555342 0.18044704
000160 c8 14 e3 bc 3a 99 0e be 8f 51 d5 3d cb 2d ce 3c
       -0.02771987 -0.13925639 0.10415947 0.02516832
000170 19 1f a0 bd 01 9b 1d 3d f0 0a 16 be 8f 23 19 3e
       -0.078184314 0.0384779 -0.1465261 0.14954971
000180 a9 a4 8c 3d 3f 36 03 3d a0 04 85 bb 38 71 13 3e
       0.06867344 0.032034155 -0.0040593892 0.14398658
000190 8c 05 c1 bd 95 5f 98 bb 74 0b 85 bd 28 a2 b4 bd
       -0.09424886 -0.004650066 -0.06496325 -0.08819991
0001a0 e7 54 af 3d d2 5a 47 bb 7f d5 98 3c e7 e5 26 bd
       0.08561116 -0.0030419123 0.01865649 -0.040746596
0001b0 5b 7e 0e bc c0 69 31 3e 0f e8 ad 3c d7 4f c5 bd
       -0.008697118 0.17325497 0.021228818 -0.09634369
0001c0 81 6d 18 3e a5 dd 87 bc ca 1f 1b 3d 61 b9 97 3d
       0.14885522 -0.01658518 0.037872113 0.07408405
0001d0 96 dc 12 3e 14 3b dc bd e8 df 8e 3d 4e 33 e1 3d
       0.1434196 -0.10753456 0.069763005 0.10996114
0001e0 d0 a6 06 bd b4 c2 35 bd df ca 5c bd 78 62 08 3e
       -0.03287393 -0.044375136 -0.05390441 0.13318813
0001f0 6e 78 29 bc 80 ee 77 bc 92 89 51 3c 9d 45 18 be
       -0.010343654 -0.015132546 0.012789147 -0.14870305
000200 d0 09 82 3d e7 f3 be bd 06 1a 03 bd 7b 43 d0 bb
       0.06349528 -0.093238644 -0.03200724 -0.0063557005
000210 96 94 8e bd c5 b9 0c 3d b2 e8 83 3d 23 52 17 3c
       -0.06961934 0.03435685 0.064408675 0.0092358915
000220 d0 93 07 3e 69 9a be 3c b8 2f aa bd 37 11 16 bd
       0.1323998 0.023266988 -0.08309883 -0.03663751
000230 ee 38 15 3e 24 93 5f 3d 5e 6c 89 3c 43 12 7a 3d
       0.14572498 0.054583684 0.016775306 0.061052572
000240 a0 bf 6a 3d 5e 45 29 bd 07 ac 68 bd 95 20 bf bd
       0.057311654 -0.04132592 -0.056804683 -0.093323864
000250 eb 49 77 bd 75 11 48 bd f7 58 9e 3c 9d 2e 33 bd
       -0.060373228 -0.048844773 0.019329531 -0.043745626
000260 e9 9e 81 3d df 1e b7 3d f6 9f 19 3d 67 ff 58 bc
       0.06329138 0.08941435 0.037506066 -0.013244486
000270 9e 45 96 3d ff 56 dc bd 92 47 02 be ab 40 f8 bc
       0.07337497 -0.10758781 -0.12722614 -0.030304274
000280 00 75 22 bd 43 80 85 3c 6a 07 e0 3d c1 23 93 bc
       -0.03966236 0.016296512 0.10938914 -0.017961385
000290 f7 e1 37 bc ac e6 5e bd 75 66 ff 3b fd 50 dc bc
       -0.011223308 -0.054419205 0.0077941963 -0.026894087
0002a0 27 aa a3 bd 24 9b 70 bc bd b7 50 3d 53 89 79 3c
       -0.07991438 -0.014685426 0.050956476 0.015230495
0002b0 cb 98 00 be 00 2b f7 3d d2 ec 96 3d 59 af 14 3d
       -0.12558286 0.120687485 0.07369389 0.036300037
0002c0 cc 74 04 bc de e4 ce 3c 32 53 39 bd 7d 3d 82 bc
       -0.008084487 0.025255617 -0.045245357 -0.01589846
0002d0 6c a4 29 3d 74 13 e5 3c b9 9c 64 bd 73 14 ba 3d
       0.04141657 0.027963378 -0.055813525 0.09085932
0002e0 44 94 21 bb 88 32 9b 3d a6 c3 9e 3c eb 12 a8 3c
       -0.0024655024 0.075779974 0.019380402 0.020516833
0002f0 b7 e1 06 3e d2 ed 26 3d 56 63 2b 3d 00 27 90 3d
       0.13172041 0.040754147 0.04184278 0.07038689
000300 c2 b4 a5 3c 5e c4 d9 3c 8b ad 0d 3d f7 16 3c 3d
       0.020227794 0.026582893 0.03458933 0.04592034
000310 5d 4d d0 bd 41 a4 0f bd 4b b4 38 bd b6 92 1e 3e
       -0.10171006 -0.035068754 -0.045093816 0.15485653
000320 9f 9e a0 bb 99 08 af 3d 87 49 06 be ef 47 d3 3d
       -0.0049017216 0.08546562 -0.13113986 0.103164546
000330 4a 82 b0 bc 9a ae 3a 3d 5e 91 c1 3b 7f 8f 42 bc
       -0.021546502 0.04557667 0.0059072217 -0.011875032
000340 2e ae c2 3c 24 2b d9 bd 68 59 33 3d 39 53 7b bd
       0.023764696 -0.106039315 0.043786436 -0.061358664
000350 fe 75 a1 3d df 57 6a bd 42 b0 ed 3b 48 77 d3 3b
       0.07883833 -0.057212707 0.0072536776 0.0064534284
000360 26 47 a8 3d 37 42 0b bd 10 f4 0b be 8e 29 53 bd
       0.082166955 -0.033998694 -0.13667321 -0.0515533
000370 0c 13 bd bd df 27 b7 bd 58 2f 66 3d 5e d4 0f bd
       -0.092321485 -0.08943152 0.056197494 -0.03511464
000380 9b 91 93 bd 8c a0 9d bd 52 7f 2f 3d 74 5e f6 bd
       -0.072055064 -0.076966375 0.04284603 -0.12029734
000390 0c 00 00 be 1a 4f 90 3d 01 ff ea bc 31 6b 98 bd
       -0.12500018 0.070463374 -0.028686048 -0.0744232
0003a0 47 d1 ca bc 69 21 e4 3c 40 30 c1 3c d0 68 f6 3c
       -0.024757994 0.027847962 0.023582578 0.030079275
0003b0 e8 58 0f 3e e0 43 52 3d 1c a6 98 3c a3 96 77 3d
       0.13998759 0.051334262 0.018633895 0.060446393
0003c0 ec 9f 9c bd 0a 24 07 be 11 cb 6a bd ee a6 e4 bc
       -0.0764769 -0.13197342 -0.057322565 -0.02791163
0003d0 75 5b 96 bb e2 61 bc bb 8b 04 2d 3d 8e c5 b2 bd
       -0.0045885392 -0.005748973 0.04224066 -0.08729087
0003e0 cf f5 2c 3d 49 f5 a4 3d 4c ca a2 bd 7b 66 b8 3d
       0.04222661 0.08054597 -0.07948741 0.090039216
0003f0 94 3d c5 bd e3 e1 2b bc 38 ee c1 bc b3 45 46 bd
       -0.09630886 -0.010490867 -0.023673162 -0.048406314

convs.1.lin_l.bias f4 [64]
000000 b5 73 95 bd e8 4e d9 3c 5e 65 61 bd 82 62 36 3c
       -0.0729746 0.026526883 -0.055028312 0.0111318845
000010 f0 73 61 bb 7d 3e 4f 3d 54 47 23 3d 10 b1 95 bd
       -0.003440138 0.050596703 0.039862946 -0.073091626
000020 c1 a6 0d 3c fc 50 23 3d a9 dd c6 3c ff 48 db bc
       0.008645714 0.039872155 0.024275618 -0.026768206
000030 f5 6c 53 bd 41 ec 78 3b 1c 3a 33 bd 9b dd 84 bd
       -0.05161758 0.0037982615 -0.04375659 -0.064875804
000040 2b e3 8e bd 80 24 9d 3c f6 17 1b 3d ec 46 7d 3c
       -0.069769226 0.019182444 0.037864648 0.015458804
000050 71 6a b6 3b fb a3 87 bd d2 b3 fa 3c c3 b4 6f 3d
       0.005566888 -0.06623074 0.030603323 0.058521997
000060 72 9d 0b bc 2f 8e f2 bc c1 06 fc bc 56 4f 99 b9
       -0.008521425 -0.029608814 -0.03076494 -0.00029241544
000070 a5 78 1f bb fc a2 03 3d a0 0c a5 38 de 24 5a 3d
       -0.0024333384 0.032137856 7.870165e-05 0.053257816
000080 fd e6 34 3d b2 1c 0a 3d bf 8c 70 bc ba cd 7f 3d
       0.0441656 0.033718772 -0.014681994 0.062452056
000090 01 8a fb 3c 3c aa 1d 3d 29 7d aa bc 0d 04 7f bd
       0.030705454 0.038492426 -0.020811634 -0.062259723
0000a0 62 51 19 3d 39 b8 0a ba 93 ee ca 3c 66 af 98 bd
       0.03743113 -0.00052917335 0.024771964 -0.074553296
0000b0 b7 af 44 3d 27 f9 02 39 74 74 ae 3b 0e 1f 85 3d
       0.048019137 0.00012490583 0.005323941 0.06500064
0000c0 f4 31 81 3d c2 6c 3f 3d 00 a2 20 bd 46 2c 64 bd
       0.06308356 0.04673458 -0.039216995 -0.055706285
0000d0 40 6b 23 bd 88 55 9e bd ce 41 ce bc a8 c0 95 bd
       -0.039897203 -0.077311575 -0.025177862 -0.07312137
0000e0 b7 14 cb bc 7a f0 90 3d fc 85 2a 3b a6 b3 27 3d
       -0.024790151 0.07077117 0.0026019802 0.04094281
0000f0 25 6e 07 3d cd 39 3a 3d ad 8e 35 bd 5c cd d7 bb
       0.033064026 0.04546528 -0.04432552 -0.00658576

convs.1.lin_r.weight f4 [64, 128]
000000 54 27 9e 3d 05 5e 98 3d 9a b0 63 bb 46 d8 f0 3d
       0.07722345 0.07439808 -0.0034742714 0.11760001
000010 d5 a7 e9 3c 60 26 bb bc ba 0d 7b 3d 88 21 2f 3d
       0.028522411 -0.022845447 0.061292388 0.042756587
000020 4b fa aa bd fa 28 d9 bd b8 60 2d bd 4f 04 4a bd
       -0.08348521 -0.10603519 -0.042328566 -0.049320515
000030 08 13 5f 3d 36 11 84 3d 9f 79 00 bc 98 45 8d bb
       0.05446151 0.06448595 -0.007841497 -0.0043112747
000040 82 29 25 bc 8d 1a 8b 3d d3 d6 ba ba 69 8c ea 3b
       -0.010080697 0.067921735 -0.0014254696 0.0071578515
000050 db 1e 00 3d 69 04 df 3d 83 99 a1 bd 7f 88 85 bc
       0.031279426 0.10889513 -0.07890608 -0.016300438
000060 c0 ac 05 bc a5 ae 21 3d ba cb 8b 3d 8f f4 7e 3a
       -0.008158863 0.039473195 0.06825967 0.0009725773
000070 e6 51 8b bb 8c 49 a7 3d 8b d8 88 3d 06 cc 87 bd
       -0.0042517064 0.08168325 0.06681927 -0.06630711
000080 93 2c 23 bc d8 ea 0f bd 55 39 a5 3c 81 f3 a9 ba
       -0.009959358 -0.035136074 0.02016894 -0.0012966247
000090 80 7e cd 3d b8 27 3e 3d 86 05 75 3d 5a 47 35 3e
       0.100338936 0.046424598 0.05981972 0.17703
0000a0 5d 5c 50 3d af ea 4c 3d 3d 5b 9b 3d 78 ef 51 bc
       0.050869334 0.0500285 0.07585762 -0.012813441
0000b0 2a 3b e4 3d bd 29 b7 ba 60 8a 80 3d 2f c7 52 bd
       0.11144097 -0.0013974231 0.06276393 -0.051459488
0000c0 32 2c ee bc 1f 55 fc bb 71 a4 94 3d d7 aa 00 be
       -0.029073808 -0.007700577 0.07257927 -0.1256517
0000d0 b9 bf 82 bb bc d2 db 3b 58 d9 77 3d 45 87 dc 3d
       -0.0039901403 0.006708471 0.06051001 0.10767988
0000e0 30 ba 81 bd 84 e5 4f bc ab 8f d9 bc 2f 03 c0 bd
       -0.063343406 -0.012688998 -0.026557764 -0.09375607
0000f0 61 46 8d 3b fd c9 3b bd d1 64 c4 3d 8f 63 54 3b
       0.0043113683 -0.045846928 0.09589542 0.0032407974
000100 ae 81 8f bd 11 fa 0c 3e 04 fc 03 3c aa 7b 71 3d
       -0.07007156 0.13767268 0.008055691 0.058955826
000110 06 4d a1 3d bf 81 27 bc 0e 3c 02 bd 47 77 1c 3d
       0.07876019 -0.010223805 -0.031795554 0.03819969
000120 0f a3 8b 3d 8d 9c b3 3d 07 5e 2b 3d 4f 8c a4 3d
       0.0681821 0.08770094 0.04183772 0.08034574
000130 cd b9 75 3d de 60 84 3d 15 b2 3e bd 79 25 f0 3b
       0.059991647 0.064637884 -0.04655655 0.007328686
000140 12 8b 08 bd 3d 6f de 3c 35 90 f4 3c 78 77 85 bb
       -0.033335753 0.027152652 0.02985392 -0.0040730797
000150 1f 8d a7 3d 15 c1 98 3d 31 f2 ae bd 7c 7b 8c 3d
       0.081812136 0.074587025 -0.08542288 0.0685949
000160 e0 57 59 3c 16 e3 b3 bb 89 9d e9 bb 02 47 43 bd
       0.01326558 -0.0054897172 -0.0071293754 -0.04767514
000170 a5 70 3a bc b3 9d a9 bd 35 50 9b bd c5 24 a6 3d
       -0.011379396 -0.08282032 -0.07583658 0.08112482
000180 bc 04 57 3d 61 7e b4 bb cd 28 7b 3d 15 55 05 3c
       0.05249475 -0.0055082296 0.061318208 0.008137961
000190 eb 9a 2c 3d 7d 25 48 3d 45 82 e6 bd 2f 1d 03 bc
       0.04213993 0.048863877 -0.11255316 -0.008002563
0001a0 e8 7c 0a 3e 1e 6e 5b bc 4b 39 c3 3d 2d 5d 65 bc
       0.1352421 -0.013392953 0.09532412 -0.013999266
0001b0 77 55 6f 3d 50 7a 10 3e 04 51 9b bb 8f 58 64 3d
       0.058431115 0.14109159 -0.0047398824 0.05574852
0001c0 f4 6f 3e 3d f2 d8 d9 3d be 50 b1 3d e8 71 8f 3d
       0.046493486 0.10637082 0.086579785 0.07004148
0001d0 1f a3 ad 3d 5c 4b 38 bc 22 2c 4b bd 50 0c 89 3d
       0.084783785 -0.011248436 -0.049602635 0.066918015
0001e0 f8 c5 70 bd e3 02 b9 bc aa 15 85 bd d1 de 7a 3d
       -0.058782548 -0.022584384 -0.06498273 0.06124765
0001f0 1c 26 37 bd a0 a5 ea 3d 81 91 8c 3d 46 38 b7 bd
       -0.04471408 0.11457372 0.0686369 -0.0894628
000200 5e b0 e2 ba b5 b6 4a bd c9 e9 3a bd 29 92 65 bd
       -0.0017294993 -0.04949065 -0.04563311 -0.056047592
000210 49 8a d4 3c 02 4b e0 bc 18 78 81 3d 96 4f ec 3c
       0.025944846 -0.027379517 0.06321734 0.028846543
000220 fe 67 15 3e 5e da 86 bc e8 55 cf 3c dd e0 63 bc
       0.14590451 -0.016461547 0.025309518 -0.013908592
000230 11 66 27 3c b0 de de 3a ce 41 63 3d bf b6 2f bc
       0.010217206 0.0017003622 0.055482678 -0.010724722
000240 b1 eb 77 3d ee be c2 bd e3 98 95 3b a9 d4 3f 3c
       0.060527507 -0.09509073 0.0045653447 0.011708417
000250 4a db 81 bc 85 ba e6 3b c5 22 05 bd 6d 3a 7f bd
       -0.015851635 0.007041278 -0.032503862 -0.06231158
000260 dc c0 9f 3d 3f 8a 26 bd a5 54 5f 3d 60 e7 91 3c
       0.07800457 -0.040659185 0.054524083 0.017810524
000270 64 49 84 3d 30 1d 1d bd 49 17 92 bd 80 59 5b 3d
       0.06459311 -0.038357913 -0.071333475 0.05355215
000280 c6 e0 ee 3c 4e 4f 15 3d dc 88 a6 bc 40 e2 ed bc
       0.029159915 0.036452584 -0.020328932 -0.029038548
000290 0f ad e7 3c aa 1e 7f bd 01 02 b5 3b 3f 61 c2 bd
       0.028280763 -0.062285103 0.0055239205 -0.094912045
0002a0 88 b0 66 3c 0e 0b bc 3c a7 54 ec 3c 73 df ac 3d
       0.014080174 0.02295449 0.02884896 0.08441057
0002b0 3e 6b ee bc 75 a3 08 3d 05 b1 fa bc 73 45 a1 bb
       -0.029103871 0.03335901 -0.030601988 -0.004921609
0002c0 fe 9b 70 3d 49 37 33 bd ff 8d 7d 3c 1b 8d b2 3d
       0.058742516 -0.043753896 0.015475749 0.0871832
0002d0 58 61 8e 3d 7d f4 06 3d 28 73 3f 3c 8b 57 09 bc
       0.069521606 0.032948006 0.01168517 -0.008382688
0002e0 d9 16 d1 bd 8f e2 22 3d 0a 6e 4c 3d 45 06 96 3d
       -0.10209436 0.039766844 0.04990963 0.073254146
0002f0 63 4e 92 3d 20 8e cd bc aa d4 88 bc 9c c7 49 bc
       0.07143857 -0.025092185 -0.016702969 -0.012315657
000300 fb 8b a1 3b 0b 3f ea bd 14 12 90 3d 7a 24 c4 bc
       0.004930017 -0.11437806 0.07034698 -0.023943175
000310 97 6a 83 bd 81 da c5 bc d0 fd 1a 3b 2b 8b f4 3c
       -0.06416815 -0.024152042 0.002364982 0.029851517
000320 79 63 8d 3d d2 31 93 bd 1c 5e bc bd 7a b1 04 3b
       0.069037385 -0.07187237 -0.091976374 0.0020247386
000330 7e 11 f4 bc bb 8a cb bc 4e 56 d5 bc 05 5d ba bb
       -0.029793497 -0.024846425 -0.02604213 -0.0056873583
000340 77 53 86 3c b4 20 03 bd 64 bb 12 3d cd 7a 63 3b
       0.016397221 -0.03201361 0.03582324 0.0034710646
000350 d1 3a 03 bd 92 0f eb bc 17 5a ab bd 43 20 06 bd
       -0.032038514 -0.028693948 -0.08366793 -0.03274561
000360 77 1b 3f 3d 58 40 91 bc 91 d5 87 bd 7c ed 89 3c
       0.046657052 -0.017730877 -0.066325314 0.016836874
000370 9c 1d ca bd a5 d6 ed bc 5a 34 56 3c 56 bd d8 bc
       -0.09868929 -0.029033015 0.013074005 -0.02645747
000380 8d 32 35 bd 5d 2e 10 3d 0f d2 1d bd 6c 50 c8 3c
       -0.044237662 0.035200465 -0.038530406 0.02445241
000390 30 2d 05 bd 7a 78 a1 3c a2 a3 84 3d db b4 59 bd
       -0.032513797 0.019710768 0.06476523 -0.053150993
0003a0 8b bc bc bd 59 a7 a7 3d 2d 79 a9 bd b3 e4 90 3d
       -0.09215649 0.08186216 -0.082750656 0.07074871
0003b0 52 9b 9d 3c 9d 17 26 bd 30 e2 b0 3c c0 fd 2c bd
       0.019239102 -0.040549863 0.02159223 -0.042234182
0003c0 88 ae d2 bd fe bf 00 bc 48 29 78 bd af ce cc bd
       -0.102871954 -0.0078582745 -0.060586244 -0.10000359
0003d0 6a 56 32 3b d1 d9 1c 3d 8e eb 7d 3d dc 7a 1c 3d
       0.0027212151 0.038293663 0.06199222 0.038203105
0003e0 36 9c 48 bc 4d d8 14 bc 55 26 13 bd 45 8c 77 bc
       -0.012244275 -0.009084773 -0.03592523 -0.015109126
0003f0 b8 b4 b1 3c bf df 0d bc 74 ba 99 bc d5 a9 72 3b
       0.021692619 -0.008659302 -0.018765666 0.0037027497
