notebooks/runs_graphsage/run3_20251021T144658Z/graphsage_encoder_run3.pt (torch, 69800 bytes, 3 tensors)

convs.0.lin_l.weight f4 [32, 262]
0	0xbc481b64	-0.012213562
1	0x3d4a8b7b	0.049449425
2	0x3d1e727d	0.038683403
3	0xbcd10e7b	-0.0255196
4	0x3df84e20	0.12124276
5	0x3e25fca2	0.16209653
6	0x3ccc0f93	0.02490977
7	0xbd9ebb21	-0.07750536
8	0xbd894303	-0.067022346
9	0x3d318fe1	0.043350104
10	0x3e9c4922	0.30524546
11	0xbe9c9028	-0.30578732
12	0x3c818e1b	0.015814831
13	0x3c9b634c	0.018968247
14	0xbdfcb52b	-0.123392425
15	0xbdff3fbc	-0.12463328
16	0xbd1eedd8	-0.038801044
17	0xbc9157a6	-0.01774199
18	0x3e09d075	0.13458426
19	0xbdfdd349	-0.12393815
20	0xbde04df2	-0.10952367
21	0xbd5322ac	-0.051546738
22	0xbe066654	-0.13124973
23	0xbd439adf	-0.04775512
24	0x3d15d539	0.036580298
25	0xbe30b878	-0.17257869
26	0x3d38f0ce	0.045151524
27	0xbe248968	-0.16068041
28	0xbe04ca7e	-0.1296787
29	0xbdbe386d	-0.09288106
30	0xbd381b4a	-0.0449479
31	0x3deddd0c	0.11614427
32	0x3c9513b9	0.018197881
33	0xbe647823	-0.22311454
34	0x3e1310e1	0.14361908
35	0x3db9d55c	0.09073898
36	0x3d02457b	0.031804543
37	0xbea7ced8	-0.32774997
38	0x3d03d187	0.032182243
39	0x3d99d7af	0.075118415
40	0xbe98b539	-0.29825762
41	0xbdf14da2	-0.117823854
42	0xbe8524a3	-0.26004514
43	0x3d2fa039	0.04287741
44	0xbdd5fb3b	-0.10448309
45	0x3e8072f1	0.25087693
46	0x3dc55911	0.09636129
47	0xbe2b69ef	-0.16739629
48	0xbe16aabd	-0.14713569
49	0xbf3dbc74	-0.7411568
50	0xbf2bd7ff	-0.6712646
51	0xbddbc9a9	-0.10731823
52	0x3da33e53	0.07970872
53	0x3e2f7fe1	0.17138626
54	0xbd085781	-0.033286575
55	0x3dc792f9	0.0974483
56	0x3d14082d	0.03614061
57	0x3dc45ffa	0.095886186
58	0xbe522cf9	-0.20524968
59	0x3de4dab7	0.11174529
60	0xbe10a81c	-0.14126629
61	0x3d3743d5	0.044742424
62	0xbe84c5fb	-0.25932297
63	0x3d59ff59	0.053222034
64	0xbb6027ad	-0.0034203336
65	0xbe983f1c	-0.2973565
66	0x3d279487	0.04091313
67	0xbe01bce5	-0.12669714
68	0x3d05dcc9	0.03268126
69	0xbd872108	-0.06598097
70	0xbe3bb1ee	-0.18329594
71	0x3cc01b74	0.02345059
72	0xbbe5ca8d	-0.0070126713
73	0xbe47e285	-0.19520004
74	0xbd971e39	-0.073788114
75	0x3e16b68b	0.14718072
76	0xbe2e945f	-0.17048787
77	0xbbe01333	-0.006838226
78	0xbcd88789	-0.026431816
79	0xbc08ef56	-0.008357843
80	0xbe597329	-0.21235336
81	0xbdbab6a2	-0.09116866
82	0x3e70f62f	0.23531412
83	0xbea0f37c	-0.31435764
84	0x3cbe702c	0.023246847
85	0xbbeff431	-0.007322811
86	0xbe405550	-0.18782544
87	0xbe2ecd28	-0.17070448
88	0x3e060f4a	0.1309177
89	0x3d9ceb35	0.0766205
90	0xbd5a2d6e	-0.05326598
91	0xbc89176c	-0.016734801
92	0xbe7f9db0	-0.24962497
93	0x3dd5deef	0.10442912
94	0x3c0caec2	0.008586587
95	0xbd74e23e	-0.059786074
96	0x3d8ea040	0.06964159
97	0xbe2c2873	-0.16812305
98	0x3d28da2d	0.041223694
99	0xbe0981d3	-0.1342843
100	0xbcafd864	-0.021465488
101	0xbeb4e6e1	-0.35332397
102	0xbdae1819	-0.0850069
103	0xbdca561b	-0.098797046
104	0x3d52d675	0.051474053
105	0x3cff7006	0.031181347
106	0xbe62334b	-0.22089879
107	0x3e007470	0.12544417
108	0xbd8ab1a8	-0.067721665
109	0xbc66f29e	-0.01409593
110	0x3bdc8e78	0.006730851
111	0x3d9db129	0.07699806
112	0x3d8103dd	0.06299565
113	0x3cb06411	0.02153209
114	0x3c57fe21	0.013183148
115	0x3cf3f8b3	0.029781675
116	0xbce47dad	-0.027891958
117	0xbcf590cf	-0.029976277
118	0x3d9fc910	0.078020215
119	0xbe91b381	-0.28457263
120	0x3dff9a72	0.1248063
121	0xbf5a69e0	-0.853178
122	0xbdb47f52	-0.08813347
123	0x3de86be9	0.11348707
124	0xbeb4fe88	-0.35350442
125	0x3cece33a	0.028916944
126	0x3d9218c6	0.071336314
127	0xbef132c3	-0.4710904
128	0x3be79609	0.007067446
129	0xbe0d742a	-0.13813844
130	0xbf341af3	-0.7035362
131	0xbef9ae12	-0.48765618
132	0x3e8a3a00	0.26997375
133	0xbed1421f	-0.4087076
134	0xbb1fab3d	-0.002436354
135	0x3ce6235c	0.028093033
136	0x3d3f848b	0.046757262
137	0x3d09ebb4	0.03367205
138	0x3c313420	0.01081565
139	0x3e7a9472	0.2447069
140	0xbdcdf43b	-0.10056349
141	0xbe09366d	-0.13399668
142	0x3e20eef2	0.1571615
143	0x3ecaf0ea	0.39636928
144	0x3e2072de	0.15668818
145	0xbe59f2b3	-0.21283989
146	0x3e08dc68	0.13365328
147	0xbd50f2b8	-0.051012725
148	0xbd1fdab4	-0.03902693
149	0x3e4622f4	0.19349271
150	0x3e65f84f	0.22458003
151	0xbc3347a1	-0.010942371
152	0x3e226de9	0.1586224
153	0x3ea55472	0.3229099
154	0x3d80dbfc	0.06291959
155	0x3e7c5946	0.2464343
156	0x3e05e94c	0.13077277
157	0x3e9d93ff	0.30776975
158	0x3e875cb5	0.26437917
159	0x3dd64280	0.104619026
160	0x3de463bd	0.11151836
161	0xbce25676	-0.027629118
162	0x3e115b3d	0.14194961
163	0xbd8371a1	-0.06418157
164	0xbd238476	-0.039921246
165	0x3e0dd23e	0.13849732
166	0x3c1e9446	0.009678906
167	0x3e1c74e7	0.1527897
168	0x3d8449fd	0.06459425
169	0x3e4d40d5	0.20044263
170	0x3ccc2d05	0.02492381
171	0x3de0101e	0.10940574
172	0x3e429894	0.19003516
173	0x3c5c7a2e	0.013456864
174	0x3dcb8d9a	0.09939118
175	0x3cf9e249	0.030503409
176	0x3e4e358e	0.20137617
177	0x3dfa7315	0.122289814
178	0x3e2398bb	0.15976231
179	0x3c99b345	0.01876224
180	0x3dfba42f	0.12287175
181	0x3df270fc	0.11837956
182	0xbdf6c1c3	-0.12048676
183	0xbb942f06	-0.004522207
184	0xbd809d9e	-0.06280063
185	0x3dda8728	0.1067031
186	0xbdda825d	-0.10669396
187	0xbca03739	-0.019557582
188	0x3dc373ca	0.095435694
189	0x3b767aa1	0.0037609714
190	0xbd8d1f45	-0.0689073
191	0x3d925eee	0.07147013
192	0xbe1c04d3	-0.15236215
193	0x3dc24ad7	0.09486931
194	0xbca9a7d9	-0.020709919
195	0xbc9c4893	-0.019077575
196	0xbe211782	-0.15731624
197	0xbe671e1d	-0.22570081
198	0x3c9e40f2	0.019318078
199	0xbddb25ce	-0.1070057
200	0xbe7a6970	-0.24454284
201	0x3c696a0f	0.014246478
202	0xbe040b47	-0.12894927
203	0x3ce0ff1e	0.0274654
204	0x3c271ce6	0.010199761
205	0x3dde7881	0.10862828
206	0xbdf15dcd	-0.11785469
207	0xbc5a8101	-0.013336421
208	0x3d5e1e34	0.054228023
209	0x3d3fb7ed	0.046806265
210	0x3d8466f5	0.0646495
211	0xbe3a37c8	-0.18185341
212	0x3d35af79	0.044356797
213	0x3e1aed73	0.15129642
214	0x3d91ba61	0.07115627
215	0xbcad7fae	-0.021179046
216	0x3db5c9af	0.08876359
217	0xbdbc32ca	-0.09189375
218	0xbe0c2406	-0.13685617
219	0x3d0bfe6e	0.03417819
220	0x3e7c7ec5	0.24657734
221	0xbe58378a	-0.21114936
222	0xb810b272	-3.4498466e-05
223	0x3e55b392	0.20869282
224	0xbe433d6f	-0.19066404
225	0x3df4dde3	0.11956384
226	0x3b926956	0.0044681234
227	0x3cd4ff74	0.026000716
228	0x3c807179	0.015679108
229	0xbda1df88	-0.07903963
230	0x3c7add17	0.015311501
231	0x3e03ac23	0.12858634
232	0x3eac43c1	0.33645442
233	0xbcbba0d4	-0.022903837
234	0x3dc3254b	0.095285974
235	0xbdbe6969	-0.09297449
236	0x3d98407f	0.07434177
237	0xba5c1801	-0.0008395911
238	0x3da92c41	0.08260394
239	0xbe70a56e	-0.23500606
240	0x3cbfb2d3	0.0234007
241	0x3e25525b	0.16144697
242	0xbdaca279	-0.08429427
243	0xbbf17547	-0.007368717
244	0xbdd17626	-0.10227613
245	0xbdda3278	-0.106541574
246	0xbcba2edd	-0.022727424
247	0xbd84158a	-0.06449421
248	0xbd0718a3	-0.03298248
249	0xbda3d800	-0.08000183
250	0x3ef65efa	0.48119336
251	0x3d83d60d	0.06437311
252	0xbd5c7cf5	-0.053830106
253	0x3e108253	0.14112215
254	0x3d57b10d	0.052659083
255	0xbd86821f	-0.065677874

convs.0.lin_l.bias f4 [32]
0	0xbcdf59d6	-0.027264517
1	0xbc8b1730	-0.01697883
2	0xbb422ed2	-0.0029629958
3	0x3ccf8654	0.025332607
4	0x3c6e34fa	0.014538998
5	0xbcf02cea	-0.029318292
6	0xbc146ea1	-0.009059579
7	0x3c10b103	0.008831265
8	0x3c8134f8	0.015772328
9	0xbd24ef57	-0.040267315
10	0x3d09a718	0.03360662
11	0xbc25f20f	-0.010128512
12	0xbc4b8d5d	-0.01242384
13	0x3cb376fc	0.021907322
14	0x3d2086a4	0.039190903
15	0x3b503673	0.0031770736
16	0xbc398942	-0.011324229
17	0x3b26f6e7	0.0025476755
18	0x3b4593ab	0.0030147831
19	0xbac4e01b	-0.0015020402
20	0x3cf370d6	0.02971689
21	0xbca9f895	-0.020748416
22	0xbc0dad26	-0.008647239
23	0xbcc64bcd	-0.024206067
24	0xbc4396a7	-0.011937774
25	0xbc84e549	-0.016222613
26	0x3c582024	0.013191257
27	0xbc3c3fab	-0.011489789
28	0x3a1e7bfb	0.0006045696
29	0x3d08080b	0.033210795
30	0xbc02f831	-0.007993744
31	0xbc512c05	-0.012766843

convs.0.lin_r.weight f4 [32, 262]
0	0x3b2a2f88	0.0025968272
1	0x3cac4326	0.021028113
2	0x3cd41f5f	0.025893865
3	0xb8911668	-6.918312e-05
4	0x3c886b17	0.016652627
5	0x3c97ea1d	0.018544251
6	0xba11f3b3	-0.0005567625
7	0xbbcd74af	-0.0062700133
8	0xbba9391e	-0.0051642796
9	0xba9f358b	-0.0012146694
10	0x3d0390c3	0.032120477
11	0xbd1a1ab0	-0.037623107
12	0xbb26a980	-0.002543062
13	0x3c5bb0ad	0.013408822
14	0xbc43ff4c	-0.011962723
15	0xbc42cb87	-0.011889345
16	0xbc026b9a	-0.0079602245
17	0xb913fce9	-0.00014113229
18	0xbc47815b	-0.012176837
19	0xbd1ceb23	-0.03831018
20	0xbc3f0c4c	-0.011660647
21	0xba3a2ce2	-0.0007102025
22	0xbb1f27fa	-0.0024285302
23	0x3c4906c7	0.012269682
24	0x3c912ae1	0.017720642
25	0xbc45a29f	-0.012062698
26	0x3b41c78e	0.0029568407
27	0xbbaaf10c	-0.0052167233
28	0xbc6a9480	-0.014317632
29	0xb9176f9a	-0.00014442057
30	0xbc005894	-0.007833619
31	0x3902ca18	0.00012473052
32	0xbbf8828d	-0.0075839222
33	0xbc79441c	-0.015213992
34	0x3c978662	0.018496696
35	0x3aa3c68c	0.0012495085
36	0xbc7ec1a9	-0.015549102
37	0xbb57de43	-0.0032938875
38	0x3b3ce368	0.0028822068
39	0xbbdb7f30	-0.0066985115
40	0xbbccda1d	-0.006251587
41	0xbcc6b000	-0.024253845
42	0xbd005157	-0.03132757
43	0x3aa28c1e	0.0012401377
44	0xbc21d1d0	-0.009876683
45	0x3cc5ae67	0.024131013
46	0x3b95035c	0.0045475196
47	0xbce53822	-0.027980868
48	0xbd018a3e	-0.03162598
49	0xbcfb8a40	-0.030705571
50	0xbd118fd9	-0.035537574
51	0xbb9444b6	-0.0045247925
52	0x3aee158e	0.0018164383
53	0x3cedcc09	0.029027956
54	0x3bd0dcf1	0.0063739945
55	0x3c556ac2	0.013025941
56	0x3c2c4946	0.010515517
57	0x3be728a2	0.0070544044
58	0xbc8ffd15	-0.017576734
59	0x3c747914	0.014921445
60	0xbd5d205a	-0.05398593
61	0xbb88f5dc	-0.0041796993
62	0xbc7ebd9b	-0.015548135
63	0xbd149404	-0.03627397
64	0xbb5e3735	-0.0033907418
65	0xbd36f5a5	-0.04466786
66	0x3becbe21	0.0072248136
67	0xbcef3e46	-0.029204499
68	0xbbac5b89	-0.0052599353
69	0x3c19d74f	0.0093897125
70	0xbbbc4365	-0.0057453387
71	0x3c49dafd	0.012320277
72	0x38b35012	8.5502994e-05
73	0xbc8d34fa	-0.017237175
74	0x3b056be9	0.002035851
75	0x3b04dddd	0.0020273842
76	0x3c4232ae	0.011852903
77	0x3b4b8c91	0.0031059126
78	0xbbec0c60	-0.0072036237
79	0xbb0bba0e	-0.0021320614
80	0xbccbbfdc	-0.02487176
81	0xbbca35b0	-0.006170951
82	0xbc3ec493	-0.011643547
83	0xbca1d74f	-0.019755987
84	0x3b8f458c	0.0043723043
85	0xbc3c67c1	-0.011499346
86	0xbcb47f17	-0.022033257
87	0xbcb5eddc	-0.022208147
88	0xbcdaa0f3	-0.026688075
89	0xbca9edeb	-0.020743331
90	0xbc4119b7	-0.011785916
91	0xbcd66370	-0.026170462
92	0x3958fb34	0.00020692946
93	0x3bceff31	0.0063170423
94	0xbd0d0fe0	-0.034438968
95	0xbbf1edb4	-0.0073830727
96	0x3c4b0c05	0.012393002
97	0xbbf0659c	-0.0073363315
98	0xbc9a9dbb	-0.01887404
99	0x3a2c608c	0.0006575666
100	0x3a5b03dc	0.0008354762
101	0xbd2a7c06	-0.041622184
102	0xbc91a744	-0.017779954
103	0xbd4351e3	-0.047685515
104	0xbd03d3a2	-0.03218425
105	0xbbfa544b	-0.007639443
106	0xbc89a06d	-0.01680013
107	0x3c498059	0.012298667
108	0x3aa1c5ab	0.0012342235
109	0xbbd9e669	-0.0066497815
110	0x3bb87d4b	0.0056301705
111	0x3b10d27c	0.0022098115
112	0xb8fee39a	-0.00012154058
113	0x3afe5131	0.0019402859
114	0x3c33cc62	0.010974022
115	0x3c20654d	0.009789777
116	0x3cbb7a2c	0.022885405
117	0xbb928e71	-0.0044725467
118	0x3bc7e1e9	0.0060999286
119	0xbd0331f6	-0.03203007
120	0x3ca5532c	0.020181261
121	0xbc41cf51	-0.011829213
122	0xbd3127d5	-0.043250877
123	0x3c36bb83	0.011153105
124	0x3b52559c	0.0032094484
125	0xbd5150c8	-0.05110243
126	0xbb81971f	-0.0039547826
127	0xbd0de1f5	-0.034639318
128	0xbd350509	-0.044194255
129	0xbd306086	-0.043060802
130	0xbcfe0f81	-0.031013252
131	0x3cb51220	0.02210337
132	0xbd20973d	-0.039206732
133	0x3c9245b0	0.017855495
134	0xbc08af9e	-0.008342652
135	0x3d2d4ada	0.042307712
136	0x3cfa43d9	0.03054993
137	0x3bf99d41	0.007617623
138	0x3c48dccc	0.012259673
139	0x3d2f4de9	0.04279891
140	0xbd480d62	-0.048840888
141	0x3b8c6bc1	0.004285306
142	0x3cd1e38c	0.025621198
143	0x3df80f31	0.121122725
144	0xbb202aa9	-0.002443949
145	0x39df376f	0.00042575176
146	0x3cdf3bff	0.027250288
147	0x3c6a2a6f	0.0142923435
148	0x3c01182b	0.007879297
149	0x3e4288ae	0.18997452
150	0x3c6362c2	0.013878526
151	0x3e150526	0.14552745
152	0x3da75350	0.081701875
153	0x3d8621ba	0.065494016
154	0x3de1b2ee	0.11020456
155	0x3cc3428c	0.023835443
156	0x3cfd6b69	0.030935006
157	0x3d153ff3	0.03643794
158	0x3da3b9c2	0.07994415
159	0x3c86b375	0.016442994
160	0x3d1d8266	0.038454436
161	0x3b09935a	0.002099237
162	0x3caaaa3e	0.02083313
163	0x3c4fa61e	0.012673883
164	0x3c71134b	0.014714072
165	0x3d620474	0.055180028
166	0x3c883ffd	0.016632074
167	0x3d42b208	0.047533065
168	0x3bc872fe	0.0061172238
169	0x3e105f09	0.14098753
170	0x3cddb49e	0.027063664
171	0x3cb5ec21	0.022207322
172	0x3ad97878	0.0016591689
173	0x39aae3b6	0.00032594585
174	0x3c077022	0.008266481
175	0x3c94797b	0.018124333
176	0x3c06ed91	0.008235351
177	0x3cdece64	0.027198024
178	0x3d51d48c	0.05122809
179	0x3c565d48	0.013083763
180	0x3c70aeca	0.01469011
181	0xbc005221	-0.007832081
182	0x3c054d94	0.008136172
183	0x3a54a1f9	0.0008111294
184	0xbb1781e7	-0.00231182
185	0x3b1ffdc3	0.0024412728
186	0xbcedee05	-0.02904416
187	0x3c225fd4	0.0099105425
188	0x3b460830	0.0030217282
189	0x3af1664c	0.0018417328
190	0x3b4f1812	0.003160004
191	0x3d05e952	0.032693215
192	0x3bdd10b2	0.006746375
193	0xbb8dde6e	-0.004329494
194	0xbb435cd1	-0.0029809962
195	0x3c26c75f	0.01017937
196	0x3c2505ef	0.010072215
197	0x3c105635	0.008809616
198	0xbc9b60ac	-0.018966995
199	0x3c9a4405	0.018831262
200	0x3c68442a	0.014176408
201	0x3c39e8f8	0.011347048
202	0xbc0a46c7	-0.008439726
203	0x3b70c7a9	0.00367401
204	0x3b0f02be	0.0021821703
205	0x3b2f115a	0.0026713223
206	0xbb3ff2c3	-0.0029288984
207	0x3b4c0618	0.0031131562
208	0x3c3a0ece	0.011356069
209	0x3c165c79	0.009177321
210	0x3c114932	0.008867549
211	0x3b81ca5b	0.00396089
212	0x3c41a5a6	0.011819279
213	0x3c12c861	0.008958907
214	0x3b1b0cc2	0.0023658727
215	0x3bd12aad	0.006383261
216	0x3bd8d7e7	0.0066175344
217	0x3c14c6bd	0.009080586
218	0x3c8aa402	0.016923908
219	0x3c7cacdb	0.015422071
220	0x3d1620fa	0.036652543
221	0x3c122e22	0.008922132
222	0x3c759e1e	0.014991311
223	0x3d7ea752	0.062171288
224	0xbb17a5ae	-0.0023139524
225	0x3c123230	0.008923098
226	0x3d8348bd	0.06410358
227	0xbcff14bd	-0.031137818
228	0x3cfed276	0.031106215
229	0x3be97630	0.0071246848
230	0x3c63d996	0.013906857
231	0x3e1d112b	0.1533858
232	0x3d3162ad	0.043306995
233	0x3c63011a	0.013855243
234	0x3c992f4f	0.018699316
235	0x3c24f47a	0.010068053
236	0xbd1cca55	-0.038278896
237	0x3c063a65	0.008192633
238	0x3c31c539	0.010850244
239	0x3c4c9cc6	0.01248855
240	0x3db5251f	0.08844971
241	0x3d227288	0.039660007
242	0x3c1e53c8	0.00966353
243	0x3c7122d9	0.014717781
244	0xbbd1c2d1	-0.0064013978
245	0xbb3509a9	-0.0027624166
246	0xbbd0d1e2	-0.006372676
247	0xbb81c9cb	-0.003960823
248	0xbb71c5b2	-0.0036891517
249	0xbb7d650e	-0.003866497
250	0x3ca1fcac	0.019773804
251	0xbb568315	-0.003273194
252	0x3a2d9c85	0.00066227495
253	0x3a8a7c44	0.0010565598
254	0xbb1407b3	-0.0022587597
255	0xbad5c464	-0.0016309139
