notebooks/graphsage_v2/runs_graphsage/run2_20251023T142813Z/graphsage_encoder_run2.pt (torch, 338121 bytes, 6 tensors)

convs.0.lin_l.weight f4 [128, 262]
0.003202841 0.033979543 -0.030932454 0.019827046 -0.05338841 0.014555324 0.033379935 -0.0366052
0.00833482 -0.03345688 -0.1464583 0.04785057 0.014019401 0.03143757 0.06972975 0.049203675
0.03040948 -0.028627114 -0.088282116 0.02744557 0.08157877 0.0026968005 0.024068207 0.011726214
0.054708615 0.0401855 -0.029723028 0.015511147 0.03741772 -0.026876066 0.045599177 0.013297341
0.036517967 0.08595014 0.0077330256 -0.10276644 -0.10002245 -0.0018575903 0.06814691 -0.087101914
-0.04474971 0.00891613 0.10745055 0.087554604 0.013733238 -0.037436385 -0.0045636483 0.014375895
0.020918092 -0.024541806 0.000601709 0.046889383 -0.031324904 0.05079814 0.028745426 0.089469425
-0.08368133 -0.073639214 -0.011247135 -0.08634683 -0.030638287 0.01498979 0.047018792 0.08257507
-0.017314013 0.02457395 -0.05019422 0.093964875 0.030367497 -0.058889844 -0.0369017 -0.064388946
0.014306486 0.008498648 0.054820463 -0.009768585 0.08623903 0.09287407 0.03576427 -0.054214273
-0.09504863 0.003411631 0.010143646 0.07018413 0.0076452494 -0.052380733 0.14199153 0.02330128
0.014899672 0.06897238 -0.033180296 -0.059386265 0.11963338 -0.056854628 0.024546802 0.0105993925
-0.020261653 -0.058253735 0.03144709 0.04556803 0.0920352 0.09757227 0.017708207 -0.062332038
0.027701098 -0.021883173 -0.035528407 -0.023289794 0.08456916 0.051759657 -0.07895937 -0.028963227
0.09407324 0.02428571 0.027097039 -0.07815424 0.008999195 0.021951608 0.028432185 0.0018984909
-0.068681695 0.08608735 0.15383567 -0.028585438 0.020278994 -0.0048524113 -0.055248704 0.09902393
-0.010692765 -0.114106365 -0.04222456 0.09414629 -0.06950587 0.030567925 -0.040980745 -0.019011313
0.0101294005 -0.071638174 -0.0273678 0.018938303 -0.00020584695 -0.009818816 -0.072542466 0.059129234
-0.0748277 -0.094542995 -0.034647476 0.024608389 -0.054520786 -0.05217258 0.09747866 1.7947043e-37
-0.027454078 0.023340588 -0.02158809 -0.017998455 -0.016993174 0.064955086 0.06495918 0.013442993
0.0635857 0.045791816 0.071184486 -0.025767315 0.01656298 0.09717951 0.11638129 0.10706113
0.07043234 0.079155445 -0.029558714 0.08642331 0.032577775 0.01178482 0.054625202 0.01555198
0.08803604 0.028504187 0.062356543 0.11762662 0.00852574 0.07438694 0.09834748 0.103937425
0.056699183 0.036156368 0.074121125 0.08243811 0.100517794 0.01978755 0.048720453 0.013210898
-0.009566292 0.0047647734 -0.043035023 0.002386245 0.030487968 -0.02838938 0.11310926 -0.096032605
0.018310841 0.0010316499 0.032055557 -0.008144499 -0.0050324285 0.09520107 0.032843187 0.0013295138
0.03629039 0.074772626 0.08282559 0.0650209 0.090873435 0.026187707 0.048451737 0.059648737
0.12461605 0.036269 -0.08460503 -0.06379452 -0.0293365 -0.08296364 -0.093733944 0.02690897
-0.039846197 -0.03307251 0.023062823 0.041944187 0.025488198 -0.01771257 -0.15718731 0.07436255
0.025151925 -0.027911998 -0.060608655 -0.11165453 -0.055457454 -0.05682155 0.02586041 -0.062200855
1.8812634e-09 0.08032552 -0.07125151 -0.07029115 -0.04656665 0.046510655 -0.035231113 0.07295982
0.05116897 0.0367593 0.060664643 -0.028262975 0.060730446 0.062336862 0.019945314 0.03775743
00000000: c1e6 513b 222e 0b3d 0f66 fdbc 546c a23c
00000010: cead 5abd 7479 6e3c 66b9 083d 56ef 15bd
00000020: c58e 083c 150a 09bd 2af9 15be f6fe 433d
00000030: a1b1 653c aec4 003d 79ce 8e3d cb89 493d
00000040: 4d1d f93c 6983 eabc 41cd b4bd 88d5 e03c
00000050: c512 a73d cebc 303b b02a c53c 4e1f 403c
00000060: 2416 603d 8d99 243d b57d f3bc 7722 7e3c
00000070: 5343 193d 322b dcbc 34c6 3a3d 17dd 593c
00000080: dd93 153d a106 b03d 5265 fd3b 3677 d2bd
00000090: 92d8 ccbd 637a f3ba 9b90 8b3d 7d62 b2bd
000000a0: 794b 37bd f614 123c 090f dc3d d44f b33d
000000b0: 6001 613c e556 19bd a88a 95bb e088 6b3c
000000c0: 6b5c ab3c e60b c9bc 02bc 1d3a 150f 403d
000000d0: 8b4e 00bd b611 503d 877b eb3c bf3b b73d
000000e0: 1e61 abbd 28d0 96bd e745 38bc 9bd6 b0bd
000000f0: 25fd fabc bc97 753c c796 403d 1e1d a93d
00000100: 1ed6 8dbc 4f4f c93c 7498 4dbd a870 c03d
00000110: 42c5 f83c 7a36 71bd 3d26 17bd 5ade 83bd
00000120: c065 6a3c ea3d 0b3c 6c8b 603d 6a0c 20bc
00000130: 179e b03d c334 be3d 8e7d 123d c90f 5ebd
00000140: dba8 c2bd ac95 5f3b 8931 263c b2bc 8f3d
00000150: 0085 fa3b 2e8d 56bd 3a66 113e 53e2 be3c
00000160: c11d 743c 6441 8d3d 10e8 07bd 033f 73bd
00000170: 5802 f53d 66e0 68bd 6016 c93c 13a9 2d3c
00000180: c4fb a5bc 789b 6ebd aace 003d 8ba5 3a3d
00000190: f37c bc3d f8d3 c73d cd10 913c e14f 7fbd
000001a0: 6aed e23c 5744 b3bc 3c86 11bd 3dca bebc
000001b0: 9932 ad3d ef01 543d 73b5 a1bd 4a44 edbc
000001c0: 79a9 c03d d3f2 c63c 9cfa dd3c 550f a0bd
000001d0: 5c71 133c dcd3 b33c 9dea e83c c9d6 f83a
000001e0: fda8 8cbd 914e b03d 1987 1d3e 022c eabc
000001f0: 2220 a63c fa00 9fbb 774c 62bd 0fcd ca3d
00000200: b530 2fbc 99b0 e9bd a9f3 2cbd c5cf c03d
00000210: 1859 8ebd 9669 fa3c 6ddb 27bd 9dbd 9bbc
00000220: c9f5 253c 09b7 92bd 7032 e0bc 8024 9b3c
00000230: 9fd8 57b9 19df 20bc 2591 94bd 7f31 723d
00000240: 443f 99bd c29f c1bd 83ea 0dbd 8897 c93c
00000250: 3051 5fbd eab2 55bd e4a2 c73d 5148 7402
00000260: 60e7 e0bc c334 bf3c 82d9 b0bc 7f71 93bc
00000270: 4535 8bbc 2c07 853d 5209 853d 0040 5c3c
00000280: 3839 823d 3390 3b3d 2cc9 913d fa15 d3bc
00000290: 16af 873c 0d06 c73d 5059 ee3d de42 db3d
000002a0: d53e 903d 401c a23d 1e25 f2bc b4fe b03d
000002b0: 4670 053d 1e15 413c adbe 5f3d bbcd 7e3c
000002c0: 3d4c b43d 9d81 e93c 9369 7f3d 3ae6 f03d
000002d0: 8caf 0b3c 2e58 983d 676a c93d 25dd d43d
000002e0: 673d 683d b318 143d d1cc 973d 50d5 a83d
000002f0: 46dc cd3d 8019 a23c 198f 473d 8672 583c
00000300: f0bb 1cbc d121 9c3b 7e45 30bd 8c62 1c3b
00000310: e7c1 f93c d890 e8bc d4a5 e73d beac c4bd
00000320: 9e00 963c 6d38 873a b04c 033d 8170 05bc
00000330: 12e7 a4bb c7f8 c23d 9486 063d 1543 ae3a
00000340: 3ba5 143d 6422 993d 77a0 a93d ad29 853d
00000350: da1b ba3d 9a87 d63c 5475 463d 3c52 743d
00000360: b336 ff3d ce8e 143d 6745 adbd b4a6 82bd
00000370: 1a53 f0bc d7e8 a9bd 95f7 bfbd 3370 dc3c
00000380: c435 23bd 0a77 07bd 3fee bc3c abcd 2b3d
00000390: a0cc d03c f419 91bc b6f5 20be 654b 983d
000003a0: 690b ce3c b4a7 e4bc c840 78bd 21ab e4bd
000003b0: 5b27 63bd b7bd 68bd 36d9 d33c 53c6 7ebd
000003c0: 8947 0131 b581 a43d 50ec 91bd cef4 8fbd
000003d0: acbc 3ebd f581 3e3d 804e 10bd f56b 953d
000003e0: 8e96 513d eb90 163d 7d7b 783d c187 e7bc
000003f0: 7dc0 783d f054 7f3d 5b64 a33c 89a7 1a3d

convs.0.lin_l.bias f4 [128]
-0.04173908 0.01887415 0.04919853 -0.011300948 -0.027442504 0.05643536 -0.012680226 0.020740239
-0.010347475 -0.0073369923 0.022148928 -0.03462539 0.011808783 0.003957467 -0.033493288 -0.012487845
0.042495247 0.014221627 0.05023454 0.0066363635 -0.017869208 0.052652042 0.019481428 -0.01465927
-0.023205984 0.050614756 0.028886598 0.013290389 0.0074621774 0.0062507144 0.029251596 -0.043441214
-0.046149593 -0.010648879 -0.04981048 -0.015438548 0.012693287 -0.037808206 -0.0059816022 0.036362857
0.002942237 0.03609044 0.03438343 -0.03276395 0.032980308 -0.024780024 0.019816015 0.02746172
-0.044089332 -0.06133397 -0.048313767 -0.045203414 0.03360088 -0.025103007 -0.025100188 -0.02201019
-0.014310012 0.05043955 0.041860208 0.02331509 0.06173471 0.007580588 -0.004108785 -0.020268034
-0.0076412996 -0.044465482 0.037964106 -0.015197828 -0.03240681 -0.028252965 -0.036712267 0.034949984
0.020630583 -0.06960636 -0.010176958 0.00043283845 0.035418276 -0.041279074 0.022673346 -0.019750256
-0.03794667 0.046900935 0.052088927 -0.03343152 0.031092392 -0.04211897 -0.032371055 -0.020637587
0.046690878 -0.06086543 -0.009199806 0.05073308 0.02637015 -0.01772812 -0.011727077 -0.02541723
-0.02013081 0.014303337 0.0061702463 -0.009428557 0.028914895 -0.048617434 -0.030706875 -0.03956621
-0.021801835 -0.06623711 0.043916494 0.04887747 -0.028995082 -0.0074009495 -0.015958223 0.031130573
-0.024561472 0.060046364 0.014033453 0.045638748 -0.04811645 0.0013021391 0.026065791 -0.045301374
0.043835696 0.047983 -0.023284318 -0.002085503 -0.040372103 0.022156663 -0.011229824 -0.038056802
00000000: 99f6 2abd f69d 9a3c 6684 493d 9d27 39bc
00000010: 1acf e0bc c428 673d b9c0 4fbc 6fe7 a93c
00000020: 7588 29bc 276b f0bb ab71 b53c 5ad3 0dbd
00000030: a079 413c a4ad 813b 4230 09bd d199 4cbc
00000040: 7f0f 2e3d d401 693c bcc2 4d3d da75 d93b
00000050: 7262 92bc aba9 573d 8497 9f3c 6f2d 70bc
00000060: 7a1a bebc 6b51 4f3d 96a3 ec3c efbf 593c
00000070: 4885 f43b cbd2 cc3b 0ba1 ef3c 6aef 31bd
00000080: 5b07 3dbd a378 2ebc 1306 4cbd f7f1 7cbc
00000090: 81f7 4f3c c7dc 1abd 5101 c4bb 38f1 143d
000000a0: 8cd2 403b 92d3 133d a4d5 0c3d 7e33 06bd
000000b0: 5c16 073d 7aff cabc 3255 a23c 67f7 e03c
000000c0: 0497 34bd 5439 7bbd a8e4 45bd 3727 39bd
000000d0: 14a1 093d d2a4 cdbc e99e cdbc b74e b4bc
000000e0: 8a74 6abc b499 4e3d 9c75 2b3d 4aff be3c
000000f0: 89dd 7c3d 9566 f83b fda2 86bb 2609 a6bc
00000100: de63 fabb 7021 36bd 4080 1b3d 5000 79bc
00000110: 01bd 04bd c372 e7bc 9a5f 16bd b727 0f3d
00000120: 7801 a93c c78d 8ebd 41bd 26bc 98ee e239
00000130: c112 113d 3f14 29bd 74bd b93c 4acb a1bc
00000140: f86d 1bbd 321b 403d 335b 553d 7def 08bd
00000150: 79b5 fe3c f184 2cbd 8397 04bd 2810 a9bc
00000160: ef3e 3f3d 074e 79bd c8ba 16bc 7dcd 4f3d
00000170: 3606 d83c 903a 91bc ed22 40bc cb37 d0bc
00000180: 5ee9 a4bc 8b58 6a3c c72f ca3b 3c7a 1abc
00000190: eede ec3c 1323 47bd fc8c fbbc 2e10 22bd
000001a0: c399 b2bc 52a7 87bd c8e1 333d be33 483d
000001b0: 1887 edbc aa83 f2bb d2ba 82bc 8b05 ff3c
000001c0: 2435 c9bc 2df3 753d 91ec 653c b2ef 3a3d
000001d0: c115 45bd 8aac aa3a ed87 d53c ef8d 39bd
000001e0: 0f8d 333d d289 443d c1be bebc efac 08bb
000001f0: 385d 25bd e481 b53c 4cfd 37bc 73e1 1bbd

convs.0.lin_r.weight f4 [128, 262]
0.051317543 0.054107077 0.046946287 0.030782443 0.0027186852 -0.024709385 0.034251604 -0.020056466
-0.044883396 -0.043818597 0.0932756 -0.09158779 0.04517668 -0.0176933 -0.036225326 0.020804511
-0.053183477 -0.038646717 0.00432438 -0.03704566 0.03458138 -0.03804161 0.04471951 -0.031364217
-0.068752505 -0.021736186 0.0040245717 -0.079141125 0.008541404 0.042013116 0.016062811 -0.038418684
-0.0060482677 -0.05592419 0.070597485 0.04911362 0.021032743 4.1755546e-37 -0.10239362 0.0092892125
-0.06070122 -0.012643197 -0.03739532 0.068098314 -0.012785967 -0.04257397 0.028341917 -0.03127832
-2.8763658e-37 -7.1171774e-37 -0.037223175 -0.020046376 0.0022879974 0.089261375 0.05475791 0.061280705
-0.01002162 -0.007769159 -0.008026026 -2.6997813e-37 -0.016377063 0.082680844 0.033602536 0.01463534
-0.037076842 1.196414e-36 -0.0074510216 0.0066281636 -0.050883632 -0.0042435382 0.070334844 0.014876164
-0.0057150912 0.05257225 -0.03612823 0.036835857 -0.053078324 -0.10625983 0.004987671 -0.0446288
-0.008452658 -0.055545807 0.0045592687 -0.056137376 0.004351798 -0.0070152897 -0.062461607 0.04388127
0.027882643 -2.3708723e-37 -0.02216034 0.01034258 -0.0634067 0.058649447 0.10369377 0.017057717
0.041621193 0.019331262 0.031044034 -0.02646942 -0.029340906 0.0139115425 -0.022946509 3.0799868e-37
0.00079559395 -0.02642995 -0.05484351 -0.015741883 0.008895202 0.020544678 0.03025462 0.00970095
-0.08769757 0.020415708 0.066749685 0.017302452 0.007939346 -0.082738444 0.020162744 -0.03847598
1.934477e-37 0.020255625 -0.033417523 0.024113314 -0.07070355 0.05455972 -0.0027004525 1.2323833e-37
-1.3160181e-36 0.01632331 -0.023905955 -0.046034645 -2.6314695e-37 -0.0033896104 0.016398087 -3.8217288e-38
1.157329e-38 -0.033095174 0.01808855 0.023275359 0.025577068 -0.07015511 0.017213741 -2.829587e-37
-7.9812636e-38 -0.04929143 0.0061120647 -0.047180768 0.016083872 -0.03661215 8.7437796e-38 -0.0065076984
0.028936794 3.6139093e-37 4.5314575e-37 0.048376456 0.038819302 -0.008680374 0.03943095 -0.011594872
-0.012002922 -0.035112247 0.053067576 1.9533724e-37 -0.034734454 0.0783539 -4.801066e-37 0.07097599
-0.0035580993 -0.020110304 -0.040045187 -0.0018969338 -0.029376235 5.480275e-37 -0.020251919 0.027639233
-0.021351086 -0.0073773554 0.040438507 0.031741824 -0.03212276 -0.02001447 0.0012504228 -0.00941494
-5.60886e-37 0.074541666 0.05527672 -0.036418844 1.928442e-37 -0.016371261 -0.0015134825 0.058412377
0.020675797 -0.01111628 0.039310135 -0.016915342 0.011190873 0.01197858 2.3004657e-37 0.025624791
-0.008053113 0.015322793 0.019093197 -0.03677364 0.029919857 0.026623351 -0.010857478 -0.012586938
0.015219139 -0.0013033382 -0.05316937 0.01441068 0.04144897 -0.024842769 0.009412163 0.074203946
0.062011573 -0.015917635 -0.0541277 -0.029040989 0.043679357 -0.093901604 -0.03266586 1.7856385e-37
0.01173981 -0.04456429 1.1257307e-36 1.4368657e-38 -5.107535e-37 0.021977395 -0.022315437 -0.02353006
6.4528494e-37 0.024665102 0.029184174 -0.035451498 -0.042505924 -0.06422435 -6.502855e-37 0.030974
-5.067574e-38 -8.7092345e-37 0.0711682 -0.014984187 0.02249261 0.00714623 -0.021720022 0.02690085
0.06475868 0.044645935 -0.056235056 0.0080454 -0.025224874 -0.014291792 0.006932588 -0.05910525
00000000: 5832 523d 629f 5d3d c04a 403d 762b fc3c
00000010: f82b 323b 566b cabc 694b 0c3d 754d a4bc
00000020: a7d7 37bd 217b 33bd 4707 bf3d 6192 bbbd
00000030: 2f0b 393d 8af1 90bc 0261 14bd 396e aa3c
00000040: ebd6 59bd 054c 1ebd 87b3 8d3b 31bd 17bd
00000050: 35a5 0d3d 85d1 1bbd ce2b 373d c477 00bd
00000060: 1dce 8cbd 1610 b2bc 8ee0 833b be14 a2bd
00000070: 3ff1 0b3c f215 2c3d 2896 833c e95c 1dbd
00000080: 8c30 c6bb c310 65bd 6a95 903d 5d2b 493d
00000090: dc4c ac3c 3616 0e03 bfb3 d1bd c831 183c
000000a0: d8a1 78bd 6925 4fbc d62b 19bd 2177 8b3d
000000b0: 3c7c 51bc 0b62 2ebd 4f2d e83c b21d 00bd
000000c0: 5cc1 c382 5c2f 7283 5477 18bd 4c38 a4bc
000000d0: 3af2 153b abce b63d d549 603d 7a01 7b3d
000000e0: b931 24bc 6e94 febb 987f 03bc d3bc b782
000000f0: 3129 86bc 9354 a93d d0a2 093d 11c9 6f3c
00000100: e3dd 17bd 2e8f cb03 b327 f4bb 1131 d93b
00000110: 5b6b 50bd 610d 8bbb b70b 903d 27bb 733c
00000120: a945 bbbb 0056 573d 32fb 13bd 32e1 163d
00000130: a868 59bd c19e d9bd 9e6f a33b b0cc 36bd
00000140: 047d 0abc 0084 63bd eb65 953b 4ef0 65bd
00000150: 8799 8e3b 84e0 e5bb bed7 7fbd d9bc 333d
00000160: 246a e43c 6c5a a182 9a89 b5bc ed73 293c
00000170: 5fdb 81bd 673a 703d 665d d43d a0bc 8b3c
00000180: fc7a 2a3d 985c 9e3c 0f50 fe3c 66d6 d8bc
00000190: 575c f0bc 3ded 633c 51fa bbbc f09c d102
000001a0: 688f 503a 9f83 d8bc 97a3 60bd 1ff5 80bc
000001b0: 2ebd 113c 504d a83c 89d8 f73c bcf0 1e3c
000001c0: c99a b3bd d83e a73c 0fb4 883d dfbd 8d3c
000001d0: 0814 023c c672 a9bd 572c a53c fd98 1dbd
000001e0: 58a7 8302 20ef a53c d0e0 08bd 4989 c53c
000001f0: 06cd 90bd 037a 5f3d 13fa 30bb 4abe 2702
00000200: ace8 df83 76b8 853c 6cd6 c3bc d38e 3cbd
00000210: aa16 b382 3a24 5ebb 4855 863c 2013 5081
00000220: a005 7e00 ce8e 07bd 702e 943c f7ab be3c
00000230: 0087 d13c 7bad 8fbd d503 8d3c 5c92 c082
00000240: 4a45 d981 cfe5 49bd b747 c83b 9f40 41bd
00000250: 53c2 833c 9ff6 15bd 4007 ee01 883e d5bb
00000260: db0c ed3c 2ef3 f502 9032 1a03 6426 463d
00000270: fd00 1f3d 2138 0ebc 5982 213d 6bf8 3dbc
00000280: e7a7 44bc dcd1 0fbd 635d 593d 8cf0 8402
00000290: b745 0ebd 0278 a03d 2f5f 2383 dc5b 913d
000002a0: 002f 69bb 5dbe a4bc 6c06 24bd 89a2 f8ba
000002b0: 6ea6 f0bc ee7b 3a03 5ae7 a5bc ac6b e23c
000002c0: 79e8 aebc bebd f1bb d9a2 253d b703 023d
000002d0: 2893 03bd 63f5 a3bc 3ae5 a33a 1f41 1abc
000002e0: 10dc 3e83 4da9 983d d869 623d ed2b 15bd
000002f0: 333e 8302 061d 86bc 0c60 c6ba d141 6f3d
00000300: 4a60 a93c 0f21 36bc aa03 213d 0b92 8abc
00000310: ec59 373c ce41 443c c48f 9c02 15eb d13c
00000320: 34f1 03bc 740c 7b3c 5669 9c3c f59f 16bd
00000330: 7d1a f53c 3719 da3c 90e3 31bc 7239 4ebc
00000340: b259 793c c6d4 aaba 20c8 59bd c61a 6c3c
00000350: 65c6 293d 1083 cbbc 7935 1a3c 3df8 973d
00000360: d9ff 7d3d b365 82bc 02b5 5dbd 5ee7 edbc
00000370: 20e9 323d 7c4f c0bd a3cc 05bd 6c0c 7302
00000380: 5558 403c 0c89 36bd 7d88 bf03 f875 9c00
00000390: e8cc 2d83 f009 b43c ddce b6bc 1dc2 c0bc
000003a0: 3f94 5b03 780e ca3c a613 ef3c 9735 11bd
000003b0: b11a 2ebd 0e88 83bd db47 5d83 30bd fd3c
000003c0: d6f3 8981 112e 9483 a2c0 913d 3c80 75bc
000003d0: 6c42 b83c ec2a ea3b 30ee b1bc 2c5f dc3c
000003e0: 33a0 843d a8de 363d bb56 66bd dad0 033c
000003f0: 65a4 cebc 1f28 6abc c32a e33b 5918 72bd

convs.1.lin_l.weight f4 [64, 128]
6.3991196e-05 0.05468209 -0.021794848 -0.03669945 0.16502088 -0.07933669 0.044511188 0.08910029
0.09076273 0.05758134 -0.041214768 0.019414557 -0.09092771 -0.03919903 0.041657425 0.061881095
-0.074498095 0.02367507 0.044292323 -0.031237237 0.04146864 0.03949083 0.00032297935 -0.13567398
-0.0011339211 -0.06177805 0.045827232 -0.029320741 -0.037822142 0.064500965 -0.013334873 0.0813773
0.0030659833 0.051715054 -0.08338919 -0.04222182 -0.09380312 0.051329218 0.00034609542 -0.04960677
0.03753822 -0.11364695 0.044714026 -0.044993453 0.00504805 0.041086216 0.026271384 -0.051577434
-0.04590398 -0.06873414 0.08722068 -0.034486763 0.02382713 -0.1562839 -0.026230391 0.004704713
0.02443528 0.10453738 -0.053063836 0.022319373 -0.0149660185 0.053558573 0.0804096 0.052926168
0.02754275 -0.10585656 0.063111074 0.08778586 0.059810042 0.06651109 -0.005709092 -0.040756464
0.010692822 -0.011459671 0.081368245 -0.012401932 -0.002983267 -0.018883219 -0.07094969 -0.04862326
-0.05473674 -0.041434277 -0.016235402 0.03875236 0.022287142 -0.11527088 0.041499373 -0.014818452
0.031087361 -0.008234659 0.041195173 -0.021664223 -0.027874036 -0.05869458 0.017414914 -0.09422436
-0.049295146 -0.051600274 -0.06454439 -0.05895064 -0.008928781 0.06004754 -0.039429862 -0.049953107
-0.1378527 0.04878235 -0.0789257 -0.036269505 -0.13504109 -0.01214242 0.06611273 0.06968422
-0.09046572 0.09536393 -0.033051565 -0.053713378 0.032647513 0.031551205 -0.033910602 -0.036909394
-0.08698824 -0.08660871 -0.060899198 0.10867462 0.12369202 -0.109635234 -0.09426438 -0.016871609
-0.04737998 0.048952293 -0.033519 -0.09643849 0.16333246 -0.052750114 0.18138276 0.1035708
-0.00035059778 0.01407546 -0.070675015 0.021798586 0.038114347 -0.09980461 0.07880954 -0.008722493
-0.041576643 0.050916456 0.10958822 -0.028278679 -0.032746702 0.01385535 -0.022971703 -0.006525089
-0.007162453 -0.09409799 -0.030785201 0.04193003 -0.028899062 0.027963324 -0.07230642 -0.0062563736
-0.092050105 -0.101717375 -0.14206012 -0.21533847 -0.06350867 0.029432755 -0.007197654 -0.058051243
0.038887203 -0.030969756 -0.094925806 -0.13030335 -0.108118206 -0.05421573 0.116583675 0.055543497
-0.10501884 0.09949909 0.0014327567 0.02727035 -0.05166978 -0.17284158 -0.1549783 0.012818955
0.072868705 -0.026621474 0.051814627 0.041134167 0.12164926 -0.115318626 0.24084333 -0.103247926
0.036476415 0.058902256 0.056960944 -0.054472618 -0.037818756 -0.038989298 -0.023418402 0.10428022
0.006278612 -0.09274417 -0.0207684 -0.0026525143 0.05150201 -0.00027703648 -0.010685597 0.003942738
0.11657581 -0.06751093 0.032025173 0.014360754 -0.08250872 0.16856764 0.050540503 0.016340652
0.06943689 -0.067282796 -0.1142644 -0.069716424 0.03179465 -0.05989788 -0.021154776 0.0008725313
-0.04815211 0.038979474 -0.084975414 -0.03578089 0.07976216 0.042333912 -0.082734615 -0.12895769
-0.009212293 -0.047098342 -0.015656231 0.0038787636 -0.0961331 -0.011528061 -0.018000135 -0.10226416
-0.07516894 0.07824759 -0.09113634 0.053155486 0.12594558 -0.080227375 0.10770453 0.08931686
-0.012010866 0.009921748 -0.04194512 -0.014552065 0.06709329 -0.1454546 -0.039437003 0.15260388
00000000: 0333 8638 54fa 5f3d 1c8b b2bc 2a52 16bd
00000010: 3cfb 283e 467b a2bd 5d51 363d 367a b63d
00000020: cfe1 b93d 69da 6b3d d1d0 28bd 470b 9f3c
00000030: 4f38 babd 298f 20bd faa0 2a3d 0877 7d3d
00000040: 7592 98bd 38f2 c13c de6b 353d 3ce5 ffbc
00000050: 05db 293d 23c1 213d 8e55 a939 1fee 0abe
00000060: 14a0 94ba fb0a 7dbd 56b5 3b3d 0d32 f0bc
00000070: 64eb 1abd 1519 843d 837a 5abc 24a9 a63d
00000080: aaee 483b 2ad3 533d f4c7 aabd caf0 2cbd
00000090: da1b c0bd 963e 523d 2474 b539 7830 4bbd
000000a0: adc1 193d bbbf e8bd 0e26 373d 0e4b 38bd
000000b0: 1d6a a53b 054a 283d 1637 d73c dc42 53bd
000000c0: d005 3cbd 7cc4 8cbd c2a0 b23d fe41 0dbd
000000d0: 1d31 c33c e308 20be 1ee1 d6bc fe29 9a3b
000000e0: 7f2c c83c b217 d63d 7759 59bd 1ed7 b63c
000000f0: 0834 75bc 3c60 5b3d caad a43d 1cc9 583d
00000100: 55a1 e13c 53cb d8bd 6140 813d 13c9 b33d
00000110: 60fb 743d f736 883d 5613 bbbb 40f0 26bd
00000120: f230 2f3c 58c1 3bbc 65a4 a63d 7931 4bbc
00000130: ea82 43bb fbb0 9abc 124e 91bd 2f29 47bd
00000140: a233 60bd fdb6 29bd 1b00 85bc cbba 1e3d
00000150: 8693 b63c 2413 ecbd 3ffb 293d 18c9 72bc
00000160: ecaa fe3c aaea 06bc 45bc 283d 2b79 b1bc
00000170: 1758 e4bc ba69 70bd b9a9 8e3c b4f8 c0bd
00000180: b5e9 49bd cf5a 53bd d92f 84bd 3a76 71bd
00000190: 064a 12bc 69f4 753d 3581 21bd a19b 4cbd
000001a0: 4229 0dbe 00d0 473d cca3 a1bd 558f 14bd
000001b0: 3648 0abe 00f1 46bc 1c66 873d 9ab6 8e3d
000001c0: 1746 b9bd 2a4e c33d 1461 07bd 8f02 5cbd
000001d0: 66b9 053d d63b 013d d8e5 0abd 4e2e 17bd
000001e0: e426 b2bd e85f b1bd 7071 79bd cd90 de3d
000001f0: 3e52 fd3d 7088 e0bd af0d c1bd 5436 8abc
00000200: 8311 42bd 3382 483d 384b 09bd 8b81 c5bd
00000210: a040 273e 8110 58bd 67bc 393e ed1c d43d
00000220: 70d0 b7b9 c29c 663c 10be 90bd f392 b23c
00000230: ca1d 1c3d 5c66 ccbd e566 a13d cae8 0ebc
00000240: 454c 2abd c68d 503d ca6f e03d b0a8 e7bc
00000250: 6821 06bd 8d01 633c 272f bcbc 6ad0 d5bb
00000260: 03b3 eabb 72b6 c0bd 3f31 fcbc d3be 2b3d
00000270: babd ecbc 5713 e53c 6315 94bd 4402 cdbb
00000280: c484 bcbd 3351 d0bd 3578 11be b081 5cbe
00000290: d510 82bd f61c f13c 4cda ebbb 24c7 6dbd
000002a0: 3048 1f3d 49b4 fdbc 7668 c2bd 3e6e 05be
000002b0: 146d ddbd 5011 5ebd 6cc3 ee3d 9481 633d
000002c0: 1e14 d7bd 2ec6 cb3d 56cb bb3a 1266 df3c
000002d0: b1a3 53bd 62fd 30be a2b2 1ebe 9806 523c
000002e0: 303c 953d 4715 dabc 933b 543d 4d7c 283d
000002f0: 3f23 f93d 2c2c ecbd a29f 763e a673 d3bd
00000300: 4b68 153d 7e43 713d e14f 693d ae1e 5fbd
00000310: d7e7 1abd 3eb3 1fbd f3d7 bfbc de90 d53d
00000320: d1bc cd3b a8f0 bdbd 7e22 aabc ced5 2dbb
00000330: c6f3 523d 353f 91b9 a412 2fbc 1532 813b
00000340: 4cbf ee3d 2c43 8abd d42c 033d 5e49 6b3c
00000350: 55fa a8bd ff9c 2c3e 8f03 4f3d d5dc 853c
00000360: ee34 8e3d 90cb 89bd 7403 eabd 7cc7 8ebd
00000370: 1b3b 023d 7b57 75bd c84c adbc 96ba 643a
00000380: 263b 45bd f1a8 1f3d 9707 aebd fc8e 12bd
00000390: 585a a33d 5366 2d3d c470 a9bd 7c0d 04be
000003a0: 28ef 16bc 31ea 40bd 7f41 80bc db32 7e3b
000003b0: 6ee1 c4bd 31e0 3cbc 0575 93bc df6f d1bd
000003c0: 2cf2 99bd 4640 a03d b0a5 babd 91b9 593d
000003d0: e1f7 003e 404e a4bd 3194 dc3d c2eb b63d
000003e0: 39c9 44bc d48e 223c a5ce 2bbd c96b 6ebc
000003f0: 3568 893d 0df2 14be b288 21bd 3144 1c3e

convs.1.lin_l.bias f4 [64]
0.04737138 0.023842264 0.05921778 0.008843143 -0.07128009 0.027851375 0.024884352 0.00022411312
0.04129316 0.07302303 -0.06451317 0.05683431 0.04360756 0.033358846 -0.015325321 0.030924156
-0.056328226 0.007180021 0.08185689 0.026716964 -0.014368629 0.043052725 -0.070948206 0.020979308
-0.0555163 0.022243537 -0.047812957 0.047889367 -0.025300574 0.07043306 -0.0093680825 -0.05129148
0.08429709 0.04724936 0.06838815 0.028926287 0.071167514 -0.02949408 0.050714117 0.05680773
0.029988138 0.06724307 0.0005297227 -0.030250045 0.0057313074 -0.059831988 -0.06067687 0.058820833
-0.06028736 0.022410363 -0.020741567 0.006153028 -0.026542816 -0.06366181 -0.07238088 0.002451935
0.060737442 -0.058635153 -0.041344136 -0.02593067 -0.03741801 0.046209488 -0.055747706 0.03984954
00000000: 7e08 423d da50 c33c 588e 723d d4e2 103c
00000010: 4cfb 91bd 9128 e43c 45da cb3c e8ff 6a39
00000020: 0423 293d 198d 953d 7b1f 84bd 18cb 683d
00000030: d79d 323d 49a3 083d 0e17 7bbc a854 fd3c
00000040: 6db8 66bd 6246 eb3b 96a4 a73d 89dd da3c
00000050: 666a 6bbc 0e58 303d 4b4d 91bd ccdc ab3c
00000060: 0f65 63bd 1438 b63c 85d7 43bd a427 443d
00000070: 2643 cfbc 353f 903d 967c 19bc 0417 52bd
00000080: f4a3 ac3d 8b88 413d 160f 8c3d d2f6 ec3c
00000090: 46c0 913d 929d f1bc 9bb9 4f3d 39af 683d
000000a0: afa9 f53c bcb6 893d 17dd 0a3a f1ce f7bc
000000b0: b1cd bb3b 6312 75bd 4f88 78bd 1dee 703d
000000c0: e1ef 76bd f095 b73c 38ea a9bc 579f c93b
000000d0: 5270 d9bc 1f61 82bd 6d3c 94bd a5b0 203b
000000e0: d3c7 783d 6a2b 70bd 7858 29bd 8e6c d4bc
000000f0: a143 19bd 2946 3d3d b557 64bd 4539 233d

convs.1.lin_r.weight f4 [64, 128]
-0.012284922 -0.029065615 0.0029297343 0.009123538 0.023027355 0.0017441767 0.0064225774 0.0085332105
0.041107014 0.020023618 0.020856725 -0.00564335 0.0057851053 -0.016970614 0.004885784 0.06083506
-0.0079348665 -0.014293023 0.004633781 0.009814419 0.014652317 5.2408264e-05 0.022052268 -0.011050808
-0.057249192 0.027153818 -0.03362827 -0.0023949873 0.03461162 0.030814841 -0.0014874212 -0.02362107
0.026115973 -0.014108751 0.0011952661 0.0029024144 -0.030977748 -0.0017481013 0.019027602 0.016513113
0.023514064 -0.030593712 -0.01607599 -0.020230316 0.039075613 -0.030867979 0.02707047 -0.008306728
0.039373536 0.04232946 0.06332899 -0.010364961 0.034927476 -0.015890978 0.025824526 -0.03181443
0.028120523 0.03842054 -0.011954307 0.04231369 0.0033474138 -0.037331503 0.036537737 0.008131541
0.019787654 -0.0211986 0.05300655 0.04972347 -0.004722686 -0.008432256 0.037690617 -0.02535104
-0.0007903735 0.12165165 0.041451287 0.019803734 0.017146412 0.03216193 0.0022156583 -0.023043573
-0.01509436 0.009204541 -0.012185022 -0.023051813 0.01866303 0.034214057 -0.0048672743 -0.024919493
-0.017884549 -0.019424904 0.0073084207 -0.0072334805 -0.018825373 -0.017143741 -0.05975448 -0.007128139
-0.030378463 -0.007920613 0.030606624 -0.06826668 0.05023495 -0.003196872 -0.011469476 -0.0241124
-0.013712659 0.017665438 -0.06671017 -0.036451824 -0.00018682104 0.041635588 0.026948852 -0.010852501
-0.015958583 0.027571118 -0.013368422 -0.02946715 0.028255673 -0.021708304 -0.0064413473 -0.012872981
-0.0019833124 -0.03621405 0.037165478 -0.02406451 0.027386846 0.012324637 -0.047453377 0.03374214
0.048826866 0.0039877496 -0.045448273 0.06080453 -0.019894999 -0.05628498 0.0029932663 -0.024508126
-0.033220474 0.040837664 0.024190905 -0.07114501 0.0029340785 -0.02428386 -0.048721474 0.07225607
0.012663959 -0.0033803068 -0.03410949 -0.017657684 -0.036748707 -0.012244044 0.0023722965 -0.039828513
-0.05669933 -0.019957487 -0.09481938 0.020522194 0.080841124 -0.03996773 -0.047490608 -0.009101185
-0.064952224 -0.030598022 -0.108033486 -0.09092804 -0.01790682 -0.07592418 0.07379869 -0.020109355
-0.0024373343 -0.031864386 0.027837515 -0.033138912 -0.035118494 -0.05616583 0.029219585 0.0009204399
-0.06967689 -0.023652088 -0.038479004 -0.025000203 0.02349823 -0.057293158 -0.05330458 0.009368458
-0.012268786 -0.014112246 0.043092977 0.058508527 0.030317668 -0.048363272 -0.005101334 -0.06384864
-0.02771962 -0.08816034 0.069783084 -0.022722328 0.030735187 0.03995651 -0.06843743 -0.058116317
0.021534387 0.09996784 -0.01372068 0.025761258 -0.029836379 -0.06777056 0.05041266 -0.0032072435
0.08097637 -0.0078462595 0.06528924 -0.020777553 -0.04536627 -0.042521328 0.077950336 -0.030285245
0.030211784 -0.052589 -0.0020090132 -0.026187208 0.045025464 -0.053795096 -0.06453258 -0.021561846
-0.05228594 -0.015846588 0.0027198023 -0.06904502 -0.0021373157 -0.042359993 -0.008006653 -0.12704824
-0.10012741 -0.040803883 -0.047241416 -0.05666861 -0.075102 -0.03238618 -0.036473896 0.045506503
0.018285243 0.0077194525 -0.056662064 -0.015174512 -0.03369388 -0.03070839 0.037382502 0.0467805
-0.009438422 0.002552209 -0.033178624 0.030468395 -0.046767958 -0.030867802 -0.005901142 -0.03401844
00000000: b346 49bc 031b eebc c900 403b e47a 153c
00000010: dda3 bc3c dc9c e43a 7c74 d23b e1ce 0b3c
00000020: d45f 283d 9208 a43c b9db aa3c daeb b8bb
00000030: fb90 bd3b f505 8bbc ed18 a03b 2f2e 793d
00000040: 3e01 02bc 492d 6abc f9d6 973b a8cc 203c
00000050: 4610 703c f2d0 5b38 f5a6 b43c 730e 35bc
00000060: 217e 6abd af71 de3c ccbd 09bd 38f5 1cbb
00000070: eac4 0d3d 686f fc3c 93f5 c2ba f980 c1bc
00000080: 2af1 d53c 6428 67bc 7aaa 9c3a 6f36 3e3b
00000090: 0cc5 fdbc 8c20 e5ba c6df 9b3c 8246 873c
000000a0: 91a0 c03c aa9f fabc cbb1 83bc 0cba a5bc
000000b0: c00d 203d d8de fcbc e4c2 dd3c f118 08bc
000000c0: 2546 213d a861 2d3d a1b2 813d ccd1 29bc
000000d0: 1d10 0f3d cc2d 82bc f58d d33c d94f 02bd
000000e0: 035d e63c db5e 1d3d ffdb 43bc 1f51 2d3d
000000f0: 4960 5b3b ebe8 18bd 98a8 153d 283a 053c
00000100: b819 a23c b0a8 adbc 651d 593d d6aa 4b3d
00000110: c3c0 9abb 7227 0abc 7a61 1a3d fcac cfbc
00000120: 1131 4fba 8024 f93d d3c8 293d 713b a23c
00000130: a276 8c3c 3abc 033d 9434 113b e0c5 bcbc
00000140: 564e 77bc a5ce 163c b0a3 47bc 28d7 bcbc
00000150: 36e3 983c 0a24 0c3d a87d 9fbb f723 ccbc
00000160: 9e82 92bc fa20 9fbc 7a7b ef3b d506 edbb
00000170: ab37 9abc 0871 8cbc 1dc1 74bd 2a93 e9bb
00000180: 41dc f8bc 75c5 01bc beba fa3c 67cf 8bbd
00000190: 2ac3 4d3d 9d82 51bb 78ea 3bbc 5e87 c5bc
000001a0: 0fab 60bc 1cb7 903c 579f 88bd 824e 15bd
000001b0: 64e5 43b9 148a 2a3d d7c3 dc3c b0ce 31bc
000001c0: 93bb 82bc d3dc e13c 3a07 5bbc 1865 f1bc
000001d0: 7178 e73c 9dd5 b1bc f011 d3bb 32e9 52bc
000001e0: 76fa 01bb 2f55 14bd d43a 183d ef22 c5bc
000001f0: 615a e03c 46ed 493c 795e 42bd 3335 0a3d
00000200: aefe 473d abab 823b f827 3abd 2c0e 793d
00000210: d6fa a2bc 148b 66bd ad2a 443b 44c5 c8bc
00000220: 3112 08bd 6545 273d 012c c63c 7ab4 91bd
00000230: ab49 403b f2ee c6bc 2b90 47bd fefa 933d
00000240: 7e7c 4f3c 2388 5dbb 65b6 0bbd d9a6 90bc
00000250: d085 16bd 3e9b 48bc 8878 1b3b 3923 23bd
00000260: 8f3d 68bd e27d a3bc aa30 c2bd 291e a83c
00000270: 0890 a53d 34b5 23bd 8385 42bd 231d 15bc
00000280: ac05 85bd b4a8 fabc a940 ddbd 7b38 babd
00000290: 53b1 92bc 237e 9bbd c523 973d 60bc a4bc
000002a0: afbb 1fbb 3b84 02bd 800b e43c abbc 07bd
000002b0: 69d8 0fbd 240e 66bd e95d ef3c ad49 713a
000002c0: c2b2 8ebd 06c2 c1bc 299c 1dbd 3acd ccbc
000002d0: 5c7f c03c 3bac 6abd e755 5abd 297e 193c
000002e0: 0503 49bc 0d37 67bc 4382 303d a3a6 6f3d
000002f0: c25c f83c 9118 46bd 1729 a7bb 13c3 82bd
00000300: 4214 e3bc 698d b4bd 6fea 8e3d 2d24 babc
00000310: 5cc8 fb3c 70a9 233d ec28 8cbd 600b 6ebd
00000320: e268 b03c f0bb cc3d b4cc 60bc 4609 d33c
00000330: 6c6b f4bc 4bcb 8abd 817d 4e3d 9e30 52bb
00000340: f0d6 a53d 998d 00bc 5db6 853d b035 aabc
00000350: fbd1 39bd d82a 2ebd 6da4 9f3d c318 f8bc
00000360: b47e f73c 9067 57bd a6a9 03bb 8e86 d6bc
00000370: 9f6c 383d 3f58 5cbd a829 84bd 78a2 b0bc
00000380: c829 56bd b4d0 81bc b63e 323b 7a67 8dbd
00000390: 3512 0cbb ac81 2dbd 562e 03bc ef18 02be
000003a0: 990f cdbd f921 27bd 3780 41bd 581d 68bd
000003b0: 14cf 99bd 5fa7 04bd a765 15bd 0765 3a3d
000003c0: efca 953c 76f3 fc3b 7b16 68bd 849e 78bc
000003d0: 9802 0abd 2990 fbbc 651e 193d e99c 3f3d
000003e0: 9ca3 1abc f642 273b 4fe6 07bd db98 f93c
000003f0: c28f 3fbd 79de fcbc 5e5e c1bb eb56 0bbd
