notebooks/runs_graphsage/run2_20251021T143534Z/graphsage_encoder_run2.pt (torch, 69800 bytes, 3 tensors)

convs.0.lin_l.weight f4 [32, 262]
000000 35 fe d7 3c fd 51 d0 3b 2e e3 07 bc c0 c9 8c 3b
       0.026366333 0.00635743 -0.00829391 0.0042965114
000010 ab fc cb bd 78 d6 f6 bd bf a6 dd bb 5f f3 78 3d
       -0.09960302 -0.120526254 -0.0067642624 0.06077897
000020 3d fa 79 3d 29 30 8d bc af aa 99 be 4d 48 01 3f
       0.06102966 -0.017234879 -0.30013034 0.5050095
000030 c4 9e b5 bc f6 7e 2c 3c 19 b3 1c 3e 29 43 a0 3d
       -0.022170432 0.010528317 0.15302695 0.0782531
000040 80 b1 41 3d 21 ed 7a 3c d7 31 22 be 3d 49 2f 3d
       0.047288418 0.015315325 -0.15839325 0.042794455
000050 08 7f db 3d f3 34 7f 3d 14 2b 05 3e 54 1d d9 3c
       0.10717589 0.062306356 0.13004714 0.026503243
000060 cb e1 e3 bd f6 30 3d 3e b7 4f 8f bc db e9 9e 3d
       -0.11127051 0.18475708 -0.017494066 0.07759448
000070 6f d6 0b 3e 3a 43 fc 3c 6f da 1b 3a 96 50 ee 3b
       0.13656019 0.030793775 0.000594533 0.00727279
000080 e8 2e 1c bc 10 d0 74 3e 11 22 d4 bd 31 3f d7 bd
       -0.009532668 0.23907495 -0.1035806 -0.105101
000090 00 af 65 3c 59 ca a4 3e d4 17 9d bc 38 e6 4d bd
       0.014018774 0.3218563 -0.019176401 -0.05026838
0000a0 65 2c 9e 3e 18 ad d0 3d df 5c ab 3e 62 62 b2 39
       0.30893245 0.10189265 0.33469293 0.00034024107
0000b0 84 c8 06 3e ae 6a 45 be ce 9b a6 bd 47 6f dd 3d
       0.13162428 -0.19278976 -0.08135186 0.1081224
0000c0 74 1f 23 3d 91 fa 04 3f 16 14 2b 3f 63 c6 55 3d
       0.039824918 0.51944834 0.66827524 0.05219115
0000d0 f9 6f aa bd 3e b8 28 be 50 85 34 3c f6 8f 86 bd
       -0.08322138 -0.16476533 0.011018112 -0.06570427
0000e0 ff d6 8e 3c a4 5e da bd 2e b7 1b bd 33 c3 bd bd
       0.017436503 -0.106625825 -0.03801649 -0.09265747
0000f0 ff f0 46 3e 92 aa 86 bd 98 4b 69 3e 50 eb be bd
       0.1942787 -0.065755025 0.22782743 -0.09322226
000100 43 6e a5 3c 87 40 ea 3e 11 0d 31 be 21 ed dd 3d
       0.020194178 0.45752355 -0.1729014 0.108362444
000110 6c 14 49 bc de c9 3c 3c e7 bb 61 3d 9c 6f c4 bd
       -0.012272935 0.011522738 0.05511084 -0.095916
000120 fb 21 4e 3c 7c 10 57 3e 29 50 73 bc 16 b6 51 be
       0.012581344 0.21002382 -0.014850655 -0.20479617
000130 db fb 24 3e 17 22 bf bc 6c da 31 bd e8 eb a2 3d
       0.161117 -0.023331685 -0.043421194 0.07955152
000140 84 0f df 3e 1e e4 31 bc 7a e4 77 be 5a 95 b7 3e
       0.43566525 -0.01085761 -0.2420825 0.35856134
000150 02 05 89 bc 7c 47 22 bd a7 04 49 3e e0 62 18 3e
       -0.01672602 -0.039618954 0.19630681 0.14881468
000160 c8 ee 0c be 2b 50 a8 bd 20 b8 5d 3d c9 be 08 3d
       -0.13762963 -0.08218416 0.054130673 0.033385072
000170 00 de 3a 3e b9 3b 99 bd de 81 36 be 69 4b 0d be
       0.18248749 -0.07482094 -0.17822978 -0.13798298
000180 ce 6e 89 3b 78 d7 6f 3e 13 f4 c4 bd fd 7e 0c 3e
       0.004194117 0.23422039 -0.09616866 0.13720317
000190 fb b2 bd bc 24 9e 2c 3e 9e aa d8 3c 90 03 47 3c
       -0.023156634 0.16857201 0.026448544 0.012146845
0001a0 92 e4 96 3d 8d 16 c5 bd 32 96 8c 3e 94 95 ab bd
       0.07367815 -0.09623442 0.2745834 -0.08378139
0001b0 b5 f3 ff bc 8b fa fe bc 2d 06 99 bc 6c d1 68 bd
       -0.031244138 -0.031125328 -0.018679703 -0.056840345
0001c0 17 b2 48 bd 75 f4 5f 3b 68 59 03 3d 98 f0 25 bd
       -0.048997965 0.0034172807 0.032067686 -0.04051265
0001d0 6b 47 0a 3e ba 0e 2b 3d 7b e6 2d bd 49 de 90 3e
       0.13503806 0.04176209 -0.04245613 0.2829459
0001e0 3a 7c a2 bd f8 5b 31 3f 9b b6 03 3e 49 41 db bd
       -0.079338506 0.6928096 0.12862627 -0.107058115
0001f0 61 9c 21 3f f7 67 42 3d e9 ad d6 bc 0e dd 6c 3e
       0.6312924 0.04746243 -0.026205974 0.231312
000200 42 37 6c 3e 04 20 6e 3e 8d 79 37 3f 57 86 1b 3f
       0.23067954 0.232544 0.71669847 0.6075186
000210 26 45 56 be 4a 17 fa 3e e6 37 e7 3d 33 0d c2 bd
       -0.20924816 0.48845893 0.11289959 -0.09475174
000220 7c 6b 49 bd ad 72 78 bb b8 87 f7 3c 9e 1e 62 be
       -0.04917477 -0.003791015 0.030216083 -0.22081992
000230 87 9a 1c 3e 39 cb f0 3d 8f 8e 9b bd 24 be be be
       0.15293323 0.11757512 -0.0759555 -0.3725444
000240 8f 68 2f 3c 31 79 83 3e b3 ee 64 bd 9b 9a 11 3d
       0.010706081 0.256784 -0.055891704 0.035547834
000250 b4 16 db 3d 5d bc 76 3c 00 33 9c be 0a 28 2e bd
       0.1069769 0.015059558 -0.3050766 -0.042518653
000260 b4 5c 1e be 4d 36 a5 be a0 f1 17 bc c8 4e 96 bd
       -0.15465051 -0.3226799 -0.0092739165 -0.07339245
000270 91 92 0a be 46 97 bb be b5 e2 80 be 71 6b 25 be
       -0.13532473 -0.3663885 -0.25172964 -0.16154267
000280 46 92 ae bd f2 60 52 bd df 60 ae bd 62 2b db bc
       -0.08523993 -0.051361986 -0.085145704 -0.026754085
000290 e7 64 59 3d a6 79 95 be 95 54 c8 bd 5d 89 ce be
       0.053074744 -0.29194373 -0.09781758 -0.40339175
0002a0 fa 83 fa 3c c6 05 60 be 62 1c 9b bd 98 d4 13 be
       0.03058051 -0.21877202 -0.07573773 -0.14436567
0002b0 90 30 f9 bd f8 c7 aa bd b7 a9 2c bd a1 1a 1b bb
       -0.12167466 -0.08338922 -0.04215404 -0.0023666995
0002c0 35 fc 07 be 4c 3f 75 be 8f d6 4a be 54 c8 13 be
       -0.13279803 -0.23949927 -0.1980841 -0.14431888
0002d0 84 98 3b be 31 c9 9e bd 76 92 81 3d 8f 41 92 bd
       -0.18319899 -0.07753218 0.06326763 -0.071414106
0002e0 ed 4c 21 bc 63 89 d7 bd 7e 2d f5 3d ab a5 3a 3c
       -0.009845001 -0.10524251 0.119715676 0.011392037
0002f0 32 1b 57 be f7 58 a0 3d 9d 6b 31 bd 03 96 c3 bd
       -0.21006468 0.07829469 -0.04331552 -0.09550097
000300 6e 02 4b 3d 60 bc 7e bd fa 57 11 3e 09 56 44 3d
       0.049562864 -0.062191367 0.14193717 0.047933612
000310 dd 96 25 3d cd d8 bc 3d 37 92 5d be 57 50 5b 3e
       0.040427078 0.09221039 -0.21637808 0.21417366
000320 38 6b dd bd cb 49 06 bd f1 3f 4a 3d 94 d2 e0 bd
       -0.10811466 -0.03278522 0.049377386 -0.109776646
000330 f6 83 37 bd b7 64 20 be c0 8e 8d 3c ff d1 78 3d
       -0.044803582 -0.1566342 0.017279983 0.060747143
000340 22 0b 64 bd 54 5c 47 bd cf fe ea bd 15 1e ce 3d
       -0.05567468 -0.048672035 -0.11474382 0.100643314
000350 4e 06 15 be b4 32 2d bd 77 0e e9 bd ab 8f ff bd
       -0.14553186 -0.042284682 -0.11379712 -0.12478574
000360 6b d0 4c be 29 d3 b2 bd e5 78 06 3e 70 9b b3 3d
       -0.2000138 -0.08731682 0.13132055 0.08769882
000370 6b 12 04 be 53 81 2c 3e 94 17 37 3e 46 e9 35 be
       -0.12897651 0.16846208 0.17880088 -0.17764768
000380 6f 03 6d 3e 1f 21 e8 bc 26 87 d7 bc df 2e 51 be
       0.23145841 -0.028336106 -0.026309561 -0.20428036
000390 d3 6c 8a bd 5e 7a 16 3e f7 b8 10 3e 0c c7 1a be
       -0.06759038 0.14695117 0.14133058 -0.15114993
0003a0 15 0b 9a be 93 e6 5b 3d 57 32 2b 3b 38 0e 39 3e
       -0.3008658 0.05368669 0.0026122534 0.1807183
0003b0 0b 2f 20 3d 7a 74 50 3d 6f 8f 2a 3e 53 67 98 3e
       0.039107364 0.05089233 0.16656278 0.2976633
0003c0 f4 69 84 bd 5f f9 91 b9 fb 54 f8 3d 3d d3 41 3e
       -0.064655215 -0.0002784235 0.12125584 0.18928237
0003d0 17 25 83 3d e6 d3 98 3d c3 fd 79 3d c3 99 f9 3c
       0.06403559 0.074622914 0.06103302 0.030468827
0003e0 01 5e a4 3c bc cd ec 3a ca fd 9d be 48 c1 06 3d
       0.020064356 0.0018066685 -0.30857688 0.03289917
0003f0 e3 40 bc b9 ce 1e de bd 63 d8 58 be 77 5d b0 3b
       -0.000359065 -0.10845719 -0.21176295 0.0053822356

convs.0.lin_l.bias f4 [32]
000000 04 b7 7c bb da 62 e8 bc 4e d5 00 bc 20 0b 8c ba
       -0.0038561234 -0.028367449 -0.007863356 -0.0010684468
000010 73 7e 24 3d d0 13 c4 3c 03 47 c6 3b 9b 48 a2 bb
       0.040159654 0.023935229 0.0060509457 -0.004952503
000020 bf ba ad 3c 4a e8 b4 bc a8 c8 30 bb 5f 26 80 bb
       0.021207212 -0.02208342 -0.002697507 -0.003910824
000030 52 26 9b 3c 19 1c 35 bc 49 e9 34 bc 07 63 b8 bb
       0.018939171 -0.011054062 -0.011041948 -0.0056270394
000040 66 5c 05 3c a1 ff ba 3c 29 c8 8c 3a 18 6f fa bb
       0.008139705 0.022826971 0.0010740805 -0.007642638
000050 24 d1 05 bc 46 d8 99 bc 7e 14 1a bc 68 85 f5 3c
       -0.008167539 -0.018779885 -0.0094043 0.02997084
000060 e6 1d cb bc 7f 59 11 bc 72 55 45 bc 52 6a 9b bc
       -0.02479453 -0.008871435 -0.0120442975 -0.018971596
000070 f1 c5 30 bc 5f a9 8d bc 8a 43 0a 3d 49 3b 0c 3d
       -0.01078938 -0.017292676 0.033755817 0.034236226

convs.0.lin_r.weight f4 [32, 262]
000000 51 e3 75 3a c1 a3 82 3c 09 c5 17 3c 02 3f 3e 3c
       0.0009379881 0.015947225 0.009263285 0.011611702
000010 8c 68 db 3a f0 12 0b 3a 96 41 c2 3b 10 43 29 3c
       0.0016739531 0.0005305251 0.0059282286 0.01033093
000020 89 1c 16 3c 75 d7 be 3b 31 a4 d0 bc d9 d4 80 3d
       0.009162077 0.0058240243 -0.025468918 0.062905975
000030 67 e8 19 3c 26 cc 28 bb 68 dd 8a 3c 5e c8 2c 3c
       0.009393788 -0.0025756448 0.016951278 0.010545818
000040 1c 6e 07 3c e9 d8 83 3b 74 48 15 3c de ff 06 3d
       0.008265998 0.0040236604 0.009111512 0.032958858
000050 bf 08 08 3c 70 48 3a 3c 3e 0e 9f 3c 5e 94 b3 b9
       0.0083028665 0.0113698095 0.01941597 -0.00034252083
000060 10 45 96 bc 13 47 93 3c eb f3 2e bc 6d c4 9a 3a
       -0.018343478 0.017978227 -0.010678272 0.0011807807
000070 34 bb 3f 3c 33 2b 64 bc 80 4f 14 bb 12 a3 79 3c
       0.011702348 -0.013926315 -0.0022630394 0.015236633
000080 c9 53 9d 3b 75 cc 59 3d a6 db 9e bc 4d 5f 2c bc
       0.0048012477 0.0531735 -0.019391846 -0.010520768
000090 4c c9 c4 3c 02 d4 3f 3c 11 98 1e bc 51 7b 2c 3c
       0.024021767 0.011708261 -0.00967981 0.010527448
0000a0 b7 9a 20 3c dd a5 cb 3b c7 62 21 3d cc 50 ba 3b
       0.009802512 0.006214841 0.039400842 0.0056859013
0000b0 c2 52 9c 3b 15 c7 87 bc 1e c8 4f bb 4c 8d 2e 3d
       0.0047706077 -0.016574422 -0.0031704972 0.04261522
0000c0 9a 08 a6 3c 08 b4 33 3c 3d 4b 1a 3d f7 7d b4 3a
       0.020267773 0.010968216 0.03766941 0.0013770451
0000d0 98 fb 10 bc 4e 1f d6 bc 52 01 b2 bb 10 e8 a7 bc
       -0.008849047 -0.026137974 -0.0054322863 -0.020496398
0000e0 71 59 2a 3c 4c ad a2 b9 1d b8 17 bb b3 cc bb bc
       0.010397301 -0.00031028164 -0.0023150512 -0.022924757
0000f0 95 5c 01 3d c1 47 b8 39 cd 29 77 3c d1 d1 3b 3d
       0.031582434 0.00035148676 0.01508565 0.045854393
000100 b0 d7 80 3b 88 31 80 3c 80 0e 96 bb 23 4a 7d 3c
       0.003931962 0.015648618 -0.0045793653 0.01545957
000110 08 51 61 3a 5f cc 85 bb d0 50 1e 3c e1 b6 62 bc
       0.00085951434 -0.004083201 0.009662822 -0.013837547
000120 f4 74 bb bb 50 5d a9 3c 10 0e 60 bb 39 f7 28 bd
       -0.005720729 0.020674378 -0.003418807 -0.041251395
000130 9f 17 e2 ba e6 c3 e9 bb cf 9d 18 39 d4 c9 97 3b
       -0.0017249471 -0.0071339486 0.00014554638 0.004632214
000140 e5 1e fb 3c 53 6b f5 3c 7d 02 3e bc ff b4 fa 3c
       0.03065438 0.029958403 -0.011597273 0.030603884
000150 85 a1 40 bc 10 d6 09 3c 9c a5 47 3c 06 aa b3 3c
       -0.011757259 0.008412853 0.01218548 0.02193166
000160 95 5d 01 3d 72 a5 b3 bb cf 6b a8 3c 8f 7e 50 3d
       0.031583387 -0.005482369 0.02055922 0.050901946
000170 3f 94 bb 3a 45 9d ff 3a 93 11 6f bc 81 78 a7 bb
       0.0014311149 0.0019501826 -0.014591592 -0.0051108007
000180 5d ad 9e bc db 37 18 3c 81 e5 98 bb 85 a3 84 bb
       -0.019369775 0.009290661 -0.004666031 -0.0040478134
000190 ac 31 45 b9 37 65 da 3c 12 fb 35 3a 2a 0d b9 3c
       -0.00018805888 0.026659591 0.00069420144 0.022589285
0001a0 c3 41 ba 3c 5f 73 1d 3b 92 0c c4 3c 70 23 31 bc
       0.022736436 0.0024025065 0.023931775 -0.010811672
0001b0 e2 6d 18 bb f8 b7 be 3a 5f d0 96 bb 73 9f 07 bc
       -0.0023258855 0.0014550677 -0.0046024765 -0.008277762
0001c0 fe b0 82 bb 5f 52 ec bb 48 ce 8b bb e2 f2 f8 bb
       -0.0039883843 -0.007211968 -0.004266534 -0.0075973133
0001d0 52 f0 4d 3c 7b ed 4b 3b e5 c1 80 bb 96 8f 9f 3c
       0.012569504 0.0031116891 -0.003929364 0.019477647
0001e0 a7 c2 d5 bc 51 63 c5 3c 4d 89 2e 3d 60 a6 ca 3b
       -0.026093794 0.02409521 0.04261141 0.006184384
0001f0 33 96 21 3c ea f2 50 bb 01 91 bd bb f3 5c 66 3c
       0.00986247 -0.003188307 -0.005785108 0.014060247
000200 9b 0b 21 3d bf e9 73 3d a9 c9 03 3d 78 52 2c bc
       0.03931771 0.05954909 0.03217474 -0.010517709
000210 95 4a 8a 3c bb f6 09 3c c2 0e 4f 3c e1 91 61 bd
       0.016881267 0.0084206415 0.012637796 -0.05507076
000220 57 e9 8e bb 1c 66 b2 bc 43 63 80 bc 54 15 2b bd
       -0.0043613124 -0.021777205 -0.015672332 -0.041768387
000230 bb ce ad 3c db 17 6d bc 07 7d 68 bc 8e 29 f2 bd
       0.02121674 -0.01447102 -0.014189965 -0.11824332
000240 78 43 54 3d fe 0c 0b bc 2e 7a 96 bc 7f 01 b3 bc
       0.051822156 -0.008486984 -0.018368807 -0.0218513
000250 6b 1d 97 bc 81 e8 e7 bd 44 6e 74 bd cc 1b d2 bd
       -0.018446645 -0.113236435 -0.05967547 -0.10259208
000260 c2 03 a2 bd 14 f5 bd bd 67 84 01 be 79 1c 4b bd
       -0.07910873 -0.092752606 -0.12648164 -0.0495877
000270 57 1b 26 bd 5d d9 67 bd 11 b5 a9 bd 15 9f f5 bc
       -0.040553417 -0.05660378 -0.08286489 -0.029983083
000280 39 1a 84 bd 0f 42 84 bc 11 77 33 bd 8a dc af bc
       -0.06450314 -0.01614478 -0.043814722 -0.021467466
000290 b1 66 b2 bc de 6a 7a bd cf d2 a0 bc 39 10 af bd
       -0.021777483 -0.061137073 -0.019631771 -0.08548016
0002a0 6d d8 91 bc e6 9a 1d be 3e da 62 bd 70 00 0f bd
       -0.017803395 -0.1539112 -0.055383913 -0.034912527
0002b0 57 37 bd bc 7e 48 bd bc 5d 41 e6 bc d4 fb f5 bc
       -0.023097677 -0.023105856 -0.02810734 -0.030027308
0002c0 fc 84 c4 bc b5 03 00 bd 8e 85 ca bd 55 05 de bc
       -0.023989193 -0.031253535 -0.09888755 -0.027102152
0002d0 d1 2a 00 bd 17 e9 cb bc e1 b6 ca bc d8 0e 81 bc
       -0.031290833 -0.02489142 -0.024745407 -0.015754148
0002e0 e7 43 9c bc 78 a7 92 bc d1 fa 3a bb af ba c3 bc
       -0.019075347 -0.017902121 -0.0028530846 -0.023892729
0002f0 1e c1 d7 bc 95 d8 65 bc c9 f2 94 bc f9 2f 41 bd
       -0.026337203 -0.014028688 -0.018182175 -0.04716489
000300 ca ff aa bc 4b 2a 80 bc 3b 2d e3 bb dd ee d7 bc
       -0.020873923 -0.015645167 -0.006932882 -0.026359016
000310 30 43 bf bc bf 85 d6 bc ec e7 d1 bc f2 63 bb bc
       -0.023347467 -0.026186822 -0.025623284 -0.022874806
000320 59 1e ef bc 94 e5 e3 bc 26 15 6d bc 04 22 b8 bc
       -0.029189276 -0.027819432 -0.014470374 -0.022477157
000330 a4 94 6a bc c6 f2 79 bc 89 d4 54 bc e3 ee 8b bc
       -0.014317665 -0.015255636 -0.012990125 -0.017081684
000340 94 74 a6 bc 80 ed c5 bc 61 ab ae bc 89 98 8b bc
       -0.02031926 -0.0241611 -0.021321954 -0.017040508
000350 0d 7a b8 bc ff e1 be bc 21 d6 b1 bc 11 47 c7 bc
       -0.022519136 -0.023301123 -0.02170855 -0.02432588
000360 a6 7d b9 bc dd 30 98 bc a0 ca d0 bc fb 49 0b bc
       -0.022642922 -0.018577987 -0.025487244 -0.008501525
000370 92 28 af bc ec 04 a9 bc 01 0e 9a bc 20 b0 59 bd
       -0.02138165 -0.02063223 -0.018805506 -0.05314648
000380 05 82 b5 bb e1 53 84 bc 05 b0 41 bd b3 b9 7f bd
       -0.005539181 -0.016153278 -0.047287006 -0.062432956
000390 09 41 90 bd 13 42 9d bc 8d 68 9f bc c6 d5 01 be
       -0.070436545 -0.019196546 -0.019459033 -0.12679204
0003a0 ef c9 7a bd 69 5c 89 bc ea 40 aa bc 87 e8 82 bc
       -0.061227735 -0.016767697 -0.020782907 -0.015980018
0003b0 b4 e0 43 3d a5 bb 5e bc 22 65 ab 3c 89 ae fc 3b
       0.047821715 -0.013594543 0.020922247 0.007711236
0003c0 01 0f 8d bd 2b 65 b7 bc 96 3c bd bc ce f0 97 bc
       -0.068876274 -0.022387108 -0.023100179 -0.018547442
0003d0 c8 a0 c0 3b 61 92 75 3b f3 02 b7 3b 6d b0 7c 3b
       0.0058785416 0.0037471282 0.0055850684 0.0038557306
0003e0 77 05 59 3b ce f9 5d 3b b9 dc a5 bc 18 7a 00 3b
       0.003311483 0.003387082 -0.02024685 0.0019604024
0003f0 be 98 f2 bb 19 16 13 3b 4c c5 9b ba fe a9 44 3b
       -0.007403462 0.002244359 -0.001188436 0.003000855
