notebooks/graphsage_v2/runs_graphsage/run3_20251023T144217Z/graphsage_encoder_run3.pt (torch, 338121 bytes, 6 tensors)

convs.0.lin_l.weight f4 [128, 262]
0	0xbd68f08d	-0.056870032
1	0xbbe44714	-0.006966481
2	0x3b903b1f	0.004401579
3	0x3d854baf	0.06508576
4	0x3dff12ff	0.12454795
5	0xbd6d99f8	-0.058008164
6	0xbdfc9115	-0.1233236
7	0xbe1a1318	-0.15046346
8	0x3d338d97	0.043836202
9	0x3d6fc844	0.058540598
10	0x3d729282	0.059221752
11	0x3d8b545b	0.06803199
12	0x3bf2710c	0.00739873
13	0xbcaa6ef4	-0.02080486
14	0x3cc343f4	0.023836114
15	0x3db60397	0.088874035
16	0x3d72e4e4	0.05930032
17	0xbcf0cee3	-0.029395526
18	0x3db833ba	0.08994241
19	0x3d643320	0.05571282
20	0xbe1e915b	-0.15485136
21	0xbc8596d7	-0.016307278
22	0xbde6a802	-0.11262514
23	0x3db07ef5	0.08617965
24	0x3d85364c	0.06504497
25	0x3a1224a3	0.00055749173
26	0xbd5be056	-0.05368074
27	0xb9dfb9c8	-0.00042672292
28	0x3dc87b87	0.09789186
29	0x3d61d34c	0.05513315
30	0xbe0c3ac3	-0.13694291
31	0x3ccc8396	0.024965089
32	0x3d238032	0.03991718
33	0xbc93aee6	-0.018027734
34	0x3dbbb0b6	0.09164564
35	0xbd9524d2	-0.072824135
36	0xbd04ff9a	-0.032470323
37	0xbccea773	-0.02522633
38	0x3c57dfb5	0.0131758945
39	0x3cef888a	0.029239912
40	0xbd0b47a5	-0.034003872
41	0x3dd81a5c	0.10551903
42	0x3cb6ff2d	0.022338474
43	0x3d53973f	0.05165791
44	0xbdd3f9e7	-0.103503995
45	0x3dd3a586	0.103343055
46	0xbd8fea87	-0.070271544
47	0x3e0daee2	0.13836244
48	0x3d5db5d5	0.054128487
49	0xbdaf98b6	-0.08574049
50	0xbe0019c7	-0.12509833
51	0xbce1af58	-0.02754943
52	0x3dbb2d1d	0.09139464
53	0x3e04b93e	0.1296129
54	0xbd21e42f	-0.039524253
55	0x3d25d6fc	0.04048823
56	0x3e168b69	0.14701618
57	0x3d9f6836	0.077835485
58	0xbd1714f8	-0.03688523
59	0xbdc3d584	-0.09562209
60	0xbdfd7fbf	-0.12377881
61	0x3d7e32c4	0.062060133
62	0xbd53b40f	-0.05168539
63	0xbc618d65	-0.013766621
64	0x3d11b7d2	0.035575695
65	0x3ac4063c	0.0014955471
66	0x3d3c0030	0.045898616
67	0xbc89a072	-0.01680014
68	0x3d41487e	0.047188275
69	0xbd498ae2	-0.049204715
70	0xbd6fcb43	-0.058543455
71	0x3c90c1b9	0.0176705
72	0x3da1a6b4	0.07893124
73	0xbe5cbbdd	-0.21556039
74	0xbd6e428c	-0.058168933
75	0xbd73b391	-0.05949742
76	0xbd88eece	-0.066861734
77	0xbd97447f	-0.073861115
78	0x3d5c5fc4	0.053802267
79	0xbe0d0368	-0.1377083
80	0x3dfe344c	0.124123186
81	0xbcc46613	-0.023974454
82	0x3d8547bd	0.065078236
83	0xbd386843	-0.045021307
84	0xbc368478	-0.011139981
85	0xbdc47623	-0.09592845
86	0xbd656275	-0.0560021
87	0xbd943cad	-0.072381355
88	0x3e0be5d6	0.13661894
89	0xbe1da546	-0.15395078
90	0x3d843bc4	0.06456712
91	0x3d965fc6	0.07342486
92	0xba0f32b8	-0.0005462575
93	0x3bc15424	0.005899923
94	0xbd47dd3a	-0.048794962
95	0x3c5e3142	0.013561549
96	0x3d2be62b	0.041967552
97	0xbd5a8c1f	-0.053356286
98	0xbd850034	-0.06494179
99	0xbd8fe5b5	-0.07026235
100	0x3cea1afe	0.028577324
101	0x3c95ce3c	0.018286817
102	0xbc7a26ea	-0.015268067
103	0xbce5f692	-0.028071675
104	0xbe38ae3d	-0.18035217
105	0x3ce02193	0.02735976
106	0xbd76573b	-0.060141783
107	0x3ccb1bb9	0.024793493
108	0xbc9a5429	-0.018838959
109	0x3db078c2	0.08616783
110	0xbc307fed	-0.010772687
111	0xbd84207a	-0.06451507
112	0x3c64976a	0.013952116
113	0xbd1473a0	-0.03624308
114	0x3d9a6faf	0.07540833
115	0xbd215203	-0.039384853
116	0x3cf5354a	0.029932637
117	0x3d4beb06	0.049784683
118	0x3b9c3bbd	0.0047678635
119	0xbda1dc57	-0.079033546
120	0xbda6f88a	-0.08152874
121	0xbe0898d6	-0.13339552
122	0xbd0bda2c	-0.03414361
123	0x3c866806	0.016407024
124	0xbd73e24a	-0.059541978
125	0x3ce815fa	0.028330792
126	0xbdc30431	-0.09522284
127	0xbd80380a	-0.062606886
128	0xbbce4d67	-0.006295848
129	0x3d7f1bf8	0.062282532
130	0x3c204fd0	0.009784654
131	0xbd47f4b3	-0.048817348
132	0x3d376d0b	0.044781726
133	0xbc8f2fc4	-0.017478831
134	0xbb9cf527	-0.0047899666
135	0x3dc9b3db	0.09848758
136	0x8385d230	-7.865294e-37
137	0x3d79bea0	0.06097281
138	0x3d8ec890	0.06971848
139	0x3e1aa321	0.15101291
140	0xbdb982fd	-0.09058187
141	0x3d6472ec	0.05577366
142	0x3deef67a	0.116681054
143	0xbd83d53a	-0.06437154
144	0xbd89f972	-0.06737031
145	0xbdd49fa0	-0.103820086
146	0x3d75a2b5	0.059969623
147	0xbd0f8bef	-0.03504556
148	0x3d11a7d5	0.035560448
149	0x3da80dbe	0.08205746
150	0x3d777a60	0.06041944
151	0x3dbbaebb	0.091641866
152	0xbd2eec49	-0.042705808
153	0x3dc9e197	0.09857481
154	0xbd4bc478	-0.049747914
155	0x3d0d2e12	0.034467764
156	0xbce53ed8	-0.027984068
157	0x3e04dc88	0.12974751
158	0x3d84291d	0.06453154
159	0x3cc4577a	0.023967493
160	0x3d9a9383	0.07547667
161	0x3c431774	0.011907447
162	0xbd5dbc91	-0.05413491
163	0xbc59f928	-0.013304032
164	0xbdaa8e0d	-0.08327875
165	0x3d251700	0.040305138
166	0xbe035535	-0.12825473
167	0x3ddc7fce	0.10766564
168	0xbbcf5fcd	-0.006328559
169	0x3bc58f34	0.006029034
170	0xbb342cda	-0.0027492554
171	0x3d587cc1	0.05285335
172	0xbcade5d5	-0.021227757
173	0xbd37a919	-0.044839
174	0xbd8e63e9	-0.0695265
175	0xbc4cbbb3	-0.012495923
176	0xbd6674d7	-0.05626377
177	0x3d88bca5	0.06676606
178	0x3dd66880	0.104691505
179	0x3c1b1cf2	0.00946735
180	0x3ddfd1f5	0.10928718
181	0x3d2717e1	0.040794257
182	0x3c01358a	0.0078863
183	0xbd1627dc	-0.036659107
184	0xbbceb5ff	-0.0063083167
185	0x3c22a7bf	0.009927689
186	0xbd1c33d6	-0.038135372
187	0xbd26a4c9	-0.040684495
188	0x3d6fc3bb	0.058536272
189	0xbd8e4b0d	-0.069479086
190	0x3d1f90ff	0.03895664
191	0x3c66da10	0.014090076
192	0x3cc3106b	0.02381154
193	0xbd484228	-0.048891217
194	0xbdf84516	-0.12122552
195	0xbce960ac	-0.02848848
196	0xbd3a05a7	-0.045415547
197	0xbd2b5c76	-0.041836224
198	0x3dbb15ba	0.091350034
199	0xbe199ac2	-0.15000442
200	0x3d9bf85d	0.07615731
201	0xbc41e6e2	-0.011834832
202	0xbd99392d	-0.074816085
203	0x3d856a6f	0.06514441
204	0xbc234bc5	-0.009966795
205	0x3d8cc4a7	0.06873446
206	0xbca0a556	-0.019610088
207	0xbd9b7e43	-0.07592442
208	0x3c81cb6d	0.015844071
209	0xbbb14e86	-0.005410972
210	0x3d3174dd	0.04332434
211	0xbcbf89e7	-0.023381187
212	0x3d02c801	0.03192902
213	0xbd26e695	-0.040747244
214	0x3cb517a1	0.022105994
215	0x3d9e6b49	0.07735307
216	0x3d273eec	0.04083149
217	0x3c318241	0.010834278
218	0x3d94facc	0.07274398
219	0x3c9e6091	0.019333156
220	0x3e174c72	0.14775255
221	0xbdc20e20	-0.094753504
222	0xbd9051dc	-0.070468634
223	0x3d70308e	0.058640055
224	0xbdd53d85	-0.104121245
225	0x3db42818	0.0879671
226	0x3d81d81d	0.063400485
227	0x3d887e07	0.06664663
228	0x3d9c86e4	0.07642916
229	0xbd859ad1	-0.065236695
230	0xbd0d4321	-0.034487847
231	0x3e578d3c	0.2104997
232	0xbc42d3d9	-0.011891329
233	0xbd06ff36	-0.032958232
234	0x3dc9efa4	0.09860161
235	0xbde65085	-0.11245827
236	0xbdc977aa	-0.09837277
237	0xbd076dd4	-0.033063725
238	0xbd935550	-0.071940064
239	0x3bea3952	0.0071479464
240	0x3cd4738a	0.025934
241	0x3c21a9b8	0.009867124
242	0x3d8928a3	0.06697204
243	0xbda2bc62	-0.079460874
244	0x3cdfe57d	0.027331108
245	0xbcc7d1be	-0.024392005
246	0xbd52fd22	-0.051510938
247	0x3beba82c	0.0071916785
248	0x3cdebf61	0.027190866
249	0xbd2eae14	-0.042646483
250	0x3e14591e	0.1448712
251	0xb9481db8	-0.00019084557
252	0x3dc94248	0.09827095
253	0x3c640d56	0.013919195
254	0x3ddeb87b	0.108750306
255	0xbd808141	-0.06274653

convs.0.lin_l.bias f4 [128]
0	0xbc78f542	-0.015195193
1	0xbd72f6fe	-0.05931758
2	0x3c6edac8	0.014578529
3	0x3c3b2794	0.01142301
4	0xbcce9f06	-0.025222313
5	0x3c10f8b6	0.00884836
6	0xbaef3815	-0.0018250967
7	0x3d1fdca0	0.039028764
8	0xbd2705f0	-0.040777147
9	0xbd5c447c	-0.05377625
10	0xbd1c89dc	-0.03821741
11	0x3d3e99c4	0.04653336
12	0x3ca1cc73	0.01975081
13	0xbbed3545	-0.0072390162
14	0x3c0d247c	0.008614656
15	0xbd2a80a2	-0.04162658
16	0xbd3367fc	-0.04380034
17	0xba09d87f	-0.00052583957
18	0xbd2ecb5c	-0.042674407
19	0xbcbedea6	-0.023299526
20	0xbd42430c	-0.047427222
21	0xbd6933c7	-0.056934144
22	0x3d2b0e11	0.04176146
23	0x3bbaca62	0.0057003954
24	0x3cb9530c	0.022622608
25	0x3d41fbe3	0.04735936
26	0x3d5f56ad	0.05452602
27	0x3b86b292	0.0041106427
28	0xbcea3a7e	-0.028592344
29	0xbbb2024a	-0.005432402
30	0xbd3b9d48	-0.045804292
31	0xba7598a3	-0.0009368753
32	0x3be4b398	0.006979417
33	0xbab342d8	-0.0013676537
34	0x3d474d9e	0.048658006
35	0xbc06547d	-0.0081988545
36	0x3c0ff3af	0.008786126
37	0x3bcb2120	0.006199017
38	0x3d03a2ad	0.03213756
39	0x3b93dc39	0.0045123366
40	0x3cc548da	0.02408259
41	0x3d47fde8	0.04882613
42	0xbd59cca0	-0.05317366
43	0x3d824a83	0.06361868
44	0x3c90447b	0.017610779
45	0x3cade35e	0.021226581
46	0xbd2b32aa	-0.041796364
47	0x3c84bd4f	0.01620355
48	0x3bcd029c	0.0062564146
49	0x3d215d52	0.039395638
50	0x3c32e99e	0.0109199565
51	0xbce32ef7	-0.027732356
52	0xbcd3eb55	-0.025869051
53	0xb9527abb	-0.00020072881
54	0x3d0dd84f	0.034630116
55	0xbcbb54ac	-0.022867523
56	0xbccc0c3b	-0.024908176
57	0x3bb64665	0.005562591
58	0x3b657842	0.0035014306
59	0xbc833897	-0.016018195
60	0x3ce50622	0.027957026
61	0x3c3f1e22	0.011664899
62	0xbd21880f	-0.039436396
63	0xbd07b0ea	-0.033127703
64	0xbc9605bb	-0.01831328
65	0x3d5b8dbe	0.053601973
66	0x3c999788	0.018749014
67	0x3cbc051f	0.02295166
68	0xbd4696d2	-0.048483677
69	0x3b9af3a2	0.0047287503
70	0xbd4f2acf	-0.050577935
71	0xbc528155	-0.012848218
72	0xbce637e1	-0.028102817
73	0x3d099c29	0.03359619
74	0xbcfb4dd0	-0.030676752
75	0xbd49fb50	-0.049311936
76	0xbd55a1e9	-0.052156363
77	0x3d32d66e	0.043661527
78	0xbd2efdaf	-0.0427224
79	0xbd8f61c0	-0.07001066
80	0xbd83a816	-0.06428544
81	0x3d540ee3	0.05177201
82	0xbd53469f	-0.05158102
83	0xbc7b396f	-0.015333517
84	0x3c5f09e4	0.013613198
85	0x3cc18482	0.023622755
86	0xbccc2989	-0.02492215
87	0x3d07c076	0.03314253
88	0x3d09a48d	0.033604193
89	0x3d7802d1	0.06054956
90	0x3d045e34	0.0323164
91	0xbd055fe4	-0.03256215
92	0xbd35b889	-0.04436544
93	0xbd8fe766	-0.070265576
94	0x3d324779	0.043525193
95	0x3d1f77ac	0.038932487
96	0xbd0e1d3f	-0.03469586
97	0x3cb6d19a	0.022316743
98	0x3c15c1e4	0.009140465
99	0xbd84b482	-0.06479742
100	0xbd1a9498	-0.037739366
101	0xbc70941f	-0.014683752
102	0x3cfc23ca	0.030778784
103	0x3c6ed2e0	0.014576644
104	0x3d781374	0.060565427
105	0x3c4e0dcf	0.012576534
106	0xbd363715	-0.044486124
107	0x3d5398ee	0.051659517
108	0x3bb58601	0.005539656
109	0xbd0ce92c	-0.034402058
110	0x3be84985	0.0070888423
111	0xbc848459	-0.01617639
112	0x3d493ba5	0.049129147
113	0x3c478d8e	0.012179745
114	0xbbd23476	-0.0064149452
115	0xbd1b37c3	-0.037894975
116	0x3d489620	0.048971295
117	0x3c8492f2	0.01618335
118	0x3aeb209e	0.0017938798
119	0x3bb46f80	0.005506456
120	0xbc8c7cc4	-0.017149337
121	0xbd088487	-0.033329513
122	0x3d1d322e	0.038377933
123	0xbc6f8204	-0.0146184005
124	0xbcd30a04	-0.025761612
125	0xbcde5d34	-0.027144052
126	0x3c80df51	0.015731486
127	0x3d2b2f80	0.041793346

convs.0.lin_r.weight f4 [128, 262]
0	0xbd8cb4fa	-0.06870456
1	0xbd0fee98	-0.03513965
2	0x3cd91380	0.026498556
3	0xbda375f7	-0.079814844
4	0x3d76d0de	0.060257785
5	0x3d7aaf52	0.061202355
6	0xbda344f9	-0.0797214
7	0xbd45d881	-0.048302177
8	0x3c22c6c7	0.0099350875
9	0x3daa8694	0.0832645
10	0x3d9f919b	0.07791444
11	0x3c87d881	0.01658273
12	0x3d1a912d	0.037736107
13	0x3d1bcc56	0.038036667
14	0xbd370510	-0.044682562
15	0x3bd4d1f4	0.006494755
16	0x3bd96c27	0.006635207
17	0x3d522ec2	0.051314123
18	0x832e4a38	-5.1219203e-37
19	0xbced8e2d	-0.028998459
20	0xbb4a933a	-0.0030910508
21	0xbd785260	-0.060625434
22	0xbd82441a	-0.063606456
23	0x3c4716eb	0.01215146
24	0xb8230f15	-3.8876275e-05
25	0xbcc83251	-0.024438055
26	0xbc881421	-0.01661116
27	0x3d6cfa96	0.057856165
28	0x038f11ed	8.4089e-37
29	0x3c6a5982	0.014303567
30	0xbc4cca93	-0.012499469
31	0xbd40ad80	-0.047040462
32	0xbd9bc3ca	-0.07605703
33	0x02e3b584	3.3458837e-37
34	0x3d217fb1	0.039428417
35	0xbd0f0187	-0.034913566
36	0x3c8430ae	0.016136494
37	0xbcd60d1b	-0.026129296
38	0x3d0d2de5	0.034467597
39	0xbd8eb26d	-0.06967626
40	0xbce036a6	-0.027369808
41	0xbce0edad	-0.027457083
42	0xbd06d287	-0.03291562
43	0x3bddfddc	0.006774647
44	0x3c996b7a	0.018728007
45	0x3dcf7d5b	0.101313315
46	0xbbc1d269	-0.0059149754
47	0x3d45f48e	0.04832893
48	0x3ce76350	0.028245598
49	0xbc99dd8e	-0.018782403
50	0x0265ba70	1.6877768e-37
51	0x3c86b475	0.01644347
52	0x3d4257ac	0.04744689
53	0xbd0017cd	-0.0312727
54	0x3db15fef	0.08660876
55	0x39562f94	0.00020426355
56	0x3d290ceb	0.041272085
57	0x3b79d411	0.0038120786
58	0xbc267eb9	-0.010162049
59	0x83be1913	-1.1172953e-36
60	0xbcdde52b	-0.027086815
61	0xbc3e9148	-0.011631317
62	0xbdbea48a	-0.09308727
63	0xbca70fed	-0.020393336
64	0x3b20c9be	0.002453431
65	0xbbf7f548	-0.0075670816
66	0x3cc4e368	0.024034217
67	0x3d9168e3	0.07100084
68	0x3d676e99	0.05650196
69	0xbc3ede6d	-0.01164971
70	0xbcc45786	-0.023967516
71	0xbc506ca3	-0.0127212135
72	0x3d60bced	0.054867674
73	0xbd90a5ca	-0.07062872
74	0xbd9ade53	-0.07561936
75	0x3c50572c	0.012716096
76	0xbc240092	-0.010009902
77	0xbd3621d1	-0.044465844
78	0x3d2f5606	0.042806648
79	0x3ce740ee	0.028229203
80	0x3d3dd61a	0.04634676
81	0x03d9f600	1.28105925e-36
82	0x3d328e66	0.043592833
83	0x83e6b4a4	-1.3559658e-36
84	0xbd016862	-0.031593688
85	0xbb2519e7	-0.002519244
86	0x83016fc2	-3.8037984e-37
87	0xbc271ed9	-0.010200226
88	0xbd1c6e09	-0.038190875
89	0xbc9bde36	-0.019026857
90	0xbdc2516d	-0.09488187
91	0x3ccce7fd	0.025012964
92	0x03284ae9	4.9456755e-37
93	0x828f03c9	-2.1014134e-37
94	0xbbbf1255	-0.005831043
95	0xbce3347d	-0.02773499
96	0xbc9a05bc	-0.018801562
97	0xbd7b3d69	-0.061337862
98	0x3d153ab5	0.03643294
99	0x3b4b29f4	0.0031000348
100	0x3d91e60d	0.07123957
101	0xbd24f408	-0.04027179
102	0x3d9b77e8	0.0759123
103	0x3d013910	0.03154856
104	0x0288a35e	2.0077172e-37
105	0x3d936199	0.0719635
106	0xbced6f12	-0.028983627
107	0x3d2420bf	0.04007029
108	0xbd127d18	-0.03576383
109	0x82b5e722	-2.6728223e-37
110	0xbd0814c8	-0.033222944
111	0x3afe02ec	0.0019379533
112	0x3ca4e88b	0.020130416
113	0x3c18427a	0.009293193
114	0xbd46a9d5	-0.04850181
115	0x3d8f9580	0.07010937
116	0xbd09c881	-0.03363848
117	0xbd61b3ea	-0.05510322
118	0xbd0536ab	-0.03252284
119	0xbcd8b163	-0.026451772
120	0xbc8482c9	-0.016175644
121	0x3cd984fb	0.026552668
122	0xbd6170cc	-0.055039212
123	0xbc7c760b	-0.015409003
124	0x82d2c9b8	-3.0972508e-37
125	0x038c68a7	8.2524875e-37
126	0x82ac9a7a	-2.5361794e-37
127	0xbdbe34e3	-0.09287431
128	0x3d50064c	0.050787255
129	0x83c37457	-1.148778e-36
130	0x835b8514	-6.451108e-37
131	0x82860c09	-1.9696438e-37
132	0x3bbd7df2	0.005782836
133	0xbcb3cf5d	-0.021949464
134	0x8366adfe	-6.779066e-37
135	0x3d3d2a15	0.04618271
136	0x02953df8	2.192915e-37
137	0x3d0436b2	0.032278724
138	0x3d85045a	0.064949706
139	0x82d1eec8	-3.0846844e-37
140	0x02d72586	3.1612948e-37
141	0x3cb1ea02	0.021718029
142	0x3d2139f3	0.039361905
143	0x030a100c	4.0572976e-37
144	0x3ca5f762	0.020259563
145	0xbca99cfd	-0.02070474
146	0x3cb25552	0.0217692
147	0x3d0ce51c	0.034398183
148	0x3d9aaae4	0.07552126
149	0xbc5c4c51	-0.01344593
150	0x3c1218da	0.008917058
151	0x3dc7037d	0.09717462
152	0x817d2394	-4.6494287e-38
153	0x3d0352f8	0.032061547
154	0x8211bf57	-1.0707829e-37
155	0x3d2241dd	0.039613593
156	0x3da177e6	0.07884197
157	0x3d25a2ab	0.040438335
158	0x3d8f651c	0.07001707
159	0x3cedf55d	0.029047662
160	0x3d466ff9	0.04844663
161	0xbd6b24a8	-0.057408005
162	0xbcaf7a74	-0.021420695
163	0x3d415233	0.047197532
164	0x3d60e102	0.054902084
165	0xbc8d7e15	-0.017272035
166	0x0134c398	3.320111e-38
167	0x3cbb8d81	0.022894623
168	0xbc808361	-0.015687646
169	0x3c98930c	0.018624805
170	0x3db27b02	0.08714868
171	0x3df694d3	0.12040105
172	0xbcab0537	-0.02087651
173	0xbd44e236	-0.048067294
174	0xbcca9e5c	-0.024733715
175	0x3d22fd17	0.039792147
176	0x3d25b12c	0.040452167
177	0x3dbce449	0.092232294
178	0x3d76a247	0.060213353
179	0x3bf69bd0	0.0075258985
180	0x3b923950	0.0044623986
181	0x3c223350	0.009899929
182	0xbcafaa07	-0.02144338
183	0xbbee1e19	-0.0072667715
184	0x3b06d489	0.0020573458
185	0x3bb751bb	0.00559446
186	0x3c3f48de	0.011675088
187	0xbd1df016	-0.038559042
188	0x3b1af25d	0.0023642995
189	0xbb53e3de	-0.0032331864
190	0x01e1a2e2	8.288567e-38
191	0x3d054c66	0.032543562
192	0xbc7693e5	-0.015049909
193	0xbc834ff3	-0.016029334
194	0x3d49346d	0.049122263
195	0xbc98ad40	-0.0186373
196	0x3c951914	0.018200435
197	0x3d08ff4e	0.033446603
198	0x3cb01057	0.021492166
199	0x3d212db1	0.039350215
200	0x3d2714ce	0.040791325
201	0xbb63286c	-0.0034661544
202	0xbd723349	-0.05913094
203	0x3d1a7a1c	0.03771411
204	0x399b384a	0.00029605842
205	0x3d21a5fd	0.03946494
206	0xbcac5195	-0.021034995
207	0x3c513983	0.0127700595
208	0xbbc3842c	-0.005966684
209	0x3b90bb76	0.0044168783
210	0xbcb7e883	-0.022449737
211	0x3ca6990d	0.020336652
212	0xbd8e34f3	-0.06943693
213	0xbb37f619	-0.002807027
214	0xbd4f7668	-0.05065003
215	0xbd388175	-0.045045335
216	0xbc9bd2ee	-0.019021478
217	0xbb072be2	-0.0020625521
218	0x3d6176b3	0.05504484
219	0x3d07c5e2	0.0331477
220	0x3cfefa09	0.031125085
221	0x3cb07f0a	0.021544952
222	0xbce7ef3b	-0.028312316
223	0x3dace151	0.08441413
224	0xbd05b5fd	-0.03264426
225	0xbb35f7da	-0.002776614
226	0x3db9aaa8	0.09065753
227	0x0233f68a	1.3221596e-37
228	0x02475689	1.4645045e-37
229	0xbd37dadd	-0.04488646
230	0xbc724ac0	-0.01478833
231	0x3d8f5dbc	0.070003
232	0x3d3f0f53	0.046645474
233	0xbcc925c4	-0.02455414
234	0x3ccfa4ab	0.025347074
235	0x3d1f9602	0.038961418
236	0x3bff5990	0.007792659
237	0xbd2c1e8c	-0.04202132
238	0x82b1fa04	-2.6151314e-37
239	0x3c6f33ec	0.0145997815
240	0x3ab49a53	0.0013778902
241	0x80888490	-1.2537182e-38
242	0xbc454a96	-0.012041708
243	0xbd079f4d	-0.033110905
244	0x3ba644df	0.005074128
245	0x3c4b1c4d	0.012396884
246	0xbd40aa36	-0.047037326
247	0x3cd34b2f	0.025792686
248	0x3cb07c7c	0.021543734
249	0xbd31d5d2	-0.043416806
250	0x3d877056	0.06613223
251	0xbc9677d0	-0.018367678
252	0x3d02d8bc	0.031944975
253	0x3c9de9e4	0.019276567
254	0x3b9960ff	0.0046807523
255	0x3daa01be	0.083011135

convs.1.lin_l.weight f4 [64, 128]
0	0x3c5b0178	0.013367049
1	0x3c9fd085	0.01950861
2	0x3ca61de0	0.020277917
3	0x3abcaf2a	0.0014395465
4	0x3d7ea8f2	0.062172838
5	0xbd6e14ab	-0.05812518
6	0xbddd754a	-0.10813387
7	0x3d834ac3	0.06410744
8	0x3c49ab22	0.012308868
9	0xbdfdb71a	-0.123884395
10	0x3d404ba6	0.046947144
11	0xbde8eeab	-0.11373647
12	0x3cb98f7a	0.022651423
13	0x3c2f3d85	0.01069582
14	0xbe1abeaa	-0.15111795
15	0x3e049af3	0.12949733
16	0xbb41bfec	-0.0029563857
17	0xbe03b972	-0.1286371
18	0x3d698077	0.05700728
19	0x3be1ee88	0.00689489
20	0xbcd04684	-0.02542425
21	0x3dacc0bd	0.084351994
22	0xbc5779c9	-0.013151594
23	0xbd125760	-0.03572786
24	0xbb1bc488	-0.0023768265
25	0x3d9f8112	0.0778829
26	0x3e0c88af	0.13724016
27	0xbc828960	-0.015934646
28	0x3dd41080	0.103547096
29	0xbd8b4792	-0.0680076
30	0x3e1896d2	0.14901283
31	0xbcfe7334	-0.031060793
32	0x3dbcb89c	0.09214899
33	0xbd292449	-0.04129437
34	0x3d0e068b	0.03467421
35	0xbcc6e56c	-0.024279319
36	0x3d86773b	0.0656571
37	0xbd6e0449	-0.058109555
38	0xbccea536	-0.025225263
39	0xbbfdec07	-0.007749084
40	0xbcd3f4dc	-0.025873594
41	0xbda192e9	-0.07889349
42	0xbd059de7	-0.03262129
43	0xbd333a4c	-0.043756768
44	0x3dbead4e	0.09310399
45	0xbd7ece05	-0.062208194
46	0x3dcb6dda	0.09933062
47	0xbac31b8e	-0.0014885531
48	0x3d954fb6	0.07290594
49	0x3cef5b6e	0.029218402
50	0x3b3aee8a	0.0028523528
51	0x3e09db9e	0.13462684
52	0xbdb07421	-0.086159
53	0xbd7d24b8	-0.061802596
54	0xbd9368c8	-0.0719772
55	0x3cba9b19	0.022779034
56	0x3d93f552	0.072245255
57	0x3d93963c	0.07206389
58	0xbdaaad5c	-0.08333847
59	0x3da7be6b	0.08190616
60	0x3d95f2fc	0.07321736
61	0xb83e6196	-4.5390414e-05
62	0x3e239e3e	0.15978333
63	0x3b8d1545	0.004305514
64	0x3dd1dbc6	0.102469966
65	0xbdd39a52	-0.10332169
66	0xbd2c7515	-0.042103846
67	0xbcb3c797	-0.021945758
68	0x3d1c0d5a	0.03809867
69	0xbcb82ea8	-0.022483185
70	0xbd8b8b29	-0.06813652
71	0x3db8e32e	0.09027706
72	0x3be08d40	0.006852776
73	0x3cc7aaf5	0.02437351
74	0x3dbadf0c	0.09124574
75	0x3dbf9b0e	0.09355746
76	0xbe626610	-0.22109246
77	0xbc9b3335	-0.018945316
78	0xbb097bc4	-0.002097831
79	0x3cbb701b	0.022880604
80	0xbb874210	-0.0041277483
81	0x3d2ba5c9	0.041906152
82	0xbc272eca	-0.0102040265
83	0x3ce14f58	0.027503654
84	0xbd360221	-0.044435624
85	0xbdc34247	-0.09534126
86	0x3da0637d	0.07831476
87	0x3de5d704	0.112226516
88	0x3d5e3dfc	0.05425833
89	0x3d6e1cdd	0.058132995
90	0xbd708fab	-0.058730762
91	0x3b78e88f	0.0037980413
92	0x3d26892f	0.040658172
93	0xbe0ce558	-0.13759363
94	0xbd5c7b4e	-0.05382853
95	0x3d677d5b	0.056516033
96	0x3e281ac7	0.16416465
97	0xbc514004	-0.01277161
98	0xbd82c741	-0.06385661
99	0xbd077f6b	-0.0330805
100	0x3d8784fb	0.06617161
101	0x3cb218e2	0.02174038
102	0xbd0acb80	-0.03388548
103	0xbc8893d7	-0.016672058
104	0x3de6e3a3	0.11273887
105	0xbce40126	-0.027832579
106	0xbd034689	-0.03204969
107	0x3c877208	0.016533867
108	0x3cfd5219	0.030922936
109	0x3d462565	0.048375506
110	0xbbc5a207	-0.006031278
111	0xbda817c8	-0.08207661
112	0x3cdcefbd	0.026969785
113	0x3d6a0cd6	0.057141148
114	0x3ddc3a6b	0.1075333
115	0xbcf24291	-0.029572757
116	0x3d9b8e07	0.07595449
117	0x3d4e95b0	0.050435722
118	0x3e1c43d0	0.15260243
119	0x3dcd5cf5	0.10027496
120	0xbde42c3f	-0.11141252
121	0xbc79f949	-0.015257188
122	0xbde54d2d	-0.11196361
123	0x3d43e159	0.04782233
124	0x3d380299	0.044924352
125	0xbcb3df8a	-0.021957178
126	0xbe173a8f	-0.14768432
127	0x3c84524c	0.016152523
128	0xbd89129b	-0.06693002
129	0xbd3bed8b	-0.045880836
130	0x3da0369d	0.07822917
131	0xbdc2f7e1	-0.095199354
132	0x3d6a5050	0.0572055
133	0x3cd98c56	0.026556175
134	0x3dafdc29	0.08586914
135	0xbd94a0ac	-0.07257208
136	0xbd8c6af1	-0.06856335
137	0x3d91a083	0.07110693
138	0xbd969ca5	-0.07354096
139	0x3da0536a	0.0782841
140	0x3d234ca1	0.039868
141	0xbc8f193b	-0.017468086
142	0xbbfdbc1d	-0.007743372
143	0x3dc4c2ad	0.09607444
144	0x3d0f7b93	0.03502996
145	0x3d7b8e6f	0.061415132
146	0xbdf455b3	-0.11930408
147	0x3be2f480	0.0069261193
148	0xbd83706c	-0.06417927
149	0xbd80b25c	-0.06284019
150	0x3c665254	0.0140577145
151	0xbdbb1553	-0.09134927
152	0x3daf7234	0.085667044
153	0xbc9504d2	-0.018190775
154	0x3dd678b6	0.104722425
155	0xbdb82f3b	-0.089933835
156	0xbd1accc4	-0.037792936
157	0x3befd4cd	0.007319069
158	0x3e1fe18e	0.15613386
159	0x3d4b8286	0.049685024
160	0xbd51edd3	-0.051252197
161	0x3e0f95d3	0.14021997
162	0x3d9c9fca	0.07647665
163	0xba55c93a	-0.000815529
164	0xbd4c58f6	-0.049889527
165	0x3c968447	0.018373622
166	0xbcb9bb6a	-0.022672374
167	0x3dbc9cbe	0.09209584
168	0xbd27607f	-0.04086351
169	0x3bd2e3bc	0.0064358395
170	0xbc114718	-0.008867048
171	0x3aff419a	0.0019474507
172	0x3d35c5ed	0.04437821
173	0x3d38f821	0.04515851
174	0x3dbb1bd3	0.091361664
175	0x3c2d7a66	0.010588264
176	0xbd82bce2	-0.06383683
177	0xbca6f9e0	-0.020382822
178	0x3dba6559	0.09101362
179	0xbdc226ca	-0.09480055
180	0xbc96ae0b	-0.018393537
181	0x3d519edd	0.051176894
182	0xbc95c161	-0.018280687
183	0x3d85bf19	0.065305896
184	0xbd3ee333	-0.046603393
185	0xbb22f8b1	-0.002486747
186	0x3cd9defd	0.026595587
187	0xbd1548c0	-0.036446333
188	0xbcab897c	-0.020939581
189	0x3a9c1b24	0.0011909944
190	0xbd846209	-0.06464011
191	0xbc28fe08	-0.010314472
192	0x3d52f792	0.051505633
193	0x3d56c4b8	0.0524337
194	0x3d4e5844	0.050377145
195	0xbce34006	-0.02774049
196	0xbc1b4b58	-0.009478413
197	0x3c155d5c	0.009116497
198	0x3da91c2e	0.08257328
199	0xbb27dc4e	-0.002561349
200	0xbd945037	-0.07241862
201	0x3d7b0cc6	0.06129148
202	0x3caa195a	0.020764042
203	0x3d09b5db	0.033620697
204	0xbd00ecb8	-0.031475753
205	0xbd6125ab	-0.054967564
206	0xbc11392e	-0.00886373
207	0xbd1399bb	-0.03603528
208	0x3d8248ea	0.063615635
209	0xbc8d1bab	-0.017225107
210	0xbdd5b506	-0.10434918
211	0x3d18053a	0.03711436
212	0x3d275fcd	0.040862847
213	0xbcc99720	-0.024608195
214	0x3a939ab6	0.0011261317
215	0x3d77c436	0.060489856
216	0xbda8c999	-0.08241577
217	0x3dff8cbf	0.12478017
218	0xbd95b20a	-0.07309349
219	0x3dbbfdcd	0.09179268
220	0xbc81af69	-0.015830712
221	0x3d440b20	0.047862172
222	0x3d64c4fd	0.055851925
223	0x3cd917b8	0.026500568
224	0xbd6cd622	-0.0578214
225	0x3c2d18e2	0.010565015
226	0xbd0fc977	-0.03510424
227	0xbdbe9cd7	-0.093072586
228	0xbd8d8468	-0.0691002
229	0xbc209bfd	-0.0098028155
230	0xbd4e1b4a	-0.050318994
231	0x3d84d40e	0.06485759
232	0x3d7d1996	0.06179198
233	0x3b41204f	0.002946872
234	0xbd9be11c	-0.076112956
235	0xbd55d76e	-0.052207403
236	0xbc97d3b6	-0.018533569
237	0xbbaf20a0	-0.0053444654
238	0x3c8dccc6	0.017309558
239	0xbc9ced9c	-0.01915627
240	0x3da8adec	0.08236298
241	0x3cc0eb14	0.023549594
242	0xbd9c5cc7	-0.076348834
243	0x3c2eb0de	0.010662286
244	0x3d62c8a4	0.055367127
245	0x3dce5e9b	0.10076638
246	0xbc2d1a34	-0.010565329
247	0xbd2b4541	-0.041814093
248	0xbda861d7	-0.082217865
249	0xbdb20001	-0.08691407
250	0xbd64cfdc	-0.055862293
251	0x3df8a7c6	0.12141375
252	0xbd5635b5	-0.052297313
253	0x3d0fda77	0.035120454
254	0xbc24be74	-0.010055173
255	0xbcff5055	-0.031166235

convs.1.lin_l.bias f4 [64]
0	0xbd26b412	-0.040699072
1	0xbc8ddaa2	-0.017316166
2	0x3d24f71d	0.040274728
3	0x3c06b148	0.008220978
4	0x3d08cfe7	0.033401396
5	0xbd1c6e3f	-0.038191076
6	0x3cab74ab	0.020929655
7	0x3c876eb8	0.016532287
8	0xbbcf227c	-0.0063212495
9	0xbb9aaa31	-0.0047199954
10	0x3b9f6178	0.004863914
11	0xbcefc8a5	-0.02927048
12	0xbd8e2bd1	-0.06941951
13	0x3c16d9b9	0.009207183
14	0x3d0a1f00	0.03372097
15	0xbcf593e7	-0.029977752
16	0x3c2f447a	0.010697478
17	0x3d2d0ff3	0.04225154
18	0xbd8e5d52	-0.06951393
19	0x3ca8ad96	0.020590585
20	0x3d86c20f	0.065799825
21	0xbd163ea8	-0.036680847
22	0xbd825e5e	-0.06365655
23	0xbd615a1a	-0.05501757
24	0xbd8bdfd9	-0.06829805
25	0xba44ba8f	-0.0007504606
26	0x3c8978a3	0.016781157
27	0xbcb928b6	-0.02260242
28	0xbc213a7b	-0.009840603
29	0xbd90e08b	-0.07074078
30	0xbd8e661e	-0.06953071
31	0xbd0c36b9	-0.034231875
32	0xbc986fc5	-0.018607983
33	0x3d6c2152	0.057648964
34	0x3d98d538	0.07462543
35	0x3d66b0be	0.0563209
36	0x3ccd805a	0.025085617
37	0x3b97dab6	0.0046342267
38	0x39739be6	0.00023232363
39	0xbc9a9dd2	-0.018874083
40	0xbd3f50df	-0.046707984
41	0x3d4ba886	0.049721263
42	0x3d16b180	0.03679037
43	0x3c12830c	0.008942377
44	0xbcd28f68	-0.025703147
45	0xbbd90c94	-0.006623814
46	0xbd8d03a2	-0.068854585
47	0xbc99402d	-0.01870736
48	0xbda6b14b	-0.08139285
49	0xbd7aa6cf	-0.061194237
50	0x3d2b89b2	0.041879363
51	0x3d6b0b1f	0.057383653
52	0x3d065467	0.032795336
53	0xbd881825	-0.0664523
54	0xbd191534	-0.037373737
55	0x3c28723b	0.010281141
56	0x3d779f37	0.060454573
57	0x3d34ae16	0.044111334
58	0xbd4f13d9	-0.050556038
59	0xbd0a0acc	-0.033701703
60	0xbc0813cf	-0.008305504
61	0x3d2d8da6	0.042371415
62	0xbcdc9870	-0.026928157
63	0xbcd6299a	-0.026142884

convs.1.lin_r.weight f4 [64, 128]
0	0x3cb041d2	0.02151576
1	0xbd33ca82	-0.0438943
2	0x3dcbc4bf	0.09949636
3	0xbc9efb9d	-0.019407088
4	0x3c545a46	0.012960976
5	0xbd21f58e	-0.03954082
6	0xbd9d2864	-0.076737195
7	0xbd098eb1	-0.033583347
8	0x3db76b19	0.08955974
9	0xbdb39c91	-0.08770097
10	0xbca0bb03	-0.019620424
11	0x3cf7f17d	0.030266518
12	0xbb7527e4	-0.003740781
13	0x3d709fe8	0.05874625
14	0x3d5f2220	0.054475904
15	0x3d4eea37	0.050516333
16	0x3cec59dd	0.028851444
17	0x3bf13342	0.0073608467
18	0x3d8a1a2d	0.06743274
19	0xbd874342	-0.06604625
20	0xbcf7b824	-0.030239172
21	0x3c8ec803	0.017429357
22	0x3d8fffa8	0.070311844
23	0x3d5fbe9e	0.054625146
24	0x3c521d1b	0.012824322
25	0x3cb49025	0.02204139
26	0x3c26985f	0.010168164
27	0x3ccbafba	0.024864066
28	0x3cf00f01	0.02930403
29	0xbdc39f4b	-0.09551867
30	0x3d8890e6	0.06668262
31	0xbcd9355a	-0.026514698
32	0x3d20c33f	0.0392487
33	0x3c92f630	0.017939657
34	0x3cec2d92	0.028830323
35	0x3cac023d	0.020997161
36	0x3d3e2709	0.046423946
37	0xbc6145c5	-0.0137495445
38	0xbb68d281	-0.003552586
39	0x3c5bc5dd	0.0134138735
40	0xbda93736	-0.08262484
41	0xbd8de625	-0.06928662
42	0xbc2cabfa	-0.010539049
43	0xbcdcdf50	-0.026961952
44	0x3dc3fa46	0.0956922
45	0x3ba365fa	0.004986522
46	0x3d712507	0.058873203
47	0xbc1b07ea	-0.009462336
48	0x3be2ad20	0.0069176108
49	0xbca4b8ad	-0.020107592
50	0x3beddae8	0.0072587617
51	0x3d99f7fe	0.07518004
52	0x3b9b2e1f	0.0047357227
53	0x3d7ff3b9	0.06248829
54	0x3ca030f8	0.0195546
55	0xbca80e87	-0.02051474
56	0x3d439406	0.047748588
57	0xbc4096cc	-0.011754703
58	0xbd9282f1	-0.07153881
59	0xbd8c5bbf	-0.06853437
60	0x3bb41835	0.0054960498
61	0x3d6ca2c9	0.05777243
62	0x3d7e8e59	0.062147472
63	0x3d15eb5d	0.036601413
64	0x3db451f7	0.08804696
65	0xbb08cbd9	-0.0020873456
66	0xbd736c1a	-0.059429266
67	0x3bad482d	0.005288145
68	0x3c7e7079	0.015529745
69	0x3d24b95d	0.04021584
70	0xbcce6db0	-0.025198787
71	0xbcd740f7	-0.026276095
72	0x3d61ad5f	0.05509698
73	0xbd66ffc8	-0.056396276
74	0x3c9fa00c	0.019485496
75	0x3c091f71	0.008369313
76	0x3c057828	0.008146323
77	0x3d43aac9	0.047770295
78	0x3c754624	0.014970336
79	0x3bf1c418	0.0073781125
80	0x3daad153	0.08340707
81	0xbd1bb230	-0.03801173
82	0xbd6e96cc	-0.05824928
83	0x3c7ed889	0.015554556
84	0xbd69fc60	-0.05712545
85	0x3cd784d3	0.026308453
86	0x3d2cd384	0.042193905
87	0x3d847a95	0.06468693
88	0xbd950fb1	-0.072783835
89	0x3b48457b	0.0030558992
90	0xbc24739d	-0.01003733
91	0x3d445c51	0.047939602
92	0xbb9b6379	-0.0047420827
93	0x3c51dcd3	0.012808996
94	0xbca9b37b	-0.020715466
95	0x3d4f0732	0.05054397
96	0x3ce6a8f3	0.028156733
97	0x3c7ed367	0.015553332
98	0x3c9a27ff	0.0188179
99	0x3d35c01f	0.044372674
100	0x3d385004	0.044998184
101	0x3d521bf2	0.051296182
102	0xb97b3aa0	-0.00023959065
103	0x3b005ac8	0.001958536
104	0x3d51c031	0.05120868
105	0xbc590c40	-0.0132475495
106	0xbd9407c8	-0.07228047
107	0x3cbdc815	0.023166696
108	0x3d066249	0.032808576
109	0x3d144673	0.036199998
110	0xbbd333e0	-0.006445393
111	0x3e07eeed	0.13274737
112	0x3d13ea53	0.03611214
113	0x3b823afe	0.0039743176
114	0x3cd4480e	0.025913265
115	0xbc618888	-0.013765462
116	0xbd1ad21b	-0.03779803
117	0x3cf14c51	0.029455336
118	0x3d3d0139	0.046143744
119	0x3d3383e9	0.04382697
120	0x3d8bad92	0.06820215
121	0x3d5db089	0.054123435
122	0xbd876e3b	-0.06612822
123	0x3cb41a72	0.021985266
124	0xbd78c2c7	-0.06073263
125	0x3d61b0b7	0.05510017
126	0x3d09126b	0.03346483
127	0xbce5cf9d	-0.0280531
128	0xbcacd64f	-0.021098284
129	0xbc529280	-0.012852311
130	0x3cb3f3e1	0.021966876
131	0xbd54f661	-0.051992778
132	0x3ca50f51	0.020148905
133	0xbb2d50e7	-0.0026445927
134	0x3cda72de	0.026666101
135	0x3c8031b9	0.01564871
136	0xbc10a97c	-0.008829471
137	0x3c11b9a4	0.008894358
138	0x3c33f64c	0.010984015
139	0x3cfe5206	0.031044971
140	0xbcc4304e	-0.023948815
141	0x3c80a283	0.015702492
142	0xbd06b229	-0.03288475
143	0x3c934eb1	0.017981859
144	0x3d573b29	0.052546654
145	0x3c3dfb3d	0.011595544
146	0xbc869924	-0.016430445
147	0xbd883955	-0.0665156
148	0xbcd796a9	-0.026316958
149	0xbc7e4fe1	-0.015521974
150	0x3c899bae	0.016797867
151	0x3c1f1036	0.009708455
152	0xbc555b1c	-0.01302221
153	0xbb02028d	-0.0019837946
154	0xbc2c2931	-0.010507868
155	0xbd18d738	-0.037314624
156	0xbbf701cf	-0.0075380574
157	0xbc612f6b	-0.0137442155
158	0xbdc9a1ab	-0.09845289
159	0xbc1d5d3d	-0.009604749
160	0x3bf972a6	0.007612544
161	0xbcb266e1	-0.021777572
162	0x3c68652b	0.014184277
163	0x38ec546a	0.0001126908
164	0xbc9e2597	-0.019305034
165	0xbc126d26	-0.008937156
166	0x3c5cffcd	0.013488722
167	0x3d14ca2e	0.036325626
168	0xbc363400	-0.011120796
169	0xbca64c04	-0.020299919
170	0x3d2bac95	0.041912634
171	0x3cb233bd	0.021753186
172	0x3d052bff	0.03251266
173	0xbcc6c8d5	-0.024265686
174	0xbd01f023	-0.031723153
175	0x3bfc2cb6	0.0076957596
176	0xbb5b47e1	-0.0033459591
177	0x3b471c28	0.0030381773
178	0xbca6363c	-0.020289533
179	0xbd821b4c	-0.06352863
180	0xbcd35246	-0.025796067
181	0xbae4dbc0	-0.001746051
182	0xbccdbca0	-0.025114357
183	0x3b787394	0.0037910687
184	0x3cf0a1d1	0.029374035
185	0xbbe6de47	-0.0070455405
186	0x3bc29f51	0.005939402
187	0xbb48dd0d	-0.0030649335
188	0x3b573c77	0.0032842436
189	0x3ca5645b	0.020189455
190	0xbd1e9168	-0.03871289
191	0xbcdffb01	-0.027341368
192	0xbba86688	-0.005139176
193	0xbd225971	-0.03963608
194	0x3b85f044	0.00408748
195	0xbd305dd6	-0.04305824
196	0xbb8a01ce	-0.004211641
197	0xbc419c64	-0.011817072
198	0xbd817e27	-0.0632289
199	0xbccfe1b9	-0.025376188
200	0xbc8e3718	-0.017360255
201	0x3bb8af01	0.0056360965
202	0xbbfbbc3f	-0.007682353
203	0x3cb3982d	0.021923149
204	0xbcc61467	-0.02417965
205	0xbbe948a1	-0.0071192537
206	0xbd3464d7	-0.04404148
207	0xbb837e61	-0.0040128683
208	0x3d43dc36	0.04781743
209	0x39ccb710	0.00039046304
210	0xbd2fb37e	-0.042895786
211	0xbd26bfe7	-0.040710356
212	0x3c51fc96	0.012816569
213	0xbd37a179	-0.044831727
214	0x3d4b6ad4	0.049662426
215	0xbab95ec6	-0.0014142625
216	0xbc861241	-0.016366126
217	0x3c8bc1eb	0.01706024
218	0x3bfcfb21	0.0077203666
219	0x3b73d8a5	0.0037207988
220	0x3d3585a8	0.044316918
221	0xbd2c0bab	-0.042003315
222	0x3d3a17b6	0.04543277
223	0xbcb57d4b	-0.02215447
224	0xbd09d881	-0.03365374
225	0xbabf292e	-0.0014584416
226	0xbced6501	-0.028978826
227	0xbd206cfb	-0.039166432
228	0xbd12d428	-0.03584686
229	0xbcd8a75e	-0.026446994
230	0x3be78578	0.0070654713
231	0xbc09179f	-0.008367448
232	0xbc0973d6	-0.008389434
233	0x3cabe833	0.020984745
234	0x3cb63803	0.022243505
235	0x3ca47305	0.020074377
236	0xbb123e38	-0.0022314917
237	0xbd6e6e04	-0.058210388
238	0xbcba2954	-0.022724785
239	0xbd0dc2c4	-0.03460957
240	0xbbff335e	-0.007788106
241	0x3b5fa78a	0.003412696
242	0xbcc02951	-0.023457201
243	0x3d3aacd5	0.04557498
244	0x3c8aaaeb	0.016927203
245	0xbc8a0f84	-0.016853102
246	0xbd1a53a3	-0.03767742
247	0x3bf18fd1	0.0073718806
248	0xbd21f212	-0.039537497
249	0xbd243d81	-0.040097717
250	0xbb9a5fc9	-0.0047111255
251	0x3b55c436	0.0032618172
252	0x3c806556	0.01567332
253	0xbc82e377	-0.015977604
254	0x3ae48988	0.0017436007
255	0x3c655df8	0.013999455
