notebooks/runs_graphsage/run3_20251028T142312Z/graphsage_encoder_run3.pt (torch, 59752 bytes, 3 tensors)

convs.0.lin_l.weight f4 [32, 223]
000000 d8 7a 95 bc 1b a2 06 3d 16 68 38 bd f7 a0 43 be
       -0.018247053 0.03286944 -0.04502114 -0.19104372
000010 10 c0 8c 3e 79 7d 70 be d4 e1 9f 3e cd 74 b1 3e
       0.27490282 -0.23485364 0.3122698 0.34659424
000020 b6 18 13 bd 20 6f a9 3e bd cc 1a 3f 08 c6 c6 bd
       -0.035912238 0.33092594 0.60468656 -0.0970574
000030 10 b4 12 bd 82 94 52 be dd ae 5d be b3 97 88 bb
       -0.035816252 -0.20564464 -0.21648736 -0.0041684746
000040 e4 e8 5c be be 79 30 3d 96 a6 ed bd f1 b3 c5 bd
       -0.21573216 0.043084852 -0.11604039 -0.09653462
000050 9f f8 4c 3c fa 69 04 3d 6f c9 ef be b9 2b 1e 3f
       0.012510448 0.03232763 -0.4683337 0.61785465
000060 f7 c9 90 be 95 6d f3 3d b7 03 75 3e 16 b7 11 3e
       -0.28279087 0.118861355 0.23927198 0.14229998
000070 32 61 75 3d aa bd 14 bf 3a e8 db 3d bc 4c df 3d
       0.059907146 -0.58101904 0.10737653 0.10903308
000080 9c b8 2c 3e 6d f9 a6 be e4 04 70 3d 18 59 a5 bd
       0.16867298 -0.32612172 0.058598414 -0.08073634
000090 81 c5 3c 3e 3c f3 c8 3e 81 00 1a 3e 5f 02 de 3d
       0.18434717 0.39248073 0.15039255 0.10840296
0000a0 c9 00 99 be 7d 1d 67 bf a8 b5 05 bf e9 5e 66 3f
       -0.29883412 -0.9027937 -0.5223031 0.8998857
0000b0 41 fd 85 3e 64 b3 70 3e 61 8b 1f 3c c4 aa bf 3c
       0.2616978 0.23505932 0.00973782 0.023396857
0000c0 eb 76 61 bd 45 76 a7 be f1 16 5c be 90 3d a8 3d
       -0.05504505 -0.3270742 -0.21493126 0.08214867
0000d0 d4 d2 30 3f 3a d8 9c 3d b9 be 19 bd bf 9e de 3e
       0.690717 0.076584294 -0.037535403 0.4348049
0000e0 d6 74 f0 be 78 6b f6 bd 56 0d 1e 3b 0b 92 9c be
       -0.4696414 -0.12032217 0.0024116836 -0.30580172
0000f0 0a 87 52 bf 19 7b b2 bd f7 23 71 3f 07 4a 2b 3f
       -0.82237303 -0.08714885 0.94195503 0.6690983
000100 fa 68 ea 3e 2e 66 20 bf 8d d8 20 be a5 3c 72 be
       0.45783216 -0.62655914 -0.15707608 -0.23655947
000110 dc 1c e7 bd a7 b5 6d 3e 75 c6 25 3b 33 e7 e7 be
       -0.11284801 0.23213826 0.0025295292 -0.45293579
000120 ca ef f8 3c 75 34 5e be 6f df a3 3e ec dd 9e be
       0.030387778 -0.21699698 0.32006404 -0.31028688
000130 a6 d4 d7 3e 34 5b 3a 3e db 57 d6 3e 0d 82 1f 3e
       0.42154425 0.18198854 0.41863903 0.15576954
000140 7f 48 78 3f 9e 17 e7 3e bc 37 04 3f e3 07 7d 3d
       0.9698562 0.45135206 0.51647544 0.0617751
000150 10 c5 75 3e 21 49 08 3d 90 cd 92 bf 2d f6 1d bd
       0.24000955 0.033272866 -1.1468983 -0.03856485
000160 c0 7f 08 3e 10 d2 2a be 7b 4b a9 bf de 3c 3d be
       0.13329983 -0.16681695 -1.322616 -0.1848025
000170 2c 90 1f bf 99 6f 32 3f 24 d6 75 3d 30 99 2a 3f
       -0.62329364 0.69701535 0.060018674 0.66639996
000180 3d 92 f8 bc 48 8b 86 3e 04 ec e1 3e 01 8a 14 be
       -0.03034317 0.26278138 0.44125378 -0.1450577
000190 71 df df be f6 69 ce 3d 89 ee 5d 3d cd 2a 8b be
       -0.4372516 0.10078804 0.054182563 -0.27181092
0001a0 1a d7 3f 3e 91 db 6d bd fa 1f e7 bd 91 a4 09 3f
       0.18734398 -0.058070723 -0.11285396 0.53766733
0001b0 ed c5 a1 bd 34 79 a1 bd 81 1c 1b 3f 9b 24 3f be
       -0.078990795 -0.07884446 0.6059037 -0.18666308
0001c0 c1 eb eb 3e fc 79 95 bd 2e 93 c1 bd 70 6e 78 3d
       0.46078303 -0.07298657 -0.094519004 0.060652196
0001d0 db 67 0d be 36 c7 b2 3d 00 1f 24 bc 56 8f 11 be
       -0.13809149 0.08729403 -0.010017157 -0.14214835
0001e0 e1 e9 b5 bd e5 3e 2b bd 68 08 67 be 0a 35 52 3e
       -0.088824995 -0.041808028 -0.225618 0.20528045
0001f0 c3 c1 d8 bd 25 b6 7a bd 56 58 e1 3c d2 4d 51 3e
       -0.10583832 -0.061208863 0.027507942 0.20439842
000200 c5 40 22 be a2 31 b4 3c 70 cb 32 be 6a 16 81 3d
       -0.1584502 0.021996323 -0.17460418 0.06303103
000210 f1 5c 6b bc 55 8b 1a be 1c d2 33 be 85 ba df 3e
       -0.014365421 -0.15092213 -0.17560619 0.4369699
000220 f9 6d 94 be 19 5f e1 3e 85 52 69 3d f9 c4 cb 3e
       -0.28990152 0.44017866 0.056963462 0.39798716
000230 bd e6 51 3d 4b 45 09 bd 5c b6 08 3e 31 b5 39 3e
       0.05124544 -0.03351335 0.13350815 0.18135525
000240 62 ef 52 3e 4b a2 fe bc c6 03 2a 3e 1e 9e c9 be
       0.2059913 -0.031083247 0.16603002 -0.39378446
000250 3e 18 3d 3d c4 71 b2 be 1f e6 0a be b1 3e db be
       0.046165697 -0.3485242 -0.13564347 -0.42821267
000260 13 12 0e bd 00 11 ce 3c c1 ba f5 3c ea f9 98 bd
       -0.034685206 0.02515459 0.029996278 -0.07469542
000270 11 c5 c7 3d 77 45 94 be 90 ef 13 3e 77 ab 0a be
       0.09754384 -0.28959247 0.14446855 -0.13541971
000280 91 1c f7 be 25 9d c9 bd 29 8e 51 bd ae d9 30 3e
       -0.48263982 -0.09844426 -0.051160965 0.17270538
000290 79 59 b1 3e fb da 80 be 3d 63 54 be f6 a6 b6 3e
       0.34638575 -0.2516707 -0.20740981 0.35674256
0002a0 00 8b 03 3f df 5e 92 3d 87 c9 34 bc 6a 4c 1c 3d
       0.5138397 0.071470015 -0.011034376 0.03815881
0002b0 8d 87 96 3e 69 ce 09 3e 52 f0 d9 be 7e 03 73 3e
       0.29400292 0.13457645 -0.42566162 0.23731801
0002c0 25 d4 3e 3e 1c 04 86 3d 46 82 23 3e 50 a8 1d 3f
       0.18635614 0.065437526 0.15967664 0.6158495
0002d0 b8 a2 25 3e c7 8d 98 3e 94 df f7 be 99 e5 ea 3d
       0.16175354 0.29795668 -0.48412764 0.114695735
0002e0 b2 be 8b 3e a3 27 7e 3e 93 cf 2c 3e 6e ad 1b bd
       0.27293926 0.24819808 0.16876058 -0.038007192
0002f0 e8 3b b8 3c 96 1a 9b be b6 39 c6 be d9 92 e6 3c
       0.022489503 -0.3029372 -0.38715905 0.028146194
000300 7a 5c 14 be a8 0f 22 3b 9b 9d d4 3c 8c 02 fd 3e
       -0.14488402 0.002472857 0.025954058 0.49416006
000310 bc ed 03 be 43 ec 8b bd db 2f 69 be b6 21 8d be
       -0.12883657 -0.06832173 -0.22772162 -0.27564782
000320 56 60 d9 be ce 10 71 be 6e 6b 8a bd 9e 28 09 bf
       -0.4245631 -0.23541567 -0.06758772 -0.535776
000330 21 ce 1a bf d5 6d 00 be 51 1c 02 3e 12 5e e4 3e
       -0.6047078 -0.12541898 0.12706114 0.4460302
000340 77 8a a2 be f2 08 6f 3e 2e 9f a6 3d d3 8f 64 3f
       -0.31746265 0.23343256 0.0813583 0.8928196
000350 dc 4d d0 3e 22 c4 e7 3d 63 7d f3 3e 33 a7 8b be
       0.40684402 0.11316706 0.475566 -0.27276
000360 e0 47 3d 3e d6 54 07 3e b6 85 84 3e 85 ea 91 3d
       0.1848445 0.13215956 0.25883263 0.07124809
000370 0f 72 b9 3d 85 7f 87 3e 79 84 e0 bd bb 8a c9 bd
       0.09054958 0.26464477 -0.10962767 -0.09840914
000380 a8 72 cb 3c d9 8e 16 bd ce df 68 be 3c e9 81 3e
       0.024834946 -0.036757324 -0.22741625 0.25373256
000390 1e a1 d8 be 72 a3 db 3e c8 a6 c7 3e 8d 7d d5 3d
       -0.42310423 0.42898136 0.38994431 0.104243375
0003a0 12 6c d7 3e 50 b9 14 3f df 9c 03 bd ed df ed 3d
       0.4207464 0.58095264 -0.032132026 0.11614976
0003b0 8b cc 9d bd f9 54 b3 be f3 8e 98 bd 2b da f0 be
       -0.07705029 -0.35025766 -0.074491404 -0.4704145
0003c0 48 6a 5c bd 7c 17 c3 bd 58 24 49 be 48 ca 82 3d
       -0.053812295 -0.09525964 -0.1964277 0.06386238
0003d0 58 be b3 3d 8f 37 b3 be 02 e8 32 3f 78 df 05 bf
       0.087765396 -0.35003325 0.69885266 -0.5229411
0003e0 18 4b 9e 3d ea bd 6d 3e 10 88 3c 3e fa 41 80 bd
       0.07729167 0.23216978 0.18411279 -0.06262584
0003f0 b9 a1 11 bf 2e 77 aa 3d 37 99 29 3e 98 c9 36 3e
       -0.56887394 0.08323513 0.16562353 0.1785034

convs.0.lin_l.bias f4 [32]
000000 b2 8f 03 bc 38 ae 25 bd bb 25 9d bc a5 d2 dd bc
       -0.008029865 -0.04044935 -0.01918303 -0.027077982
000010 74 c1 10 bc 32 86 d2 3b 93 4f 42 3c 63 bd 9b 3c
       -0.008835185 0.0064246887 0.011859792 0.019011205
000020 77 0d 38 bb 5b 1d 25 bd d8 e6 32 3d 95 92 b8 b8
       -0.0028084198 -0.0403112 0.04367718 -8.801107e-05
000030 dd 67 28 3d b0 66 78 bc 0c 8b 19 bd 50 a9 21 bb
       0.041114677 -0.015161201 -0.03748612 -0.0024667569
000040 54 b6 f5 3a b7 45 99 3c 47 ba 52 bc 49 85 cc 3c
       0.0018746355 0.01871 -0.012861795 0.024965899
000050 a7 1c 82 3c 76 a4 49 bd 68 41 2a 3b b9 1b 09 3d
       0.015882803 -0.049229108 0.0025978927 0.033473704
000060 8b 27 9d bc a9 29 bc 3c e8 68 0b bd 80 a6 04 bd
       -0.019183895 0.022969084 -0.034035593 -0.03238535
000070 f1 27 9b 3c 0d 8b 8c bc 87 75 79 3b b9 69 89 3c
       0.018939944 -0.017156148 0.0038064437 0.016774045

convs.0.lin_r.weight f4 [32, 223]
000000 8a 8b d0 b9 22 b7 91 bd f8 01 ae bd 34 04 12 bd
       -0.00039776816 -0.07115008 -0.08496469 -0.03564854
000010 b6 c6 af bc fd db ab bc b5 42 30 bc 15 f3 82 bc
       -0.021457057 -0.020978922 -0.010758092 -0.015985051
000020 a8 de 87 ba 1a 22 9b bc e8 30 e2 bb 25 8a 0a bd
       -0.0010366039 -0.01893716 -0.0069028027 -0.03382315
000030 75 c9 eb bc 17 3a 23 bd d9 9d fe bc be b0 d8 bc
       -0.028782586 -0.03985032 -0.031081127 -0.026451465
000040 ae 19 fd bc 25 51 fa bc 9a 40 03 bd bc ca 32 bd
       -0.030896034 -0.03055627 -0.03204403 -0.043650374
000050 56 6a bb bc b0 b5 f6 bc 4e 4d 28 bd 48 23 23 bc
       -0.022877853 -0.030115932 -0.04108935 -0.009957142
000060 df 31 47 bc 86 8b 1b 3c 76 a4 a1 bb 8e b2 46 bc
       -0.012157886 0.009493714 -0.0049329353 -0.012127532
000070 92 c8 b1 bb 03 52 2d 3c 77 b0 ae 3b 1b 32 d0 bb
       -0.005425521 0.010578635 0.005331095 -0.0063536293
000080 e7 e4 36 bc d2 a5 8f bb 3a 5a 06 bc 76 65 87 bc
       -0.011162973 -0.004383781 -0.008200223 -0.016527873
000090 e6 52 0d bc 0c 88 01 bb 1d f3 ab bb ec 4e eb bc
       -0.008625722 -0.0019764928 -0.005247487 -0.028724156
0000a0 20 69 56 bb 0e 48 ed bc 24 32 ab bc b8 e0 f7 3a
       -0.0032716468 -0.028965022 -0.020897932 0.0018911576
0000b0 1d fa 8f bb a1 9b 82 bb 63 08 81 bc 95 5f 9d bc
       -0.0043938295 -0.0039858376 -0.01575107 -0.019210616
0000c0 11 12 11 bd 92 94 8c bd 1f 65 6e bd 53 17 9d bc
       -0.03541762 -0.06864275 -0.058201905 -0.01917616
0000d0 b7 ae 86 bb 1b 47 d7 bc 05 73 54 bc 22 04 9c 3b
       -0.004110183 -0.026279023 -0.012966876 0.004761235
0000e0 46 f7 ac bc d1 8b cd bc 9e 49 9e bc e6 d9 e9 bc
       -0.021114003 -0.025091084 -0.019322213 -0.028546285
0000f0 73 11 05 bd 08 74 b9 ba 76 79 4b 3c 01 a3 bc bc
       -0.032487344 -0.001414896 0.012419095 -0.023026945
000100 5c 0e d1 bc 9e 4a de 3a cb b1 10 bc ec 81 0a bd
       -0.025519542 0.0016959494 -0.008831452 -0.03381531
000110 0a 46 83 bc d5 56 39 bc a0 ba 6f bc 70 d4 e7 bc
       -0.016024608 -0.011312206 -0.014631897 -0.02829954
000120 81 6c e5 bb 9c 56 f7 bc 5b a7 bc bb 16 72 a1 3b
       -0.00700146 -0.030192666 -0.005757255 0.00492693
000130 7a 67 31 bb dc 1b 77 bc 4e 13 99 3b e0 60 5d bc
       -0.0027069733 -0.015082326 0.0046714908 -0.013511866
000140 de f8 65 bb 2f f5 e0 bc 29 a4 cd 3a 24 5d 92 bc
       -0.0035090963 -0.027460663 0.0015689182 -0.017866679
000150 a3 16 93 bc 6a 62 c9 bc fd 23 56 bd 20 a0 36 bc
       -0.01795513 -0.02458306 -0.052280415 -0.011146575
000160 c7 65 0a 3c ad 47 0a bd 42 98 4b bd b5 c0 bf bc
       0.008447117 -0.03375976 -0.04970575 -0.02340732
000170 b1 f7 44 bd 1c aa 2e 3d c2 fa a3 bc 64 a4 2d bc
       -0.04808778 0.042642698 -0.020017032 -0.010598276
000180 36 46 34 bd 36 f6 9b bc e7 ae fd 3b 9f 51 f4 bc
       -0.04401227 -0.019038301 0.0077417972 -0.029824076
000190 cf 59 29 bc 72 de 30 bc b2 4a 93 ba 5b cf ea bc
       -0.010336353 -0.010795223 -0.0011237471 -0.028663328
0001a0 37 d1 c6 bc 54 03 b3 bc d9 b3 3f bc 3c 98 18 bd
       -0.024269683 -0.021852173 -0.011700594 -0.037254557
0001b0 a4 a6 b5 3b 70 de a1 bc 48 1b f9 bc 93 fd fd 3b
       0.0055435468 -0.019759387 -0.030408517 0.0077511757
0001c0 ed 0c 3b bc 62 ec 01 bd 95 9c 90 bc 6a ba e8 bc
       -0.011416656 -0.031719573 -0.01765279 -0.028409202
0001d0 bf e1 99 bc a6 6f b5 bb 1b cb c8 bc 5d fd f8 bc
       -0.018784402 -0.005536991 -0.02451091 -0.03039425
0001e0 11 c9 65 bc bc bf a9 bc 12 2f a0 bc 97 12 ec bc
       -0.014024989 -0.020721309 -0.019553695 -0.028817458
0001f0 f0 ea 74 be 50 60 d3 bd a4 7a 4d 3d 05 b6 12 bb
       -0.23917747 -0.103211045 0.050165787 -0.0022386324
000200 54 36 63 be b9 bd 8d 3d ef 16 0d 3c 7a e4 cb be
       -0.22188693 0.06920952 0.008611425 -0.3982275
000210 5c 28 8e 3c 00 02 74 bd d3 10 35 bf b3 96 85 3d
       0.01735323 -0.05957222 -0.70728797 0.06522884
000220 72 b3 59 3b 3c a2 e9 3b 11 f0 1b 3d e4 59 3c 3d
       0.003321853 0.0071299355 0.038070742 0.045984164
000230 ff 70 12 ba 54 38 43 3c bd 1c 2e 3d 75 3b 7b bc
       -0.0005586296 0.011915285 0.042507876 -0.015334
000240 3e d4 bd 3c ec 56 87 bc 02 e3 42 bb 76 30 ab bc
       0.023172494 -0.01652094 -0.0029737358 -0.020897131
000250 fa e5 39 bc 81 94 bd bc a9 91 31 bc 95 39 15 3c
       -0.011346335 -0.023142101 -0.010837951 0.009107967
000260 1b dc 23 3d 68 29 7c 3c db 8c bf 3c 83 f9 30 bc
       0.04000483 0.015390731 0.023382595 -0.010801676
000270 8f 9e 0f bc df 34 7b bc ca cb 5d bc 84 f3 ab 3a
       -0.008765831 -0.01533243 -0.013537357 0.0013118838
000280 97 3f 9c bc 5b d6 5e bc 75 b5 a5 bb ad aa 85 bc
       -0.01907329 -0.013600911 -0.0050570318 -0.016316736
000290 6e b4 80 3c 57 3b eb bb 38 94 9b bc ee 0b 1c 3c
       0.015711036 -0.0071787047 -0.018991575 0.009524329
0002a0 21 20 ab bc ab 99 d4 bc a2 6b c9 3a 90 e7 af ba
       -0.020889344 -0.02595218 0.001536716 -0.0013420451
0002b0 99 17 8c 3c e7 fe 9d 3a 00 16 fb 3b 50 29 41 ba
       0.017101096 0.0012054116 0.0076625347 -0.0007368522
0002c0 68 9b 1b bc 17 5f 01 bc 82 81 a2 bb a6 70 49 3c
       -0.009497501 -0.007896206 -0.004959286 0.012294924
0002d0 ca 4a 57 bb d3 dc c3 bc 17 19 8f ba c4 3f dd bb
       -0.0032850974 -0.023909008 -0.0010917512 -0.006751986
0002e0 49 fb cd 3b f7 aa bd bb 15 d6 33 bb 23 9e 09 3c
       0.006286059 -0.005788203 -0.0027440835 0.008399519
0002f0 dc bb 5e bb 19 d1 0f bc 67 eb 9b bb ba be 29 bc
       -0.0033986485 -0.00877788 -0.0047582868 -0.010360414
000300 fc af b4 bc fe 7d 21 bb 26 fe 84 bc 35 96 86 bc
       -0.022056572 -0.0024641748 -0.016234469 -0.016429046
000310 ee 37 80 bc 4b 97 80 bc 97 03 8e bc c3 b1 dd bc
       -0.01565167 -0.015697142 -0.017335696 -0.027062302
000320 c1 3d ac bc ce fb d5 bc 66 0e ba bc c5 f2 27 bf
       -0.02102554 -0.026121046 -0.022711944 -0.6560481
000330 b8 50 61 bf 81 28 b3 3b 13 2b 94 ba 4a 03 ae 3b
       -0.8801379 0.005467475 -0.0011304341 0.0053104507
000340 44 fd 15 bc 5e ae 84 3c 8e 61 6a 3c f2 da 86 3d
       -0.0091546215 0.016196426 0.014305485 0.06584729
000350 fa 7f 7d 3c df 9b 74 3c 6a 11 e6 3c 73 89 65 bc
       0.0154724065 0.014929741 0.028084476 -0.014009821
000360 8e ba e7 3c 52 01 47 3c d0 65 2e bb 73 26 5e 3a
       0.028287198 0.012146311 -0.0026610978 0.00084743573
000370 29 6a 1a 3c 9f 1a 2e 3c f0 3b 31 3c d3 88 fd bb
       0.009424725 0.010626464 0.010817513 -0.007737258
000380 fa 3b cd bd d8 ed f0 bd 1e e4 5c bd 94 d6 1a bd
       -0.10021205 -0.11764115 -0.053928487 -0.037802294
000390 7b 0a 11 bd e8 f6 d1 bc 25 e7 d1 bc 21 fb c1 bc
       -0.035410386 -0.02563043 -0.025622914 -0.023679318
0003a0 3c 42 12 bd ce da 02 bd 2b b6 42 bd 13 fc 1e bd
       -0.035707697 -0.03194695 -0.04753701 -0.038814615
0003b0 8a d9 67 bd 18 b9 48 bd 25 55 31 bd f7 c7 66 bd
       -0.056603946 -0.049004644 -0.04329409 -0.056343045
0003c0 b3 22 48 bd 4a b2 2e bd f2 47 36 bd 06 93 e6 bc
       -0.048861217 -0.0426505 -0.044502206 -0.028146278
0003d0 0b ed 24 bd 38 00 71 bd 4d f6 b0 bb fb 20 22 bc
       -0.040265124 -0.0588381 -0.005400455 -0.0098955585
0003e0 43 5a 7d bc ab 2f e1 bb 46 95 b4 bc 3a bb 5a bc
       -0.015463415 -0.0068721375 -0.022043835 -0.013350302
0003f0 d8 9a f9 ba d9 8c c1 ba 5e 89 c4 bc f5 cf c5 bc
       -0.0019043339 -0.0014766707 -0.023991283 -0.024147013
