notebooks/runs_graphsage/run2_20251027T233000Z/graphsage_encoder_run2.pt (torch, 59752 bytes, 3 tensors)

convs.0.lin_l.weight f4 [32, 223]
000000 68 f8 45 bc 3d 6d 12 3d c7 38 86 bd 83 6d a3 bd
       -0.01208315 0.03574871 -0.06553798 -0.07979872
000010 d7 18 42 3e 45 cb 1a be d6 b0 31 3e cf cf 8a 3e
       0.18954788 -0.15116604 0.17352614 0.2711167
000020 94 e5 7b bd ed 29 8d 3e ae 18 99 3e ab db b6 bd
       -0.06149824 0.2757105 0.29901642 -0.08928617
000030 b0 12 70 bd 36 1e 1f be fe 67 cc bd 16 b0 db 3d
       -0.05861157 -0.15538868 -0.099807724 0.10726945
000040 2c 4f c1 bc 41 c7 85 3d 4e 3f 75 bd 1e fd 26 be
       -0.023597322 0.06532145 -0.059874825 -0.16307494
000050 05 7f b0 bd 9d 62 56 bb 4e 79 56 be 6a c5 18 3e
       -0.08617977 -0.0032712587 -0.20944712 0.14919057
000060 55 3f b1 be 50 f7 0e 3e 2d 1f 14 3e d0 b3 c7 3d
       -0.3461863 0.1396153 0.14465018 0.097510934
000070 99 ea 70 3d f7 bf 7a be 75 e5 88 3d 81 82 9e be
       0.05881748 -0.24487291 0.066843905 -0.30958942
000080 22 a7 4d 3e 81 91 67 bf 75 94 c1 3d 15 18 d8 3d
       0.20083287 -0.90456396 0.09452144 0.10551468
000090 59 b0 84 3e 68 f3 5d 3e 17 8b 7e 3d 02 35 f8 3c
       0.25915793 0.21674883 0.062144365 0.030298714
0000a0 ce 1f 1e bf 15 ae 0d bf c9 71 0d bf 67 3d 04 3f
       -0.6176728 -0.55343753 -0.5525175 0.5165619
0000b0 d0 8e 93 3e b1 a7 48 3e 8b 48 d8 bd c6 a5 c0 3d
       0.28819895 0.19595219 -0.105607115 0.09406619
0000c0 0c 84 88 3c 70 16 64 be 5c be 3c be 79 6f ad bc
       0.016664527 -0.22274184 -0.18431991 -0.021171318
0000d0 b6 d8 04 3f 52 5a 44 3e 10 4c 12 3e f2 3c b2 3e
       0.51893175 0.1917508 0.14286828 0.34812123
0000e0 b1 0d ca be e9 d6 13 be 70 5e 28 bc b1 9c a1 be
       -0.3946357 -0.1443745 -0.010276422 -0.3156486
0000f0 12 bd fd be 6a a7 41 bd 2f 46 37 3d 05 0b 32 bd
       -0.49558312 -0.0472788 0.044744667 -0.04346754
000100 ac 45 ea 3e a1 a1 94 be 20 9e 07 be d5 48 c0 3d
       0.4575628 -0.29029563 -0.13243914 0.093888916
000110 89 4c d6 bd b3 41 8f 3e 3e b8 f5 3c 54 f5 14 be
       -0.10463817 0.27979812 0.02999508 -0.1454671
000120 2f ec 7b 3d 92 5c 7f bd 2c b9 53 bc eb b0 8d be
       0.06150454 -0.06234414 -0.012922566 -0.2767404
000130 23 28 81 3d 2b c8 52 3e f7 bf e2 3e 8f a5 bf 3d
       0.063064836 0.2058417 0.44287083 0.0935775
000140 a2 d3 08 3f b4 59 87 3e 45 2e 07 3f 0b 9e f4 3b
       0.53447926 0.26435626 0.52804977 0.0074651293
000150 c5 89 24 3e eb 45 85 3d cd cb 7b bf 5f 5d 8f 3c
       0.1606818 0.065074764 -0.9835785 0.017500577
000160 ef 98 5c 3e b6 61 88 be a0 f1 06 bf 94 4b 40 3e
       0.21542715 -0.26637048 -0.5271244 0.18778831
000170 4f c5 fe be e7 1e 1a 3f b2 ea 8c 3b b7 8d 82 3e
       -0.4975991 0.60203403 0.004300439 0.25498745
000180 70 fd 07 bd c1 a5 de 3e 72 77 94 3e 41 3c e1 bc
       -0.03320068 0.43485835 0.2899738 -0.027494552
000190 ef 03 11 bf c1 f6 44 3e 76 57 27 3d d6 06 d8 bd
       -0.5664663 0.19234754 0.040854894 -0.10548179
0001a0 54 ba 48 3c 8e 01 13 3e c0 c1 da be a8 68 a3 bd
       0.012251455 0.14356062 -0.42725945 -0.07978946
0001b0 40 3e e1 bd 0c d4 84 3c bb b2 c5 3d 86 b0 85 bd
       -0.10998201 0.016214393 0.09653231 -0.0652781
0001c0 d9 32 a7 be d7 33 99 bb ac 51 cd bd 86 31 a4 3b
       -0.3265598 -0.0046753692 -0.10025343 0.0050107865
0001d0 94 f4 1b be 45 94 c8 3d fc 29 85 3d 6a 20 00 3d
       -0.15230018 0.09793905 0.065021485 0.031280912
0001e0 c3 ea 23 be f0 1a 23 3d b6 06 99 bd 05 39 a1 3d
       -0.16007523 0.03982061 -0.07471983 0.07872204
0001f0 33 28 57 bd 2d d7 89 ba e7 0e 60 3d a0 06 53 3e
       -0.05252857 -0.0010516398 0.054701712 0.20607996
000200 b3 4e c5 bd b4 82 08 3e 13 c3 41 bd 9d 7b 5d 3d
       -0.09634151 0.1333111 -0.047305178 0.054072965
000210 14 bb 37 bd b3 fe b8 bd a4 f1 94 be ac d0 d8 3e
       -0.044856146 -0.09032955 -0.29090607 0.42346704
000220 9f 24 9b be 22 d6 99 3e a8 6b 9e 3d 68 d5 0d 3e
       -0.30301377 0.30046183 0.077353776 0.1385094
000230 b7 74 d8 3c cc 1e f7 3b 90 b7 a7 3c 9f 06 34 3e
       0.026422841 0.007541513 0.020473272 0.17580651
000240 8f 08 59 3e 9d ef c9 bd d4 23 15 3d 74 74 f6 be
       0.21194671 -0.09860156 0.03641112 -0.48135722
000250 25 07 3b be 16 52 eb be 24 e7 a5 be 34 eb 0c bf
       -0.18264444 -0.45961064 -0.3240291 -0.5504639
000260 e7 5e 06 bd da 45 1f be d5 de 07 be 12 b5 d4 bd
       -0.03280535 -0.1555399 -0.13268597 -0.10386099
000270 05 ad 30 be 4d e8 f0 be 4a 80 64 3c 74 5f 6e be
       -0.17253502 -0.4705223 0.013946602 -0.232786
000280 43 f8 18 bf 20 9f c7 bd f0 26 b1 be 68 21 12 3d
       -0.5975382 -0.097471476 -0.3460002 0.03567639
000290 5c 9a 3c 3e 8b 1f 02 bf a3 ac 31 be f8 35 86 3e
       0.18418258 -0.5082938 -0.17351012 0.2621305
0002a0 eb 67 f5 3e 28 43 5f be 56 af 6a bd c8 a8 61 be
       0.47930846 -0.21802962 -0.05729612 -0.22037041
0002b0 ef 0d 1e 3e 86 4c cd bd 00 c8 1c bf 43 35 95 3e
       0.15435003 -0.10024361 -0.61242676 0.29142198
0002c0 23 37 1e be 14 a4 19 be 6c cb 96 bd 21 ad b9 3e
       -0.1545072 -0.15003997 -0.073630184 0.362649
0002d0 85 8d 0e 3d 8a 34 0b 3e c4 68 3a bf e2 1f 8b bd
       0.034802932 0.13594261 -0.7281611 -0.067931905
0002e0 68 b0 66 3d 4b 35 ac 3d 49 c7 f7 bc d9 90 77 be
       0.056320578 0.08408602 -0.030246394 -0.24176349
0002f0 a1 79 00 be 18 e3 f9 be 99 49 e0 be 41 d6 9e bc
       -0.12546398 -0.4880607 -0.4380615 -0.019389274
000300 3a 61 3d be c4 f5 92 b9 18 e5 ee 3c ad 2c d7 3e
       -0.1849412 -0.000280304 0.029161975 0.42026272
000310 c3 51 4e bd c8 3f e1 3c 9f 4a b3 bd d9 d0 1b bd
       -0.050370943 0.027496234 -0.08754467 -0.03804097
000320 76 4b 38 be 81 52 f1 bd 84 0e 3f 3d c1 82 09 3e
       -0.17997536 -0.117833145 0.046644703 0.13428785
000330 42 cf 15 3d da b0 3b be 7f 83 61 3d fb bc ed 3e
       0.03657461 -0.18329182 0.055057045 0.46433243
000340 4e 58 09 bf 40 2c 4f 3e 5b c0 cd 3d e4 c5 9e 3f
       -0.5365037 0.20231724 0.100464545 1.2404141
000350 e2 35 c9 3e 24 50 52 3e 33 4d df 3e 57 36 3b be
       0.39298922 0.20538384 0.43613586 -0.18282448
000360 0c 59 33 3e c8 86 e8 3d 96 a0 33 3e 9c aa be 3d
       0.17514437 0.113538325 0.17541727 0.09309885
000370 fd 70 4e 3d 3e a0 85 3d 0b 3d 57 be 2d 2e 43 bd
       0.050400723 0.065247044 -0.2101938 -0.04765146
000380 d8 83 91 3c 58 e7 dd bc b9 17 5d be 30 a6 43 3e
       0.017763063 -0.027087852 -0.2159108 0.19106364
000390 e7 bb 3e be ac bb 83 3e 69 8c 91 3e 3c 7b 81 3d
       -0.18626367 0.2572912 0.28427437 0.06322333
0003a0 1c 14 2c 3e 44 83 09 3f b5 8e 88 bc 5f c2 8c 3d
       0.16804546 0.5371592 -0.01666961 0.06873011
0003b0 05 26 1b be a0 d1 5f be d4 d2 f6 bd 13 36 c2 be
       -0.15151222 -0.2185731 -0.12051931 -0.3793188
0003c0 5d 97 de bd bd 11 86 bd da 5f e7 bd 93 9b 08 3e
       -0.10868714 -0.06546352 -0.11297579 0.13340597
0003d0 8e dc 62 3d da 8d d0 be 93 f9 4d 3f 69 4c 5f bd
       0.05538612 -0.40733224 0.80458945 -0.05451623
0003e0 fb f6 0b 3d b3 ef 6d 3e 87 af 05 3e 16 07 2d bd
       0.034171086 0.23235969 0.1305524 -0.042243086
0003f0 e0 50 1d bf 16 93 f9 3d e5 cb b6 3e ae 57 71 3d
       -0.6145153 0.121862575 0.35702434 0.05892151

convs.0.lin_l.bias f4 [32]
000000 4b b2 a6 bc 3e d6 c4 3a 77 9d f7 bb 08 eb cc 3b
       -0.020348689 0.0015017462 -0.007556613 0.006253604
000010 41 6d d5 bc dd 5d b6 bc be 56 c4 bc 4d 24 fc bc
       -0.026053073 -0.022261554 -0.023967143 -0.030779028
000020 5f 4d 3f 3c e7 e5 25 bd da 2f 28 3d 86 3f d3 3a
       0.011676162 -0.040502455 0.04106126 0.0016116954
000030 7c 86 d2 bb 27 00 06 3c f8 2d 8e 3b 99 54 eb bc
       -0.006424723 0.008178747 0.004338976 -0.028726863
000040 06 35 37 3c 55 34 db bb 8f e9 c3 3a a0 82 b1 bc
       0.011182075 -0.006689588 0.0014946925 -0.021668732
000050 ef 02 38 bb da 36 b6 3c ea 5f e8 3c fd 46 7e 3c
       -0.002807792 0.022242952 0.028366048 0.015519855
000060 e9 c1 ba bc 61 e4 10 3a d8 06 53 bd 74 af 1c bd
       -0.022797542 0.0005527195 -0.0515202 -0.038253263
000070 aa d4 ec 3a 97 a8 87 3d fc 41 0e 3c 9a 9c 00 bc
       0.001806875 0.06623953 0.008682724 -0.007849837

convs.0.lin_r.weight f4 [32, 223]
000000 b2 96 1d bc 01 bb 6c bd ff 4b 99 bd bc cb b2 bc
       -0.009618448 -0.05779553 -0.07485198 -0.021825664
000010 dd 82 a7 bc d6 e6 ac bc 53 fe 87 bc 7c 6e 37 bc
       -0.020448143 -0.021106165 -0.016600763 -0.011195775
000020 91 44 d1 bb 7b 17 8b bc 12 40 da 3b 5d 8d d0 bc
       -0.0063863476 -0.01697897 0.00666047 -0.025458032
000030 c4 85 bd bc 7e 9b f5 bc 58 36 ce bc 2f 0d 91 bb
       -0.023135073 -0.029981371 -0.025172397 -0.0044266204
000040 93 39 55 bc 1d 63 60 bc 73 65 7f bc 83 b5 01 bd
       -0.013014215 -0.013695505 -0.015588152 -0.031667244
000050 c2 c4 d4 bc be c5 c2 bc 7b e2 44 bc 99 2c 58 bc
       -0.025972728 -0.023775931 -0.012016888 -0.013194227
000060 f8 62 a0 bc 42 b1 b1 bc fb af 15 3b cd e6 83 bc
       -0.019578442 -0.021690968 0.0022840488 -0.016101265
000070 39 b9 f5 bb 09 10 e6 3c 18 18 bd bc d1 12 fe bc
       -0.007498887 0.028083818 -0.023082778 -0.031014832
000080 7f 43 3e bc 13 4c 5f bd fe 97 12 bc cb 2c ce bc
       -0.011612772 -0.05451591 -0.008947371 -0.025167843
000090 1c a0 85 bc 9b ba e2 b9 b4 9a df bc b8 1b d5 bc
       -0.016311698 -0.0004324511 -0.027295448 -0.026014194
0000a0 ee d3 a6 bc aa 55 5a bd 86 64 8c bc 05 5f 6c 3b
       -0.020364728 -0.053304352 -0.017137777 0.0036067378
0000b0 46 fa fb bb d2 97 34 39 b9 18 7f bc 73 bb 94 bc
       -0.007689747 0.00017222695 -0.015569859 -0.018155789
0000c0 50 c7 43 bc c9 c4 f5 bc 4b 6a 67 bd c4 9d e8 bc
       -0.011949375 -0.030001061 -0.056497853 -0.028395541
0000d0 4a 90 8d bc 97 a5 d7 bc 2d 76 95 bc c1 1f 44 bc
       -0.017280716 -0.026324077 -0.018244827 -0.011970461
0000e0 36 fd 0c bd 15 36 fc bc 12 91 8f bc f2 8e 22 bd
       -0.03442117 -0.030787507 -0.01752523 -0.039687105
0000f0 38 9a 4f bd 09 8c a2 bc c8 18 83 bc 13 8d 88 bd
       -0.050684184 -0.019842165 -0.016003028 -0.06667533
000100 56 3e 67 bc 6f a8 e0 bb d2 58 1e 3b 96 4f 17 bd
       -0.014113983 -0.0068560163 0.0024161828 -0.036941133
000110 4a 1f b4 bc e3 26 e1 bb 00 26 be bc 74 b5 13 bd
       -0.021987576 -0.0068710907 -0.02321148 -0.03606172
000120 54 20 98 bc a3 8f ef bc f4 74 37 bc 7d 16 88 3c
       -0.018570103 -0.029243296 -0.011197317 0.016612286
000130 0c ad 7d bc a8 3a a9 bc 7a e4 29 3c 43 70 2e bc
       -0.015483152 -0.020657852 0.010369414 -0.0106468825
000140 85 a5 7b bc dc 2e e7 bc 49 83 b1 bc 81 b0 fc bc
       -0.015359287 -0.028220586 -0.021669047 -0.030845882
000150 14 b0 63 bc 75 0f a4 bc 4d b7 46 bd 90 c7 fc bb
       -0.013896961 -0.020026902 -0.048514653 -0.0077142194
000160 64 64 a6 bc 48 9c 1c bd 0f 24 97 bd 91 94 19 bd
       -0.020311542 -0.03823498 -0.073799245 -0.0374952
000170 30 10 17 bd 2f de 76 3c 96 4c c7 bc f2 b8 ea bc
       -0.036880672 0.015067621 -0.024328511 -0.028652642
000180 d3 21 db bc 02 49 04 bc 6a 81 84 bc d9 97 96 bc
       -0.026749527 -0.008074047 -0.01617499 -0.018382953
000190 42 4c b3 bc 9c 3b d1 bb 62 d0 73 bc b2 c0 b2 bc
       -0.021886948 -0.00638528 -0.014881225 -0.0218204
0001a0 a7 4c f1 bc 54 77 b5 bc 8e 66 19 bd 44 20 62 bd
       -0.029455496 -0.022151627 -0.03745132 -0.055206552
0001b0 50 ec 92 bc 5d ac 00 bc 10 91 0f bd 4c f9 15 3c
       -0.017934948 -0.007853595 -0.03505045 0.009153675
0001c0 c1 86 47 bd 18 db d8 bc 94 2d b9 bc 45 4b ab bc
       -0.048712496 -0.02647166 -0.022604741 -0.020909915
0001d0 c5 dc ec bc 4c 2b 8e bc 51 07 86 bb 22 80 d2 bc
       -0.028913865 -0.01735463 -0.0040902277 -0.025695864
0001e0 8a b8 d2 bc 58 c3 3f bc 46 89 23 bc 84 7d 35 bd
       -0.02572276 -0.011704288 -0.009981459 -0.044309154
0001f0 94 01 43 be dd 44 90 bd 42 a6 37 3d 07 a1 2c 3b
       -0.19043571 -0.07044385 0.04483629 0.0026341097
000200 b8 9f 18 be 48 ff 8e 3d e9 5d 8b 3c df c6 aa be
       -0.14904678 0.06982285 0.017012553 -0.33354852
000210 0a 28 1c 3d 1d 9c 66 bd 97 25 0d bf 1d 95 46 3b
       0.03812412 -0.056301225 -0.5513548 0.003030128
000220 af 05 90 bb c7 3a 11 3b 6d 2f 5a bc 09 ba 18 bd
       -0.004395209 0.0022160278 -0.013316971 -0.037286792
000230 22 0a b2 3c 6e fa 8e bb fd d1 54 3b fb 95 b7 ba
       0.021733347 -0.0043633496 0.0032473796 -0.001400649
000240 7c 3a 7e 3b ae e5 45 bc 6a 10 a6 3b 0b fb 86 bc
       0.0038792184 -0.012078686 0.0050678747 -0.016477128
000250 38 51 df 38 9d b3 8e bc a5 a5 02 bc c8 c1 cc 3b
       0.00010648597 -0.01741963 -0.007974063 0.0062486865
000260 99 21 58 3c 43 66 1b 3c 27 d2 ac 38 97 0f 95 bb
       0.013191604 0.00948483 8.240743e-05 -0.0045489776
000270 18 c1 06 3b fa f1 54 bc 84 b5 1a bc 80 c0 9b ba
       0.002056187 -0.012997145 -0.009442691 -0.0011882931
000280 b7 f3 94 bc 07 b9 14 bc ff 7f 88 bc 16 cf 3d bb
       -0.018182619 -0.009077317 -0.016662596 -0.0028962544
000290 bf ab 9b 3c 7d 1d 83 bc 17 ea b1 bb e2 e5 8c bb
       0.019002793 -0.016005272 -0.005429517 -0.004299865
0002a0 e0 ab 74 3b 63 46 98 bc 7c 79 aa bb 07 72 2b bc
       0.003733389 -0.01858825 -0.0052024703 -0.010464198
0002b0 40 66 90 3b 7b d6 37 bc f6 6b b9 bc d0 bb 99 b9
       0.0044067204 -0.01122057 -0.022634488 -0.00029322365
0002c0 b0 e0 10 bb 50 4e ff b8 38 c3 8b bc 82 32 88 3b
       -0.002210658 -0.000121739344 -0.017060861 0.0041564116
0002d0 06 d6 5f bb c7 7e c8 bb 12 f7 09 bc d7 ae 97 bb
       -0.0034154668 -0.0061186287 -0.008420723 -0.004628997
0002e0 df 61 98 3a 97 45 c3 bb b4 b6 9c 39 52 bc a6 bb
       0.0011625848 -0.0059592235 0.00029890763 -0.0050883675
0002f0 91 09 ce bb d7 4c 0e bc be e1 b6 bb 44 f1 40 bb
       -0.0062877615 -0.008685312 -0.00558111 -0.002944068
000300 26 a4 c1 bb 1d cb 2f 3a ea d5 13 3c 94 94 7c 3c
       -0.0059094606 0.00067059865 0.009023169 0.015416283
000310 6f 0a 82 3c ab a1 80 3c db 88 1d 3c 76 c5 ed 3b
       0.015874116 0.01570209 0.009615148 0.007256205
000320 9b be 40 3c bd 72 40 3b 85 84 1a 3c 62 c5 40 be
       0.011764194 0.0029365264 0.009431009 -0.18825296
000330 f7 4d 8c be 7b dc d0 39 b7 27 cb 3a c7 b6 28 3c
       -0.27403232 0.00039837122 0.0015499507 0.010297484
000340 b5 f5 c9 bc ad fc 44 3c f4 57 40 3c 96 5b 44 3e
       -0.024653295 0.012023133 0.01173972 0.19175562
000350 ab f3 80 3c 08 03 ab 3b 26 10 a0 3c b2 42 3c bc
       0.01574119 0.005218867 0.01953895 -0.011490511
000360 c4 e0 07 3c 9a 25 c1 3b 3e 9c bd bb 7b dc 18 ba
       0.008293334 0.005894375 -0.005786448 -0.0005831194
000370 68 8a 36 3b ed ab 09 3c 02 17 b0 bb 6f 94 b5 ba
       0.0027853493 0.008402807 -0.0053738365 -0.0013853441
000380 21 27 83 bd 2c 6c ae bd df 1a 22 bd 29 ab d3 bc
       -0.064039476 -0.08516726 -0.039576408 -0.025838451
000390 de eb 26 3b 5f 31 88 ba 32 8c b5 bc aa 1a f9 bb
       0.0025470178 -0.001039069 -0.022161577 -0.0076020556
0003a0 54 2a d0 bc c3 7c 3b bc 06 01 b4 bc 47 f3 8d bc
       -0.025410809 -0.01144332 -0.021973144 -0.017327918
0003b0 84 7d 19 bd d0 ff e0 bc d4 1f f7 bc 9b 25 5e bd
       -0.037473217 -0.02746573 -0.030166544 -0.054235082
0003c0 3f ed 03 bd ef d5 df bc c8 22 02 bd 66 e7 c4 bc
       -0.032208677 -0.027323691 -0.03177145 -0.02403612
0003d0 d9 8e aa bc 2c b2 15 bd 10 8b 67 3c 9f 60 5b 3b
       -0.020820068 -0.03654687 0.014132276 0.0033474339
0003e0 1a d9 54 bc c4 40 52 bc a2 48 dc bc 8b 41 b8 bc
       -0.012991214 -0.012832824 -0.026890103 -0.02249219
0003f0 53 f5 94 bc ed cc 95 bc 47 78 51 bb 02 46 04 bd
       -0.018183386 -0.018286193 -0.003196256 -0.032293327
