notebooks/runs_graphsage/run1_20251021T142343Z/graphsage_encoder_run1.pt (torch, 69800 bytes, 3 tensors)

convs.0.lin_l.weight f4 [32, 262]
000000 48 e6 24 3d 5f 10 40 bd 66 08 09 bd a1 cb fb 3c
       0.040258676 -0.046890613 -0.033455275 0.030736746
000010 eb 55 c7 bc be 66 b3 bd 25 b7 99 3c 70 8a c2 3d
       -0.024332961 -0.08759831 0.018764088 0.09499061
000020 92 7d db 3d 6f 09 c7 bc 88 d0 94 be d1 5a a7 3e
       0.1071731 -0.02429649 -0.29065347 0.32686475
000030 7e bd 4f bd db 24 36 3d 6c f0 13 3e 38 c3 87 3d
       -0.050717823 0.044468742 0.14447182 0.06629032
000040 2d 1f 7c 3d cc 8b a5 3c db f9 1b be c9 47 7f 3d
       0.06155317 0.020208262 -0.15232031 0.06232432
000050 f5 d7 ee 3d 12 de 84 3d 4c a5 0b 3e a4 f8 98 3d
       0.11662284 0.06487669 0.13637275 0.074692994
000060 7e f1 c3 bc ee bb 33 3e c6 73 7a 3c fe f3 ae 3d
       -0.023918863 0.17552158 0.015286392 0.085426316
000070 8e 6c 8a bb 4a 20 d9 bd 8f fe 30 ba 73 b7 ae bd
       -0.0042243665 -0.10601862 -0.00067517994 -0.08531084
000080 db 37 fd 3c 11 09 6d 3e 5c 99 66 bd 32 2b bc bc
       0.030910423 0.2314799 -0.0562986 -0.022969816
000090 49 23 bd 3d 01 05 c1 3e 4e ea 6b bb b0 ff 9a bd
       0.09235246 0.3769913 -0.003599781 -0.075683
0000a0 2c 99 c3 3e 26 e9 05 3e 3c 21 37 3e f5 f5 53 bd
       0.38202798 0.1307722 0.17883772 -0.051748235
0000b0 55 af 4a 3e 12 ad 69 be 74 98 9e bb f0 bc 48 3e
       0.19793446 -0.22819927 -0.004839951 0.19603324
0000c0 e9 92 20 3b 29 62 3a 3f 8d a2 08 3f 94 6b b9 3b
       0.0024501628 0.7280603 0.5337303 0.0056585763
0000d0 9e 1a cc bd c0 bd 12 be ae 7d b6 3c 55 c2 d0 bd
       -0.09966014 -0.14330196 0.022276726 -0.10193316
0000e0 51 71 99 bc 76 7b 17 be 44 36 8e 3d b9 64 b5 3d
       -0.018730791 -0.1479319 0.06943944 0.08857102
0000f0 33 2f 25 3d cb 1a 0a 3d 31 e8 a7 3e 5e 67 93 be
       0.040328216 0.033716958 0.32794335 -0.287898
000100 5b 5a 4f bd 97 57 30 3f 14 7d 58 be 32 ef 8d 3d
       -0.05062328 0.6888365 -0.21141464 0.069303885
000110 78 5e 15 3c 3b c0 ba bc 79 c4 9c 3d 87 21 3d 3d
       0.009116761 -0.02279674 0.07654662 0.046174552
000120 13 32 47 3d b7 a3 36 3e 36 ef 8c 3d db 1e 1b be
       0.04863174 0.1783589 0.06881563 -0.15148489
000130 c5 de 21 3e 7d 2c b1 3d e2 cf d7 3c 63 eb 3e 3d
       0.15807636 0.086510636 0.026344243 0.0466112
000140 1a d1 a9 3e 00 f5 cf bb 40 ed e7 bd 09 e2 c5 3e
       0.33167344 -0.006346345 -0.11324549 0.38649014
000150 f7 7a 84 ba b7 57 54 3c 2d 79 27 3e 3e a5 0c 3e
       -0.0010107447 0.012960366 0.16354819 0.1373491
000160 f5 a1 52 be f8 32 c0 3d 49 f3 ed 3d 8f 64 31 bc
       -0.20569594 0.093847215 0.116186686 -0.010827198
000170 0d 09 73 3e 11 c6 88 bd 26 bd 7e bc e2 66 ac bc
       0.23733921 -0.06678403 -0.015548026 -0.021045152
000180 a2 39 a9 bd 15 d4 35 3e b4 4b 41 bd 64 da 76 3d
       -0.08262946 0.17756684 -0.047191337 0.060266867
000190 28 82 a9 bb 9d b0 d3 3d 94 43 ee 3b da bf 27 be
       -0.0051729865 0.10336421 0.0072712395 -0.1638178
0001a0 5d da 1d bc 49 cb 15 be b6 5e 82 3e 9e d3 ba bd
       -0.009634581 -0.14628328 0.25462884 -0.09122394
0001b0 1f 14 a8 3c 36 b1 61 bd c1 e4 6f 3c 7c 4c ad bd
       0.020517407 -0.055100642 0.0146419415 -0.08461854
0001c0 32 bd 7c bd 74 08 cb 3c ec 64 c8 3c bc ea 99 bd
       -0.06170387 0.024784304 0.024462186 -0.07515475
0001d0 fa e6 a6 bd 24 b4 80 3d e5 9a 0f bd 1f ed a6 3e
       -0.08149524 0.06284359 -0.03505983 0.32602784
0001e0 e1 c2 87 bd 79 50 50 3f c2 9e 3b 3e 5d ae e9 bd
       -0.06628967 0.8137279 0.1832228 -0.1141021
0001f0 d2 72 e4 3e d0 55 4d 3e da e9 22 bd 88 fe a2 3e
       0.4461885 0.20052266 -0.0397738 0.31834817
000200 29 09 10 be 26 6a 14 bd 85 a1 09 3f 69 f6 10 3f
       -0.14065994 -0.036234044 0.53762084 0.5662599
000210 ad 13 aa be 6a 04 c5 3e 4a e6 ac 3d f9 3b 41 bd
       -0.33218136 0.3847993 0.08442362 -0.047176335
000220 12 15 fc bc b8 56 bf bd f4 c3 c7 bd 31 bb 45 be
       -0.030771766 -0.09342712 -0.09754172 -0.19309689
000230 e9 89 62 3e ca 4f 36 be 7e 4c eb bd 9c 1f 16 be
       0.22122921 -0.17803875 -0.11489199 -0.14660496
000240 4d 1d 1c be 5d e1 1a 3e a3 1d 0d 3d 2b 0d 0a be
       -0.15245552 0.15125032 0.034452092 -0.13481586
000250 cf d8 31 3c 2a af b7 bd f5 4f 1c 3e 24 e3 d5 bd
       0.010854914 -0.08968957 0.15264876 -0.10443714
000260 b8 d8 46 3b b4 af de 3d a0 36 a6 3d 84 31 08 3e
       0.0030341577 0.108733565 0.08115888 0.13300139
000270 43 55 4c 3e 7b 1a 11 bc 73 aa 88 bd b9 16 ab bd
       0.199544 -0.008856411 -0.066731356 -0.083539434
000280 e6 49 95 3c 91 07 8c 3c 5c 2a 0a 3e 7a 24 ea 3d
       0.018223714 0.017093452 0.13492721 0.114327386
000290 68 6e c6 3d 61 5f 9c bd 72 68 ef 3d 96 56 f6 bd
       0.09689027 -0.076353796 0.11689843 -0.12028234
0002a0 7d de 49 3e af 79 e0 bc 8c 53 9b 3d 0a 2f 04 bc
       0.19713779 -0.027401773 0.07584295 -0.008067856
0002b0 de 10 3a bb 7a 20 af 3c 40 de 28 3e 2c 67 b5 3d
       -0.0028391401 0.02137779 0.16491032 0.08857569
0002c0 d5 7a 2d 3e 61 76 55 bb f3 f1 75 bd 43 df d4 3c
       0.16941388 -0.003257178 -0.060045194 0.025985366
0002d0 a7 4f 3a bb 99 77 d0 3d 6e db 39 3d bd d7 bc bb
       -0.0028428824 0.101790614 0.04537528 -0.0057630227
0002e0 3f b7 11 3e a0 1d 01 3d 84 dd 23 3d 63 58 fe 3c
       0.14230059 0.031522393 0.040006176 0.031048005
0002f0 8d b5 bc 3d 90 da 54 3e 0d 70 32 bc 6f 06 3e 3e
       0.092143156 0.207865 -0.010890973 0.18557142
000300 97 59 93 3d 93 fb d1 3d 6a b5 4c 3e c2 a6 03 3e
       0.07194822 0.10253062 0.19991079 0.12856582
000310 a2 ed e7 3d 88 d2 69 3d 04 36 17 3b 14 6d 8e 3e
       0.11324622 0.057085544 0.0023072967 0.27817595
000320 b7 c6 12 be b5 60 fd 3d 0b fd 00 3e e9 f3 6c 3d
       -0.14333616 0.12371961 0.12596528 0.0578498
000330 8b 73 4c 3d f9 67 83 3d d5 e8 73 3d 00 47 04 3e
       0.049914878 0.064163156 0.059548218 0.1291771
000340 bd 2c 83 3d 5c d5 16 3e 5e fd ba 3d 68 05 a0 3d
       0.064050175 0.14729828 0.09130357 0.07813531
000350 ec a0 38 bd 6c bf 86 3d 34 eb 3e 3d 71 2a 74 bd
       -0.045075342 0.065794796 0.046611026 -0.059610788
000360 1c 42 0b be 28 b4 05 be 73 d5 26 be d4 9f 9b 3c
       -0.13599437 -0.13057005 -0.16292362 0.01899711
000370 36 14 0b be 1b 0d c8 3c f4 f9 79 3e d6 09 02 be
       -0.13581929 0.024420312 0.24411756 -0.12699065
000380 af d5 cc 3d c2 f4 d9 bd 0c 1f 8c 3a f7 41 23 be
       0.100016944 -0.10642387 0.0010690405 -0.15943132
000390 d3 67 15 be 74 a6 ca bd 1b 30 0a 3d 4b 29 26 be
       -0.14590387 -0.0989503 0.033737283 -0.1622669
0003a0 3f 2e aa bd 54 56 71 bd 7d 08 4f be 4f b7 d1 3d
       -0.08309602 -0.05892022 -0.20218082 0.102400415
0003b0 17 35 44 3e 9c 3f 3f bd f4 ad 29 bd 06 97 5a 3e
       0.19160877 -0.046691522 -0.04142566 0.21346673
0003c0 5a cb 04 be 49 1c 15 3e 18 7a d0 bd 39 1c c3 3d
       -0.12968197 0.14561571 -0.101795375 0.095268674
0003d0 9e 93 a1 bc f4 d7 41 3d bc 17 22 3d 99 5f 67 bd
       -0.01972371 0.04732509 0.039573416 -0.056487653
0003e0 ca 3d 6c bc 13 61 d1 3c fc 4f dc 3c 29 88 9e 3d
       -0.014419029 0.025558984 0.026893608 0.07740814
0003f0 b4 01 17 be 5a 17 41 3d 00 5e e7 bd bc ad 03 3b
       -0.14746743 0.04714141 -0.11297226 0.0020092567

convs.0.lin_l.bias f4 [32]
000000 d9 6a fd bb be 78 0f 3a c6 37 30 3c 3d 80 2a 3d
       -0.0077336845 0.0005473009 0.010755485 0.041626204
000010 94 67 39 bb 4e 9a 76 3b e8 91 04 bd 44 b2 a4 3c
       -0.0028290497 0.0037628594 -0.03236571 0.020104535
000020 8e dc b0 bc 3d 20 48 3c 34 0e 40 bc 34 60 f6 3c
       -0.021589544 0.012214717 -0.011722136 0.03007517
000030 eb 2f ff 39 35 ac 04 bc 83 5d 03 3d fa 6e 14 3c
       0.00048673092 -0.008097698 0.0320716 0.009059662
000040 ee 16 d2 bc c2 19 74 3c fc 4e b6 bb e1 7f db 3c
       -0.0256457 0.014898719 -0.005563615 0.026794376
000050 18 d8 3d 3d 71 e1 15 bb 41 28 a4 bc 45 0c c3 bc
       0.04634866 -0.002286997 -0.020038726 -0.023809562
000060 9c 69 8d 3c 80 9c c7 bc 4e f0 b7 3b 63 e8 46 bc
       0.017262273 -0.024366617 0.0056133633 -0.012140366
000070 1f 99 91 bb 65 93 2e 3c 05 4b c1 3c b0 11 16 3d
       -0.0044433023 0.010655259 0.023595342 0.036637962

convs.0.lin_r.weight f4 [32, 262]
000000 b1 9a 33 3b 26 07 fb 3c 92 91 0a 3d 98 fd 53 3b
       0.0027405436 0.030643057 0.033830233 0.0032347199
000010 84 ca 7b bc 58 5b 1b 3c 3c b1 af 3b 5b 50 88 3b
       -0.015368108 0.009482227 0.005361704 0.0041599697
000020 1b 41 16 3c ea 53 2a bc 6e 81 86 bc 69 c5 01 3d
       0.009170796 -0.010395983 -0.016419139 0.031682406
000030 b0 ca 71 39 fb 31 b9 bb c6 88 2b 3c 09 ba 9c bb
       0.00023059058 -0.00565171 0.010469621 -0.0047829193
000040 db 79 77 3b ac de a9 bb cd 9b fa 3a 7d 3d e0 3c
       0.003776184 -0.0051840153 0.0019119919 0.02737307
000050 f8 14 3a 3c 57 88 84 3b 5e 24 14 3c ed fc 01 bb
       0.011357538 0.0040445733 0.009041874 -0.0019834593
000060 3b a0 f4 3b 78 7b 71 3c 0e c2 18 bc 2a bf 15 bc
       0.00746539 0.01473891 -0.00932361 -0.009139815
000070 a6 88 83 bc 9f b8 c5 bc 80 8a 11 bc 58 d9 75 3c
       -0.01605637 -0.024135886 -0.008883119 0.015005432
000080 e2 81 99 ba dc 7a a3 b9 ba f9 e5 bb 0f 70 02 3b
       -0.0011711682 -0.0003118132 -0.007018295 0.0019903218
000090 61 c2 ab 3c 9a f2 18 3c 62 cd b0 bb f2 04 9c bb
       0.02096671 0.0093351845 -0.0053955773 -0.0047613317
0000a0 45 4d 41 3b 73 b9 b0 3b 87 95 05 3d 4e a8 44 bc
       0.002949552 0.005393201 0.032613304 -0.012003018
0000b0 77 5c 94 3c 5c d5 92 bc bf db e4 bb 78 8b 5f 3d
       0.018110497 -0.017924003 -0.0069842036 0.054576367
0000c0 c2 45 4b bb 3f 86 b9 3b f1 3a 1d 3d a4 1b 0d bc
       -0.003101692 0.0056617553 0.03838629 -0.008612547
0000d0 35 e9 38 bc e7 e9 45 bc 61 c0 91 bb 73 c9 b9 bc
       -0.01128607 -0.012079692 -0.004447982 -0.022679066
0000e0 1b 24 4a ba cc 9c 1e bc 76 f8 96 3c 21 65 cc 3c
       -0.00077110686 -0.009680938 0.018429022 0.024950566
0000f0 ed 56 41 3b b8 e2 c9 3c 39 3d c5 3c 00 ac 68 bc
       0.0029501275 0.02464424 0.024077045 -0.014201164
000100 fa f0 e0 3b 88 f4 64 3c e7 b2 dd bc c9 50 2c b9
       0.006864664 0.013974316 -0.027062846 -0.00016433293
000110 bc ef bb bb 5a f6 12 bc 8e f8 f1 3a c6 65 a4 3b
       -0.0057353657 -0.008969868 0.0018460916 0.005017015
000120 67 11 fe b9 85 02 e3 3b 88 d0 79 37 8f 0f ad bc
       -0.0004845962 0.0069277906 1.4890109e-05 -0.021125583
000130 e3 af a1 bb e2 51 3b 3b f2 27 fe bb 7e 3d a0 bb
       -0.0049342974 0.0028582742 -0.0077562267 -0.004890143
000140 fd 9b 04 3d a1 37 0a 3d ea be f0 3c 3e 8a 47 3d
       0.032375325 0.033744458 0.02938791 0.048715822
000150 00 19 1e bc 5f 7d ee 3b 6c b1 e9 3a f2 5e 09 3c
       -0.009649515 0.007278129 0.0017829365 0.008384453
000160 b7 14 bf bc 8c e5 28 3c ce d3 89 3c c6 66 b4 3c
       -0.023325307 0.0103086345 0.01682463 0.022021662
000170 35 8a 03 bc 23 c9 62 bc 73 22 73 3c fd e9 20 bc
       -0.008028557 -0.0138419 0.014839756 -0.009821412
000180 32 7c 8e bc 33 df 6d bb de f4 26 bc 29 cb ca 3a
       -0.017393205 -0.0036296367 -0.010190217 0.0015471923
000190 1f 3f b7 bb 01 f0 e8 3c 9e 7f 60 bc 5d 0f 7b 3b
       -0.0055922414 0.028434755 -0.013702301 0.0038308718
0001a0 f1 44 da 3c 38 3f 86 bc 32 bd a0 3c 30 0b b3 bc
       0.026644202 -0.016387567 0.019621465 -0.02185592
0001b0 b1 3a 2d bc c2 0c 46 bb 5f fd 79 b9 95 08 81 bc
       -0.010573075 -0.0030220007 -0.00023840879 -0.015751163
0001c0 ed 64 57 bc 6d 85 7f bc ce b3 19 ba 7a cb 82 bc
       -0.013146621 -0.015595776 -0.000586328 -0.015966166
0001d0 4e 56 b3 bc 90 f1 5b 3b 91 4e fc ba 03 3d c8 3c
       -0.02189174 0.003356073 -0.0019249489 0.024443155
0001e0 8b c2 63 bb e4 e3 11 3d 98 e0 64 3c 0b 85 6d 3c
       -0.0034753408 0.035617724 0.013969563 0.014497052
0001f0 13 14 a6 3c b5 ec 33 3d 77 17 a0 3c a1 21 1a 3c
       0.020273244 0.043926913 0.019542439 0.009407432
000200 d2 15 f5 bb 16 a8 f6 3b ed 15 77 3c f5 d6 44 3d
       -0.007479408 0.0075273616 0.015080911 0.04805656
000210 92 f3 a8 bc 58 89 71 3c dd b7 b3 3c 6a d0 0f bd
       -0.020623956 0.014742218 0.021938259 -0.03511087
000220 9f 90 18 bb f2 c3 1f bc 1a e9 19 bb f7 ce 08 bd
       -0.002327956 -0.009751307 -0.0023484887 -0.033400502
000230 e7 6b 63 3d 34 ff 1b bc 0a c3 14 bc 2e 4f 82 bd
       0.055522826 -0.009521294 -0.009079704 -0.063627586
000240 4b 7c 09 bd af 23 c0 3b de e5 52 bc 7a 51 2a bc
       -0.0335658 0.005863629 -0.012872187 -0.010395402
000250 36 88 37 bb ed e0 f2 bd 93 25 fa 3c fa 3b a6 bd
       -0.0028004772 -0.118593074 0.030535495 -0.08116908
000260 f2 27 00 bd 00 8b de 3c 17 56 b7 bd 52 a1 0c 3c
       -0.031288095 0.02716589 -0.08951967 0.008583384
000270 3c f6 89 bc c5 7e e9 ba a0 48 b5 bc 66 92 5a bb
       -0.016841047 -0.001781427 -0.022129357 -0.003335142
000280 29 c3 72 3b ef b4 8a 3b 8f e1 2b 3d 14 cc 65 3a
       0.0037042594 0.0042329947 0.041963156 0.0008766067
000290 20 ec 3b 3b cc 76 f6 bc 03 c1 05 3c af cc 25 bc
       0.0028674677 -0.030085944 0.008163693 -0.010119601
0002a0 2d 21 91 b8 20 37 c6 bd 1c ec 42 3c a9 73 95 bc
       -6.920318e-05 -0.09678483 0.011897113 -0.018243628
0002b0 30 fe a3 3c 48 2f 7b 3c 90 41 25 3d 9a 15 de bb
       0.020018667 0.015331097 0.04034573 -0.0067774775
0002c0 70 e4 e5 3a 5f 3c 99 3c d4 4d 90 3c c3 ae 0e bc
       0.0017539393 0.018705545 0.017615236 -0.008708659
0002d0 43 74 f8 ba b4 95 ab 3c 8d 5b 40 3b 00 02 1c 3c
       -0.0018955547 0.020945407 0.0029351444 0.009521961
0002e0 77 e9 24 3c d9 df db 3a c8 a7 2b 3d c3 bb 38 bb
       0.010065428 0.0016775086 0.041908056 -0.0028188087
0002f0 3a b8 28 3c 3d e4 ce 3c 84 8e ac bb 13 99 83 bc
       0.010297829 0.025255317 -0.0052660126 -0.016064202
000300 da 50 49 bc f4 49 2f 3c 5d 46 ce 3b fe 0f 14 bc
       -0.012287343 0.010698784 0.006295009 -0.009037016
000310 86 aa bf 3b 46 22 3a bb 49 69 cb 3c b1 a2 f8 bb
       0.0058491854 -0.0028401776 0.024830477 -0.0075877537
000320 f3 e2 a8 bb ab b7 ac bb b1 eb 3d 3c 5a 8e b7 ba
       -0.0051540076 -0.0052709184 0.011591838 -0.0014004216
000330 04 a2 42 3b ed dd 74 39 a0 20 fe 3b ff f4 96 3b
       0.002969862 0.00023352327 0.007755354 0.0046068425
000340 1e ba dd ba 14 cd ec 3a a7 5f 98 bb aa e9 a5 39
       -0.0016916429 0.0018066489 -0.0046500745 0.00031645346
000350 c1 84 91 39 40 15 81 ba de 9c 10 3c 5a 36 d8 ba
       0.00027755465 -0.0009848252 0.008826463 -0.001649569
000360 24 bc 34 ba b9 4d bb bb 81 01 86 bc 3b 6e 12 bb
       -0.000689449 -0.0057160524 -0.016358139 -0.0022343535
000370 71 dc 8f bc 4a 2f b7 bb af 37 7f bb 04 cf 15 bd
       -0.01756117 -0.005590354 -0.0038943102 -0.03657438
000380 8d 2f 07 bb 5c c1 c5 ba 86 46 d9 bc 78 28 bd bc
       -0.0020627708 -0.0015087533 -0.026522886 -0.023090586
000390 b4 b1 5a bd 7e 0e 3d bb 76 28 a7 bb 5f dd 00 be
       -0.053392127 -0.002884775 -0.005101259 -0.12584446
0003a0 17 1d 3b bd 2a ab e5 bb ef 1f e3 bb 03 f3 12 bb
       -0.04568204 -0.0070089297 -0.006931297 -0.0022422678
0003b0 89 0e 32 3d dd 6c 11 bc 11 29 69 3c 7b 28 6c 3c
       0.043470893 -0.008876053 0.014230982 0.014413948
0003c0 b0 6e ec b9 73 f3 e6 3c cc 8c e1 bb 14 4c 9d ba
       -0.00045095896 0.028192258 -0.0068832394 -0.0012000822
0003d0 4d 92 d3 3b 0d bc eb 3a b4 74 cb ba 77 32 29 3a
       0.0064566494 0.0017985121 -0.0015522451 0.0006454358
0003e0 39 a7 74 3b 7b c9 83 3b 2f 1e 28 bc de 22 5e 3b
       0.0037331118 0.004021821 -0.010261103 0.0033895294
0003f0 ec 13 d3 3b 1b a5 11 ba e9 ce 44 b9 e7 75 83 ba
       0.006441584 -0.00055559137 -0.00018769097 -0.0010029644
