notebooks/graphsage_v2/runs_graphsage/run4_20251023T145539Z/graphsage_encoder_run4.pt (torch, 338121 bytes, 6 tensors)

convs.0.lin_l.weight f4 [128, 262]
00000000: ef13 9b3d 6939 e7bc 3a93 70bd 25ec c5bc
00000010: d382 203d 037b da3c 222f 303d 4605 153d
00000020: e4eb 02bc dd25 963d 1c4f 97bb 6d82 4dbd
00000030: acfa cb3c 73f9 15bd 768d 333d 5695 94bd
00000040: 4bd0 f23c 87c7 97bb a807 a73c 1940 28bd
00000050: 0407 23bd 6b05 dcbd a33d ad3a 33c9 d5bc
00000060: 0ff5 7b3d 660e 1bbd 2467 05bd ae7a f939
00000070: 604b 663d fe6f 5f3c b15f bc3a d79d 8b3d
00000080: 0c4a 233d f48c 1e3c d5d1 d73c 667e 24bd
00000090: b9a1 d4bc efb2 653c 4a24 91bd 75d2 3d3c
000000a0: 69f8 b73d 93b9 6d3b 6557 92bc d6cb bdbc
000000b0: 87fd 633c ec28 a63c f2fd 6c3d b07d 18bc
000000c0: e589 39bb d5f1 243c 96d0 28bd bd7c 87bd
000000d0: 442b ec3c 4b02 47bd 89ce 06bd c8e3 a93d
000000e0: d0c3 d3bc 2ad2 4abd f9b3 40bd deab 41bd
000000f0: 668e d7bc f63d f1bc 2edf 1c3d a5c1 883c
00000100: 6b1f 613c cc79 69bd 5437 0b3d ee0b 703c
00000110: 1c51 d9bd ab4a f93d edf9 ddbc 9a65 da3c
00000120: 6888 febc 2008 08bb 636d 93bd 4c12 803d
00000130: 8e8a 1dbc 8296 cbbd 6f36 83bc b229 5fbd
00000140: 8e2e 59bd 1928 603d bef1 4ebd b741 a73c
00000150: bc6f 31bd 21fe 243d 2817 1cbd 84f8 be3b
00000160: 13dc 3a3c bf2c 1e3d 6595 71bc 158c 733b
00000170: 80be c2bc 4ece 56bd ad58 9c3b 2d56 403c
00000180: fe65 593e fb39 303e 451c 623d 5c30 b2bd
00000190: 3cd6 97bc 8702 d9ba 0fea 6c3d f284 c2bd
000001a0: e09e e5bc b1bc c9bd 3596 9cbc 6f42 863d
000001b0: 2e2b 55bd d649 2fbd 1797 9d3d e14f 023d
000001c0: 163c 33bc 9cfc 64bb ed21 c0bc 8f23 2ebd
000001d0: 5af5 14be ebc4 80bc 738e b8bd 15d3 033d
000001e0: 81d4 9f3d f3c0 af3a c020 ea3b a0ad 07b8
000001f0: c882 77bd dd17 48bb 7735 893c ca98 063b
00000200: 8f91 913b cfe6 42bc 52f4 8b3d 48e8 763c
00000210: e1c9 2abd 6568 9ebc 409b c7bd 48bb 02ba
00000220: 23b0 ac3c eefc 13bc 6964 a0bd f01b 043e
00000230: 3afb b5bd e0ee 1a3d 8c67 52bb 5916 963d
00000240: 6941 8ebd dd53 03be bf7f 0bbd a2e6 cc3c
00000250: 0778 49bd 70c0 82bd b587 8f3d a2d9 e283
00000260: 0e9d 913d 8dc4 353d 4d1e 1bbd 8cfc ac3d
00000270: c645 a03d 3f5f 803d c12c f23d 8b01 813d
00000280: a528 423d 548f d03d 6873 873d dd99 163d
00000290: 05f2 353d f114 d23d 691b 743d a4cc 193d
000002a0: bb83 08bb 21d6 483d afa0 34bc e338 113d
000002b0: aba4 2d3d 9dfc 1e3d 63ce bf3d 65b6 6a3d
000002c0: b07b 9cbc d9be 643c fc4a 853d f665 cb3d
000002d0: 9cde 47bd db5e 0f3d d4d0 2d3b f909 e2bb
000002e0: 82c1 26bc 9d84 ac3d 55fd e13c 90fe 3e3d
000002f0: 539e 9f3d c03c 8cbc 0162 903d 9827 e8bb
00000300: 273f 553d 2cf8 213d 6ba8 4cbc 59df f2bc
00000310: 023d 2a3d e014 a7bc d5ff 413d 903d 54bd
00000320: 167a f43c bb53 e33b 01e6 07bc b701 ea3d
00000330: 014a 4cbc 45e3 0a3d 3b5b cebc 91b2 04bd
00000340: ef02 c1bb 53e7 313c dd0e 31bc e35d 943c
00000350: 8e38 353d b736 02bd 97ad 863c ebba ab3d
00000360: be9a a33d 1719 5f3d 8e52 fbbc f354 f5bd
00000370: 98ec b63c adc5 02bd 892b 7ebd b72a 853d
00000380: c12e 283c 112b 2c3d 4231 9a3b af9f 013d
00000390: a40c b73c 19c6 4e3d 1472 f8bd eca8 ca3d
000003a0: daf6 723c ae48 a9bc 33e1 1fbd ea26 1fbd
000003b0: f1f2 9ebd 3666 ea3b 88ac aabc 4d4d d6bd
000003c0: abfd 2083 1976 163d 1403 cbba 6c1a 8cbd
000003d0: 19d1 69bd 2b88 803d cd45 c9bc 8227 913b
000003e0: 6c01 5ebd a559 8abd ae9b 623d 4638 27bd
000003f0: d728 223d 10c2 a73b 6f91 c5bc d6f1 fa3c
0.075721614 -0.028225617 -0.058734156 -0.024160454 0.039187264 0.026669985 0.0430137 0.036381982
-0.007990811 0.073314406 -0.004617585 -0.05017321 0.024899803 -0.036614846 0.04383608 -0.07255046
0.029640337 -0.00463194 0.020389393 -0.041076753 -0.039801612 -0.10743221 0.0013217222 -0.026096916
0.061513003 -0.03785553 -0.032569066 0.00047584384 0.056224227 0.013637541 0.001437178 0.06817215
0.03986554 0.0096771605 0.026345173 -0.040159605 -0.025956022 0.014019712 -0.07087 0.011585821
0.08982927 0.003627394 -0.017863939 -0.023168486 0.013915426 0.020283185 0.05785937 -0.00930731
-0.0028310951 0.010067423 -0.041214548 -0.06615589 0.028829224 -0.04858617 -0.03291181 0.08295399
-0.025850207 -0.049516834 -0.047046635 -0.047283046 -0.026313018 -0.02944849 0.03829878 0.0166939
0.013740401 -0.05700092 0.033988312 0.014651282 -0.106111735 0.12172445 -0.027096713 0.026659776
-0.031070903 -0.0020756796 -0.07198598 0.0625349 -0.009615554 -0.099408165 -0.016017167 -0.054483123
-0.053022914 0.05472574 -0.050523512 0.020417077 -0.04331945 0.04028142 -0.03810802 0.005827965
0.011405009 0.038616892 -0.014745091 0.0037162353 -0.023772478 -0.05244284 0.004771313 0.011739296
0.21230313 0.17209618 0.05520274 -0.0870063 -0.018534772 -0.0016556539 0.057840403 -0.094980136
-0.028029859 -0.09850443 -0.019114593 0.0655564 -0.052043132 -0.042795025 0.07694834 0.03181446
-0.010939619 -0.0034940606 -0.023453677 -0.04251438 -0.14546719 -0.015718898 -0.09011545 0.032183725
0.07804204 0.0013408944 0.0071450174 -3.234821e-05 -0.060427457 -0.0030531802 0.016749127 0.0020537847
0.0044424008 -0.011895849 0.0683371 0.015070029 -0.041696433 -0.019336889 -0.097464085 -0.00049870135
0.021080082 -0.009032471 -0.07831652 0.12901282 -0.08885808 0.037825465 -0.0032105176 0.07328481
-0.0694607 -0.1282496 -0.034057375 0.025012318 -0.049186733 -0.06384361 0.07008306 -1.3333052e-36
0.07110034 0.0443769 -0.037870694 0.08446607 0.07825808 0.06268167 0.118249424 0.062991224
0.047402043 0.10183588 0.06613809 0.03676783 0.04442026 0.102579005 0.059596453 0.037548676
-0.002083047 0.049032334 -0.011024638 0.035454642 0.042393368 0.03881513 0.09365537 0.05730285
-0.019101948 0.013961517 0.06508443 0.09931557 -0.04879628 0.03500257 0.0026522176 -0.0068981615
-0.010177972 0.084237315 0.027586618 0.04662949 0.0779387 -0.017118812 0.07049943 -0.007084798
0.05206218 0.039543316 -0.012491326 -0.029647516 0.041562088 -0.020395696 0.04736312 -0.051816523
0.029843371 0.0069374717 -0.008294583 0.11426108 -0.012468816 0.033908147 -0.025189986 -0.032396857
-0.0058902423 0.010858375 -0.010806766 0.018111175 0.044243388 -0.03179046 0.016440196 0.08385261
0.07988499 0.054467287 -0.030679014 -0.119790934 0.022329614 -0.0319268 -0.062053237 0.06502288
0.010265053 0.04203326 0.004705579 0.031646427 0.022344895 0.05048189 -0.12131134 0.098955005
0.014829362 -0.02066454 -0.039033126 -0.03885547 -0.07761181 0.007153298 -0.020834222 -0.10463963
-4.731097e-37 0.03673372 -0.0015488588 -0.06840977 -0.057084177 0.06275972 -0.024569416 0.0044297585
-0.054200575 -0.067553796 0.05532425 -0.04082515 0.03958973 0.0051195696 -0.0241172 0.030632894

convs.0.lin_l.bias f4 [128]
00000000: acbd 233c 6510 17bd 3097 f4bc 64a4 87bc
00000010: 122e 493d c42e 04bd c21c 48bc e246 eabc
00000020: d5b0 06bc 7636 0b3d cd7e 363c c367 cabc
00000030: faaa 2a3b 05e9 0cbd ad0a 43bd 37a0 24bd
00000040: c3e7 78b9 2d19 74bd a0dc 0b3d 8cbd 48bd
00000050: 0b2e f43c 41b7 1fbd 7354 60bd 58fb 0abd
00000060: c2a7 423d 0a48 dc3a 8590 9dbc 7995 5cbd
00000070: 4b99 3dbd 6ccb 983b 6549 363d a872 7d3d
00000080: c4ec 163d ca92 31bd b216 123d ed56 97bd
00000090: 2c29 5bbd a313 7d3d b748 3bbd 8e31 53ba
000000a0: c85a f53c df78 0ebd 7745 20bd ee28 3f3d
000000b0: 3c38 c0bc b81e 9dbc fcc2 293d 313e 0fbd
000000c0: fa99 52bd 659a 203d 3146 173c e3b9 3dbd
000000d0: 674f 96bd 648d 65bd eaf9 0cbd b229 8abc
000000e0: 3afb 763b ac90 d43c 5c1b 353c 796b bdbc
000000f0: 7c64 4e3d bdab cebc abd6 87bd 9fa4 6abc
00000100: 0bc9 713c a074 34bc f8fa c23c 7b45 31bd
00000110: f8a2 4b3d 06b3 29bc 6e13 a8bc b4d7 f9bb
00000120: 4445 063d a230 6d3b 0a15 dabc 5cdc 4bbc
00000130: 6208 7e3d 8e6b 3c3d 5bab 773c 1b42 2cbd
00000140: fba4 ce3c 8702 d23c 5601 203d 7554 c33c
00000150: e4ca 63bd b1cd 4f3b f617 ce3c 3641 a93c
00000160: 53e5 0c3a 7af9 4cbd 6ddb 1f3d 3e8e 8d3c
00000170: 20ed 783c aba8 4a3c 3ff0 63ba dd08 aebc
00000180: fb86 063c cffc ea3c be80 4cbc 43ce 02bd
00000190: ceef 283d 86ae 0ebc 41bb 48bd 2c5e 2ebd
000001a0: 4f9c 02bd 3d91 9dbb 7b24 e2bc 3134 993b
000001b0: 78db b73c 04fa 53bd a0f2 353c 556f 8f3d
000001c0: 3e00 64bc 5f79 0d3d c4d4 903c 3739 383c
000001d0: f0e1 e33b 0cae e4bb cfc4 26bd 81dd 72bd
000001e0: 6ece 1b3c 4d9d 4dbb 5126 113d 4469 b9bc
000001f0: 9256 5fbc 32c2 f13c 2f55 6dbd f378 213c
0.009993952 -0.03688087 -0.029857248 -0.01655788 0.0491162 -0.03227116 -0.012213888 -0.028598253
-0.008220871 0.033987485 0.01113863 -0.02470768 0.0026041851 -0.034401912 -0.047617603 -0.040191855
-0.00023737461 -0.059594322 0.03414595 -0.04900889 0.029807111 -0.038993124 -0.054768037 -0.033931106
0.047523268 0.0016806137 -0.019233951 -0.053853486 -0.04628877 0.0046629217 0.04450359 0.061876923
0.03684689 -0.04335288 0.035666175 -0.07389627 -0.05350606 0.061786305 -0.045723643 -0.00080563955
0.029950514 -0.03478324 -0.039128747 0.046669893 -0.023464315 -0.019179687 0.041445717 -0.03497142
-0.051416375 0.039209742 0.0092330435 -0.046319854 -0.073393635 -0.056043044 -0.034418024 -0.016865585
0.0037686364 0.025947891 0.011053886 -0.023122536 0.050388798 -0.025228376 -0.066327415 -0.014321475
0.014757405 -0.011014134 0.023801312 -0.043279152 0.049715966 -0.010357624 -0.020517077 -0.007624591
0.0327809 0.0036192317 -0.02662136 -0.0124426745 0.062019713 0.04600101 0.015116538 -0.04205523
0.025225153 0.02563597 0.039063774 0.023843983 -0.055613413 0.0031708295 0.02515791 0.020660978
0.0005374748 -0.050042607 0.03902762 0.01727974 0.015193254 0.012369315 -0.0008695162 -0.02124446
0.008210893 0.028685002 -0.012481866 -0.031934988 0.04124432 -0.008708602 -0.049006704 -0.042570278
-0.03188735 -0.0048085735 -0.027605286 0.004675411 0.022443518 -0.051752105 0.01110521 0.07003657
-0.013916073 0.034539577 0.01767958 0.01124411 0.006954424 -0.006978756 -0.040715035 -0.059293274
0.009509666 -0.0031374276 0.035436932 -0.022633202 -0.01363148 0.029511545 -0.057942566 0.009855497

convs.0.lin_r.weight f4 [128, 262]
00000000: b4eb 353d 002f 09bd 6054 e9bc 01d4 783d
00000010: 3ce9 83bc 2db7 b9bc d397 073d 89d4 4abc
00000020: 5a5e 7e3c 9bd0 d8bd 84b5 fa3b 97c9 05bd
00000030: 3a55 183c 8bb3 613d a23b d3bc 9655 653d
00000040: 04d3 95bd 53eb a1bd 4410 1a3d 08d2 17bd
00000050: d029 773d 9f3c c8bc ef9c 3fbd 57d2 9a3c
00000060: 8ae4 33bb e4d2 423d f5a8 71bd d87d f0bb
00000070: 00aa 0f3c 82b9 3d3d 5734 583d 57fa a583
00000080: 60e4 8bbd e959 11bc 2b96 443d 0f74 d43d
00000090: ecf7 073d 2d29 3a03 20f0 0482 205d bdbc
000000a0: 354b 15bd 894f 2f3c d517 4c3c 994a 863d
000000b0: b14d 873c cbd9 2fbd 9b49 403d 11ff 8f3c
000000c0: 6ac1 e203 913a c603 861a 0f3d 74de 013d
000000d0: 1853 d73c e3cc 9d3c 2c99 9c3d e832 c500
000000e0: 22cc 5f3d 0ae4 54bd 8b52 32bb b096 9a82
000000f0: 438f 4983 1a8c a5bc 68bc bf02 7f52 6e3d
00000100: 7f2e 033d 8c88 e301 fd6d 973d 5ad9 083d
00000110: 59e3 193c 0f51 42bc 618c af3d a626 9f82
00000120: c72c fbbd 1517 c9bc 8b07 5c3d b274 c33d
00000130: 34c3 04bb 839b 76bc a802 1482 2a14 90bd
00000140: df41 e8bb 47f2 7882 0cd7 d63b d789 14bd
00000150: 5fd3 743d 5b1e ccbc 3d6e 00bc fa94 c03c
00000160: 1844 843c da45 5183 70e0 3180 90b4 e000
00000170: ca34 10bd fb06 a2bc fa49 a183 0473 a0bd
00000180: adf7 f63d ac7e 07bd d6b1 053d 3867 9b3c
00000190: 74a4 ad3c 3b64 7a3c fe70 9dbd f6c7 8b82
000001a0: bd78 9fbc 3387 98bd 3297 a6bc fb00 563a
000001b0: 2eb2 1b83 e19d fcbc 957b 233c 9723 2d3c
000001c0: 54a1 0ebd bfe3 1e3d d5a5 4e3d ff49 513c
000001d0: ad2b dcbb 0f86 fc3b 53ca 383d d8a9 89bd
000001e0: 823d a982 627a 8783 34ff a801 5f34 4783
000001f0: 9090 9ebc f4f7 2d02 2ad3 2803 70dc 9382
00000200: 0ab2 a682 a22e eabb 9354 4b03 f951 2d3b
00000210: 3c0e d583 6620 7603 defb ef3c 0dac b603
00000220: 1a1e 38bd 3bd3 f6bc d61a 8fbb 67b1 d183
00000230: b6d3 123d d962 41bd 7d38 f6bb e3ef 6603
00000240: 882d 7402 70a3 ab3b 78c4 d3bc ff17 af3c
00000250: 42a1 a2bd 10f8 4a3d 4807 813a 9cfd 1b03
00000260: 97b6 753d f961 6502 ba3b e7bb 9085 9f3b
00000270: 5699 843c 084d 28bd 09b0 903d 4116 333d
00000280: 7f7a 913c 048e 1bbd d34e 9e3c 2c68 58bc
00000290: 6afb f4bc 634a aabd 3555 f83a 0f19 fcbc
000002a0: 2a64 1d3d 13b2 9cbc 156c 203d 1a20 96bd
000002b0: 78d7 82bd 79f4 ee3b fba1 c13c f2a8 6dbd
000002c0: 15b0 b2bd aaf9 8a3c 654e a53d 43e4 85bc
000002d0: 9d36 303d bc17 b4bc c9ab 853d 5d47 10bd
000002e0: e5c1 8b3b b05c e83c 7cfd 4dbb 1737 8f3d
000002f0: d10a af3b f608 20bb 23c5 52bd 32d5 98bc
00000300: 5bfe c8bc e1e3 94bd 1aba 573d f202 bb3b
00000310: 2b12 68bd dec1 0bbb f43d 2383 62fd 08bd
00000320: 7b16 1dbd c500 18bd 88c8 b63c 437f 6b3d
00000330: 4ec4 b13d 64e2 60bb 9a69 30bc b801 b83d
00000340: 45e6 27bd f5af 1c3d d9a9 80bc 49d9 a23d
00000350: 8404 e8bb 9db7 6cbd d9c2 80bd c9c4 6abc
00000360: 8760 bebc 6994 d4bc bb89 1a3d b09f 373d
00000370: 0cd4 e6bc b97f 493c 622f 65bd c318 b382
00000380: 00a8 263d 8f16 8ebc 79f1 f33c c95f 6e02
00000390: 1ac1 153d 7dfd 21bd 1472 d0bc 019c be3c
000003a0: f09b 2800 2ebe 90bc d045 b6bc a892 763b
000003b0: 3695 84bc d157 053d 9e04 bb3c adbe c93c
000003c0: d2ca 3403 fc30 8503 f7a6 a8bc b63e c53c
000003d0: 86fb 41bd 60c7 a73c b24e f8bc 7b6a 333d
000003e0: 63ce 733d 453e a8bc 0514 0abd ceae 643b
000003f0: 0bfa 0fbd f5eb 80bd 4b77 2a3d 08a5 0e3d
0.044414237 -0.03349209 -0.028482616 0.060749058 -0.016102426 -0.022670353 0.033103775 -0.012379774
0.015525425 -0.10586663 0.007651033 -0.032662954 0.009297663 0.055102866 -0.025785271 0.055989824
-0.07315639 -0.07906213 0.03761317 -0.037065536 0.06034261 -0.024442969 -0.046780523 0.018899126
-0.0027449452 0.047564402 -0.05899902 -0.0073392205 0.0087685585 0.046319492 0.05278429 -9.755304e-37
-0.068306684 -0.008871534 0.047994774 0.10373699 0.03319542 5.4707755e-37 -9.766741e-38 -0.023115695
-0.036448676 0.010700115 0.012456854 0.06557197 0.016516538 -0.042932313 0.046945196 0.01757768
1.3327492e-36 1.165084e-36 0.034937404 0.03170629 0.02628474 0.019262737 0.07646403 1.8109854e-38
0.054638036 -0.051975287 -0.0027209844 -2.2714757e-37 -5.9233048e-37 -0.020208407 2.8173068e-37 0.058184143
0.032026764 8.3582566e-38 0.073940255 0.033410408 0.009392583 -0.011860146 0.08571697 -2.3385133e-37
-0.122644 -0.02454714 0.05371813 0.09543742 -0.0020257952 -0.015051725 -1.0874085e-37 -0.07035096
-0.0070879306 -1.8289693e-37 0.0065563973 -0.036264267 0.05977189 -0.024916818 -0.007838783 0.023508538
0.01614575 -6.1499765e-37 -4.580452e-39 2.0635925e-38 -0.035206594 -0.01977872 -9.479714e-37 -0.078344375
0.12058959 -0.033079788 0.0326403 0.018970117 0.021196581 0.015282686 -0.07687567 -2.0538986e-37
-0.019466752 -0.07447662 -0.020335767 0.0008163598 -4.5754946e-37 -0.030837001 0.009978195 0.010567567
-0.034821823 0.038791414 0.05045112 0.01277399 -0.0067190737 0.0077064107 0.045114826 -0.06721848
-2.4867622e-37 -7.962685e-37 6.207965e-38 -5.8540963e-37 -0.019356042 1.2781192e-37 4.9613167e-37 -2.1726234e-37
-2.4493697e-37 -0.0071466723 5.9753425e-37 0.0026446565 -1.2522283e-36 7.2330094e-37 0.029294904 1.07364995e-36
-0.044950582 -0.03013002 -0.0043672128 -1.23246455e-36 0.035846435 -0.04721341 -0.007514058 6.78663e-37
1.7939356e-37 0.005237989 -0.02585052 0.021373747 -0.07940914 0.049552977 0.0009844089 4.5841535e-37
0.059988584 1.685238e-37 -0.0070566805 0.004868217 0.016186398 -0.041089088 0.07064826 0.043722395
0.017758606 -0.037977234 0.019324696 -0.01320843 -0.02990504 -0.083149694 0.0018946292 -0.030773668
0.038425602 -0.019127881 0.039165575 -0.07330342 -0.06388754 0.007292327 0.023636809 -0.058022447
-0.08724991 0.016964752 0.08071593 -0.016344195 0.043020833 -0.021983974 0.06526906 -0.035224307
0.0042650574 0.02836451 -0.0031431606 0.069929294 0.0053418656 -0.0024419404 -0.051457535 -0.018656347
-0.024535349 -0.07270027 0.052667715 0.005707138 -0.05665795 -0.002132527 -4.7972513e-37 -0.03344477
-0.038351517 -0.03711011 0.022312418 0.057494413 0.0868002 -0.0034314627 -0.010767365 0.08984703
-0.040991087 0.038253743 -0.01570599 0.079516 -0.0070806164 -0.057792295 -0.06287164 -0.014329144
-0.023239387 -0.025949674 0.037729006 0.044830024 -0.028177284 0.012298518 -0.05595339 -2.6315899e-37
0.04068756 -0.017344741 0.02977823 1.7512967e-37 0.03656111 -0.039548386 -0.025445022 0.023267748
3.72936e-39 -0.01766881 -0.022250086 0.0037624035 -0.01618443 0.03255445 0.02282935 0.024627054
5.313007e-37 7.828284e-37 -0.020587428 0.024077754 -0.047359012 0.020480812 -0.030310962 0.04380272
0.059522998 -0.020537505 -0.0337105 0.003489423 -0.03515057 -0.06295005 0.041617673 0.034825355

convs.1.lin_l.weight f4 [64, 128]
00000000: e607 f8bc b79a a7bd 00d4 3abb 26be 13bc
00000010: 3312 bdbd ac11 673d 35fa 2c3c 71ef 65bd
00000020: 58b7 fe3c 9d9d 633d da99 91bd d9c8 a63d
00000030: 432e 893c f1ab e43b 15b6 c6bd 5bff 593d
00000040: 7682 913d cb5d 233d 7d9d dc3c b084 253b
00000050: ad41 36bd 3474 39bd 620f 6ebd 253b f43c
00000060: 2ddf e63b c866 f4bc 88e9 d93c 9b8f 953d
00000070: ae5d f53c 8cb2 3d3d 75dc d0bc 807e cfbd
00000080: a5f7 c9bd 14c0 bfbd 08c7 cdbb 4792 ccbd
00000090: 14e9 99bc 2e3f 163d a32c 16bd e747 c4bd
000000a0: fef5 de3b da4d d33d 5fcb febc 34af 763d
000000b0: 6e14 6dbd ba1d 80bd 2f04 a6bd b002 34bc
000000c0: 7d89 70bd 3cd5 14bd 8ab8 d4bd 2919 6a3d
000000d0: d7f9 103e 8c5a 27bd 1901 f03c 0c51 403d
000000e0: d842 05bd fe2d 013b 2a79 f0bc cde7 e0bd
000000f0: 6122 353c 24c7 f7bd 2fe2 a13d 17ee 853c
00000100: 9420 fdbd 2467 b2bb 4a11 6f3c d7a3 96bc
00000110: b3a6 4cbc a47d 86bd 0b39 e23c 43c8 6dbd
00000120: bfee 04be f8a0 89bd 0ed8 7bbc 8e1d 1c3c
00000130: 305c abbd 32a3 bbbc 4fce d23d bc7e 3abd
00000140: 2c7d aabd ec7e f33d a152 babd cc1e 02bc
00000150: 1b6e 913c bc44 05bd 7e6f 30bc 2314 993d
00000160: 1f9d b83d 2449 abbb e1f6 e3bd 4813 25bd
00000170: c4a0 bfbc 9956 7bbb 12c5 acbd f006 b53c
00000180: 03be 313d a336 03bb 0b47 b53d 6d24 8f3c
00000190: 9883 683d e597 703d c17f 0ebe f00e a33c
000001a0: 42ba f9bb 4f03 b0bc 17e7 863d 7ded e5bc
000001b0: c3dc 33bd 85e5 9e3d 9b0f b73c 8de4 d7bc
000001c0: a5f4 a6bc 4650 72bc 4065 213d d8fd 84bd
000001d0: 8e9d 3fbd 8ca1 9fbd c755 76bd 1b1f a13c
000001e0: afa6 9e3c e335 d93c ea0c 92bc f20e d3bd
000001f0: 35da 9e3d 2e3a a5bd 785e 26be 5124 c43d
00000200: d2fe e3bc 6e0a 693d abc2 053b 64a8 c4bc
00000210: 82ca 8f3d a18b 333c af32 1abd 3e93 6abd
00000220: f759 5b3d 33e6 ccbc 0957 1e3d bf13 693d
00000230: 0d34 14bd 550b cabb 42f0 263d d42e 30be
00000240: 77e9 cabd 7fb1 0ebc 46ec 61bc d4e3 70bc
00000250: 9fef 8ebc e9f0 c4bd a493 513d c5f1 813c
00000260: 7301 163d e799 043d 49ca 9d3c dad4 933d
00000270: a913 1dbe 1dbe cd3d 3a9d d4bc dbed b13c
00000280: 5bf1 8fbd 1a2e 443e b2d1 5e3d c44c 203d
00000290: 4c56 a1bd dab9 2c3a ca14 b7bb 6e21 c4bd
000002a0: 56e6 1b3d 3ae2 36bc 1ffe 98bc 5860 25bd
000002b0: 09c2 35bd 7f7b 033c d4c7 78bd 877b 343d
000002c0: 5048 393d b91f 083c d0c9 613c e20d 21bd
000002d0: ba17 85bd 4951 a5bd ff0d 3cbd 719d 9fbd
000002e0: 6949 c33d a449 1e3d 13f1 853d db37 903c
000002f0: 4319 67bd 1f7c e63c 6b88 d23b 9f56 7abd
00000300: af60 9cbd f340 6b3d 2d81 b8bd 625a a43b
00000310: 0b5c 14bd 2ac3 883e aae7 8e3a c212 9dbd
00000320: c5ee debd e467 f1bd ef77 943d 98da bdbd
00000330: 5cd8 05bc bb86 19bd bd3b 503b 44c7 5ebd
00000340: f4b2 ec3a 8975 44bd f510 eebd 1250 fe3c
00000350: a49f 21bd e085 5b3c 0ef7 2a3d 1c0f 0dbe
00000360: 68b4 a33d 4e3b e2bc c2b8 913d f497 923b
00000370: d791 5ebc eaa8 903d 80cf 7ebd 48c4 0abc
00000380: 326a 5a3d e00d c5bd f4e1 373c 017b 7cbd
00000390: a43c 1f3d 6456 02bd c737 403d de8c 98bd
000003a0: 320e d7bc 2b36 163d b157 62bd e6d2 17bd
000003b0: 94e2 babd f819 9a3d 7d25 f4bc 4988 75bd
000003c0: 165c e6bc 156d 48bd 9e01 d43c d300 2f3c
000003d0: afc2 b8ba 11c7 8fbd 3268 b23d 8206 8ebc
000003e0: 1928 013d 72e9 80bd 399d b1bb 3e68 b2bd
000003f0: 673f a7bc 0ec7 443d 3b89 d2bd f774 a0bd
-0.030277204 -0.081838064 -0.002850771 -0.009017503 -0.09231987 0.056413338 0.010557701 -0.056136552
0.031093284 0.055570234 -0.07109423 0.081437774 0.016745692 0.006978505 -0.09702698 0.05322204
0.071049616 0.03988437 0.026930565 0.002525609 -0.044496227 -0.045276836 -0.05812014 0.029813359
0.0070456476 -0.029834166 0.026600614 0.07302781 0.029951897 0.046312854 -0.025495747 -0.1013155
-0.098616876 -0.09362808 -0.00627983 -0.09988838 -0.018787898 0.036681347 -0.036663663 -0.09584027
0.006804227 0.103175834 -0.031102834 0.06022568 -0.05788081 -0.0625567 -0.08106267 -0.010986969
-0.05872487 -0.03633617 -0.103867605 0.0571529 0.14157806 -0.040857837 0.029297398 0.046952292
-0.03253445 0.0019711251 -0.02935465 -0.109817125 0.01105556 -0.1209853 0.07904469 0.016348882
-0.123597294 -0.005444424 0.014591524 -0.018388672 -0.012490916 -0.06566933 0.02761509 -0.058052313
-0.129817 -0.067201555 -0.015371336 0.009528531 -0.08367193 -0.022904966 0.102932565 -0.04553102
-0.08324656 0.11889443 -0.090977915 -0.007941913 0.017752698 -0.032536253 -0.010768769 0.07474544
0.090143435 -0.005227225 -0.11131073 -0.04030159 -0.023392089 -0.0038351177 -0.08436026 0.022098035
0.0433941 -0.002002158 0.08851441 0.017473424 0.056766123 0.058738608 -0.13915922 0.019904584
-0.0076210806 -0.021485953 0.06587046 -0.028067345 -0.043911707 0.07758621 0.022346308 -0.026354099
-0.020380327 -0.0147896465 0.0394032 -0.06493729 -0.046781115 -0.077944845 -0.060140397 0.019668153
0.01936659 0.026514953 -0.017828424 -0.10305585 0.077564634 -0.080677375 -0.16246974 0.09577239
-0.027831469 0.056894712 0.002041022 -0.024006076 0.07021047 0.010958583 -0.037645992 -0.057269327
0.053552594 -0.025012111 0.038657222 0.056903597 -0.036182452 -0.0061659017 0.04075647 -0.17205364
-0.09907811 -0.008709311 -0.013789242 -0.014702756 -0.017448245 -0.096162625 0.05116619 0.015862355
0.036622476 0.032373335 0.019261496 0.072183326 -0.15339531 0.10046027 -0.025953878 0.021719864
-0.07028457 0.19158211 0.0543992 0.03913571 -0.07877788 0.00065889733 -0.005587195 -0.09576689
0.038061462 -0.011162335 -0.018675862 -0.040375084 -0.0443745 0.008025049 -0.060737446 0.044063117
0.04523498 0.0083083445 0.013781026 -0.03931988 -0.06498666 -0.080721445 -0.045911785 -0.077937014
0.09535486 0.038644448 0.06540122 0.017604759 -0.056420576 0.028135357 0.0064249537 -0.061117765
-0.076356284 0.057434987 -0.09009013 0.0050156573 -0.03622059 0.26711398 0.0010902782 -0.076695934
-0.108853854 -0.11787394 0.07249438 -0.09270209 -0.00816926 -0.037482005 0.0031773888 -0.054389253
0.0018058703 -0.047963653 -0.11624328 0.03104404 -0.039458886 0.0133986175 0.041739516 -0.13775295
0.07993394 -0.02761617 0.07115318 0.0044736806 -0.013584576 0.07063468 -0.062209606 -0.008469649
0.053323932 -0.09621787 0.011223305 -0.061640743 0.03887619 -0.03182067 0.046928193 -0.07448743
-0.026251886 0.036672752 -0.05525941 -0.037066363 -0.091252476 0.075244844 -0.029803032 -0.059944425
-0.028120082 -0.048932154 0.025879677 0.010681349 -0.0014096106 -0.07020391 0.0871128 -0.017337088
0.03153238 -0.06294526 -0.0054203537 -0.08711289 -0.020415975 0.048041396 -0.10280081 -0.07834809

convs.1.lin_l.bias f4 [64]
00000000: a9c6 893d f2a6 4a3d fd50 4cbd 67b7 3c3c
00000010: 45df e03c a3e6 5f3c aec9 30bd a909 7a3d
00000020: 1441 7a3d 64f5 853c 2c7d 86bd 325c b53b
00000030: 7fa8 893d d962 6a3c 8399 fdbb fdc2 473d
00000040: 1b16 2e3d 7093 8c3c 067b efbc 5672 4bbb
00000050: fcce 62bd ca8e 1ebd 4fee 9ebc 3390 f63c
00000060: 4c36 bfba 4aec 753d 35b6 403c dab9 503c
00000070: 1904 febc 0e80 723c c0e6 75bd fc67 453c
00000080: d4d2 15bd 6067 3dba 9b03 63bd e8cf 813d
00000090: 59ed 813c 8d9d aebc 5417 823c b911 493d
000000a0: 9981 a3bc 0623 dc3c 3962 90bd 0ef6 743d
000000b0: ed8f 8e3d 4285 aebc d5b6 243d 441a 7f3c
000000c0: 98be c83b 1f19 0e3d 369d dcbc ab5a 82bc
000000d0: 0df2 253d d84d 16bd 084d e73b ce07 6bbc
000000e0: 42ea 4c3d 2bdb c33c 5ec9 833d d2da cdbc
000000f0: 0d22 92bd d01f e53c 441a bfbc 13c8 153d
0.067273445 0.049475618 -0.049881924 0.011518336 0.027450213 0.013665828 -0.043161087 0.06104437
0.06109722 0.016352363 -0.065668434 0.005534672 0.06721591 0.014305794 -0.0077392473 0.04876994
0.04250155 0.017160147 -0.029233467 -0.0031043491 -0.055373177 -0.038710393 -0.019400744 0.030098056
-0.0014588325 0.060039796 0.011762192 0.012739623 -0.031007813 0.014801038 -0.060034513 0.012048718
-0.036578014 -0.0007225182 -0.05542336 0.06338483 0.015860246 -0.02131536 0.015880264 0.049089167
-0.019959258 0.02687217 -0.070499845 0.05980497 0.069610454 -0.021303777 0.040213425 0.015570227
0.006126236 0.034691926 -0.026930433 -0.015912374 0.04051404 -0.03669533 0.0070587434 -0.0143451225
0.050028093 0.023908218 0.06434892 -0.025128756 -0.07135401 0.027969271 -0.023327954 0.03656776

convs.1.lin_r.weight f4 [64, 128]
00000000: c743 723d ff8b 07bd 7fe9 8fbd f91e 17bd
00000010: 8484 08ba 8952 bcbc 1015 8e3c e0cc 8e37
00000020: 3879 3f3c b814 35bc 943f 88bd c333 8a3d
00000030: 3352 18bd 8f17 37bd 6db9 b1bd 4be9 9abd
00000040: 38b8 a83c d2e4 56bd 827c 5bbd 2728 e3bc
00000050: 9fcd 24bd b284 12be 0d8a 87bd a443 3bbd
00000060: 46f3 c33c eede c2bd 0cce 403c e99f 5abd
00000070: 7c8e 5bbc 19bf 2cbd 8180 8c3c 3db0 42bd
00000080: 4fd8 42bd a771 ddbd 334c c339 1d75 73bd
00000090: 899c 9f3d 6d6a 163d 6d65 543c 7909 15bd
000000a0: 9072 e6bc 72af 7e39 a2e3 41bc 9dea 09bd
000000b0: 86da b93d bc8c d2bd 591c b5bd fc96 a8bc
000000c0: 1df1 5d3c 83cb fa3b 5a1a c6bc f432 8d3d
000000d0: db50 c83d ca3f 743d c09e 063d 121b c03d
000000e0: d836 77bd 9d1e 4cbb 997a 5b3d cfcd 4ebc
000000f0: 5f0c 73bd 59e6 d5bc 8f20 e23b dbb6 25bc
00000100: 9354 31bd 62be 3f3d b2ef b5bc 90b2 5cbd
00000110: acdb 003c d676 eabc cafd a7bd a8ba acbd
00000120: ddcc 33bd e16f 0cbc cc32 8b3c 0164 5dbd
00000130: 6919 f4bc 4c94 b03d 5773 de3c 9010 1cbc
00000140: 3303 a73d eb72 de3c 8ee9 0abc cf59 363c
00000150: 45de cf3d 1815 42bd f67b 853d 93d7 99bd
00000160: bbd7 c8bc d39b 403d 2a1d a9bc e13a 59bd
00000170: ad30 16bd bff7 88bd 6560 76bd 26a0 d73c
00000180: 1f12 71bd ff45 163d aeb1 543b 0807 95bc
00000190: c669 92bc 262a 033d 4d3f cfbc 02f6 06bd
000001a0: c2fb 83bd 1b69 1b3c 6edb c23c 0235 9ebc
000001b0: fba5 a03a 0c39 6ebc 937d 723b 8c4b 113d
000001c0: 6343 66bc 0f87 88bc 2826 e7ba 0151 efbc
000001d0: bce0 83bd b9de 11be 5d44 bd3b 2c14 71bd
000001e0: 3a63 91bd e392 ddbd a293 12bd 43ab 4d3d
000001f0: 9f4c b13d 42d5 45bd 7bd2 ffbc d95e 3e3d
00000200: 8227 593c bb8f 823d 2756 ebbc 1a07 c13c
00000210: 62fc 8f3c a4f5 b03d ca44 a2bc d1eb 05bd
00000220: 7f85 f43c 1cec 13bb c832 e0bc abc7 e23c
00000230: d3d3 bc3c 6e37 12b9 50cf 08bd 3525 1bbd
00000240: dbd0 43bd 3453 f73c 50cd d63c 191b f53c
00000250: aaa2 17bd 8e46 06bd 0a93 85bc ede5 27bd
00000260: ce46 9b3c 6957 e8bc ead0 13bc 04f0 343c
00000270: 8eed acbc 8c93 abbb e376 d7bc 3cdd 2ebd
00000280: a963 0b3d cd5a 02bd 0917 fe3c a8d4 edbc
00000290: 735e 3ebd 5f02 103d 81df 173d a505 84bc
000002a0: db09 edbb ba7a 2ebd 95b9 ad3c 72b8 38bd
000002b0: c2c0 983c 3f9c edbc e7a4 203d 43c3 0b3b
000002c0: a451 1c3c aa02 efbb 380b 0dbd b7a7 29bc
000002d0: 740e 68bc 29ce 15bb c553 41bb 6fde 27bd
000002e0: f984 01bd 0d76 d63c ba5f c63b 9f34 06bd
000002f0: 8dcf f5bc 242d 23bd d3e6 db3c 8498 633c
00000300: c906 acb9 95ed 213d bc2d 12bd 7ea9 47bd
00000310: a818 9ebc bc68 91bc 2fa3 25bd 09e2 c0bc
00000320: eec8 4fbc 8d51 64bd 11fc 18bc c7e0 55bd
00000330: ddf6 ef3b d334 b63c 1999 6d3c b2fa 83bc
00000340: 7ed0 be3c 9716 0fbc 5831 abbc 14ef 7c3c
00000350: 0d91 0b3b 3d19 8fbc 5dae d03c f7d0 f0bc
00000360: 9473 6f3d e781 4d3d f3f7 86bc 01bd 233c
00000370: dff4 0c3d 2473 243c 3635 84bd d6ce b4bc
00000380: 4794 80bc 5945 9dbc a7fa 0bbd d3a9 58bd
00000390: f742 963c 1f59 30bd df9c 453c 7289 e5bc
000003a0: 1584 fb3b aa41 09bd 0819 7bbd 0b1f 88bc
000003b0: 73df 56bc 1d47 13bd 9638 a23c 53c7 abbc
000003c0: 4dec 673c 7434 b53c 71d2 84bd 1e73 19bc
000003d0: 30ff a4bc b7ff 64bd 776e 333c edfe 8abc
000003e0: f950 a13c 8ad6 34bd 3e7a 8dbc 650e ae3c
000003f0: ed92 bfbc 2641 3bbd 8f6e 88bd 938d 41bd
0.05914667 -0.033092495 -0.07026958 -0.036894772 -0.00052077346 -0.022988575 0.017344028 1.7023121e-05
0.011686616 -0.011052303 -0.066527516 0.06748154 -0.037187766 -0.0447002 -0.08677945 -0.07564028
0.020595655 -0.052464314 -0.053585537 -0.027729107 -0.040235158 -0.14308432 -0.06618128 -0.045718804
0.023919713 -0.09515177 0.011767875 -0.05337516 -0.01340067 -0.042174432 0.01715112 -0.047531355
-0.04756957 -0.10812693 0.0003725007 -0.05943786 0.077935286 0.03672259 0.012963635 -0.036385987
-0.0281308 0.00024288686 -0.011834057 -0.03367101 0.09074883 -0.10280749 -0.088432975 -0.020579807
0.013546255 0.007653655 -0.024182487 0.06894484 0.09781047 0.059631146 0.03286624 0.09380163
-0.060355037 -0.0031146177 0.053583715 -0.012622311 -0.05933797 -0.026110815 0.006900854 -0.010114397
-0.043293547 0.046812423 -0.022209022 -0.053881228 0.007864874 -0.028621119 -0.08202703 -0.08434039
-0.043896545 -0.008571596 0.016991995 -0.05405045 -0.029797273 0.086220354 0.027154608 -0.009525433
0.08154907 0.027154407 -0.008478535 0.0111298105 0.101498164 -0.047383398 0.06517784 -0.07511821
-0.02451693 0.047023606 -0.02064379 -0.053034667 -0.036667515 -0.06687879 -0.060150523 0.026321482
-0.058855172 0.036687847 0.0032454538 -0.01819183 -0.017872702 0.032022618 -0.025298739 -0.032949455
-0.06444503 0.009485508 0.023786273 -0.019312385 0.0012256497 -0.014539968 0.0037001118 0.035472438
-0.014054152 -0.016665963 -0.0017635273 -0.02921343 -0.06439349 -0.14245118 0.005775972 -0.058857128
-0.07099004 -0.10819032 -0.035785325 0.050212156 0.086571924 -0.04829908 -0.031228295 0.046477173
0.013254048 0.06375071 -0.028727604 0.023562957 0.0175764 0.08640602 -0.019808192 -0.032695595
0.029848812 -0.0022571152 -0.027367964 0.0276831 0.023050224 -0.00013944294 -0.033400834 -0.03787728
-0.047806602 0.030191042 0.026220948 0.029920148 -0.037020363 -0.03278213 -0.016305465 -0.04099076
0.01895466 -0.028361993 -0.009021977 0.011043552 -0.021109369 -0.005236095 -0.026301807 -0.042691454
0.03403059 -0.031824876 0.031016843 -0.029032066 -0.046476793 0.03515851 0.037078384 -0.016115973
-0.007233841 -0.04259751 0.021206656 -0.045097776 0.018646602 -0.029005168 0.039219763 0.0021326102
0.009540949 -0.0072940188 -0.034434527 -0.010354928 -0.014163602 -0.0022858477 -0.0029499393 -0.040983614
-0.031620953 0.026179338 0.006053892 -0.032765027 -0.030006194 -0.03983797 0.026843464 0.013891343
-0.00032811452 0.039533217 -0.035688147 -0.048745625 -0.019298866 -0.017750137 -0.040438827 -0.023545282
-0.012682183 -0.055741835 -0.009337441 -0.052216318 0.0073231296 0.022241985 0.014501833 -0.016110752
0.023292776 -0.008733413 -0.020897552 0.01543786 0.0021296174 -0.01746809 0.025473768 -0.029396517
0.058459833 0.050172713 -0.016475653 0.0099937925 0.034413215 0.010037217 -0.06455462 -0.022071283
-0.015695704 -0.019198107 -0.034174588 -0.052896332 0.018342478 -0.043053742 0.012061327 -0.02801964
0.0076756575 -0.033509888 -0.06130317 -0.016616365 -0.013114798 -0.03595649 0.019802373 -0.020969069
0.01415546 0.022119738 -0.06485451 -0.009365825 -0.020141214 -0.05590793 0.01095163 -0.016967261
0.019691931 -0.044149913 -0.017270204 0.021247098 -0.02338549 -0.045716427 -0.066617124 -0.047254156
