notebooks/runs_graphsage/run1_20251027T083914Z/graphsage_encoder_run1.pt (torch, 59752 bytes, 3 tensors)

convs.0.lin_l.weight f4 [32, 223]
-0.111503765 -0.031164054 -0.029713564 -0.14676487 0.040368807 -0.5210547 0.3357551 0.21960445
0.13081892 0.2794893 0.43070924 0.038661335 0.06540875 0.06569555 -0.24889787 -0.018451756
-0.36024022 -0.014180331 -0.13217044 -0.13989584 -0.035254784 0.11934637 -0.07915262 0.33362114
-0.38454145 0.0022423437 0.20040224 -0.05765454 -0.08064751 -0.5154427 0.14054367 0.05833542
0.11127755 0.48117414 -0.14783643 -0.25221345 0.06935906 0.44603938 -0.019983333 0.21446323
-0.48317483 -0.313274 0.07124463 0.42247328 0.05038676 0.029748145 0.08969984 -0.047296077
0.14059885 -0.42518523 -0.3940264 -0.056899972 0.41363588 0.22281423 -0.14096357 0.19598603
-0.23887843 0.10937679 -0.09047136 -0.056265783 -0.7868787 -0.023619471 0.5785021 1.8433189
0.5568423 -0.0779938 -0.5283867 -0.04738001 -0.114686206 0.29687077 0.059680592 -0.65834105
0.04977669 -0.16491054 0.49134627 -0.5717772 -0.028208155 0.09348954 0.9183158 0.09442641
0.60696983 0.41278622 0.0016494753 0.0050594755 0.18584391 0.53724056 -0.062390745 -0.16435032
0.33267477 -0.108088456 -1.1768467 0.24422592 -0.5026126 0.056054644 0.035612576 0.5290939
-0.14108911 -0.0029120245 0.08513144 -0.0837188 -0.4117273 -0.23606965 0.16310635 0.11971305
0.4560665 0.72826606 0.69953585 0.44359845 -0.046823684 0.09722727 1.4386486 0.23891579
0.7617561 0.1809149 -0.067244664 0.054142904 -0.108855344 -0.25166497 -0.18914779 -0.11748669
0.23045005 0.04568448 -0.3366417 0.3425325 -0.10934293 -0.050168898 -0.16482373 -0.23804638
-0.09845516 -0.61141586 -0.3498128 -0.5887483 -0.055798847 -0.1560788 -0.443758 -0.60061187
-0.5095426 -0.3238999 -0.56469536 -0.46704087 -0.79304785 -0.4236527 -0.8450706 0.08764401
-0.44859624 -0.11607594 -0.20607813 -0.67995876 -0.56319714 -0.6043409 -0.48924556 -0.5048654
-0.5431632 -0.5246593 -0.35159868 -0.21462773 -0.24882978 -0.2977363 -0.24263644 -0.33584967
-0.61655414 -0.33831954 -0.52662295 -0.31869057 -0.20581214 -0.21730322 -0.25020504 -0.34803972
-0.29533157 -0.4224209 -0.24636942 0.035083044 -0.052028514 -0.15434813 -0.3665516 -0.25210068
-0.040362258 -0.18416102 -0.08427909 -0.000393617 -0.057315215 0.19078939 0.101439714 0.041488323
0.19381846 0.047947444 0.11304193 0.3166424 0.19801266 0.21377352 0.1409386 0.090899445
0.036298912 0.16253603 0.3025111 0.36131132 0.18060803 0.29390752 0.07359584 0.12062004
0.06569325 0.1606704 0.16401148 -0.693593 -0.45698225 0.108643 0.007183778 -0.038356673
-0.094204314 0.08299106 0.2200158 -0.35935497 -0.033480734 0.043980267 -0.028197387 0.17639746
0.0575896 0.06780143 -0.022401668 -0.009562613 0.09948517 0.18232186 0.02981282 0.048806176
-0.0008541446 0.08464247 0.19620922 -0.19698143 0.3261529 -0.30628243 -0.38520396 -0.049161572
-0.1769594 -0.546978 0.05917491 0.07433679 0.14387175 0.3409804 -0.01975875 0.20872304
-0.15147094 0.09195031 0.2326706 0.011047801 -0.053066015 0.119349815 -0.49729174 0.32953745
-0.039438143 -0.31407598 -0.021150537 0.13896206 0.100373246 -0.010961939 0.018084127 -0.18716256
00000000: 165c e4bd c24b ffbc dc69 f3bc 8849 16be
00000010: c359 253d d763 05bf 18e8 ab3e fddf 603e
00000020: 65f5 053e 3919 8f3e ec85 dc3e 595b 1e3d
00000030: 06f5 853d 638b 863d 15df 7ebe 2328 97bc
00000040: 6871 b8be 9e54 68bc b057 07be db40 0fbe
00000050: 5267 10bd df6b f43d c51a a2bd 64d0 aa3e
00000060: 9ee2 c4be 49f4 123b 3f36 4d3e 2b27 6cbd
00000070: 862a a5bd 0ef4 03bf aeea 0f3e 1ff1 6e3d
00000080: 7ce5 e33d 755c f63e 6f62 17be 1f22 81be
00000090: 1f0c 8e3d 465f e43e 16b4 a3bc 409c 5b3e
000000a0: b162 f7be 7365 a0be b4e8 913d 6b4e d83e
000000b0: 5962 4e3d 62b2 f33c 8db4 b73d 88b9 41bd
000000c0: 25f9 0f3e e1b1 d9be d4bd c9be f20f 69bd
000000d0: 15c8 d33e 6a29 643e c158 10be 90b0 483e
000000e0: 8c9c 74be f000 e03d 0c49 b9bd f376 66bd
000000f0: e270 49bf 9f7d c1bc b718 143f e0f1 eb3f
00000100: 388d 0e3f 37bb 9fbd 5a44 07bf 8b11 42bd
00000110: 9ae0 eabd 72ff 973e a373 743d 0a89 28bf
00000120: a4e2 4b3d 4fde 28be bd91 fb3e fe5f 12bf
00000130: ca14 e7bc 7277 bf3d bf16 6b3f a262 c13d
00000140: 6062 1b3f b758 d33e 3533 d83a f5c9 a53b
00000150: de4d 3e3e 9988 093f 708d 7fbd 734b 28be
00000160: 5954 aa3e 7b5d ddbd eaa2 96bf 5c16 7a3e
00000170: 38ab 00bf 8e99 653d 7ede 113d b372 073f
00000180: aa79 10be aad7 3ebb 6459 ae3d c374 abbd
00000190: eccd d2be 3ebc 71be 5a05 273e 1e2c f53d
000001a0: 8c81 e93e a56f 3a3f c814 333f 561f e33e
000001b0: 31ca 3fbd 171f c73d a325 b83f 57a6 743e
000001c0: 7302 433f c141 393e 92b7 89bd f3c4 5d3d
000001d0: 8def debd 3bda 80be f5af 41be dd9c f0bd
000001e0: 19fb 6b3e a61f 3b3d 4d5c acbe 6b60 af3e
000001f0: 30ef dfbd e77d 4dbd 8dc7 28be 6ec2 73be
00000200: dca2 c9bd c085 1cbf aa1a b3be 35b8 16bf
00000210: 558d 64bd 1fd3 1fbe 4034 e3be b3c1 19bf
00000220: 6271 02bf 35d6 a5be e08f 10bf fb1f efbe
00000230: 2f05 4bbf 02e9 d8be 8c56 58bf b47e b33d
00000240: 68ae e5be 39b9 edbd 2506 53be c711 2ebf
00000250: b02d 10bf 16b6 1abf 657e fabe dc3e 01bf
00000260: be0c 0bbf 1250 06bf be04 b4be 5fc7 5bbe
00000270: 3ccd 7ebe e470 98be b075 78be 7df4 abbe
00000280: 7ed6 1dbf 3838 adbe c3d0 06bf 692b a3be
00000290: 6bc0 52be bc84 5ebe e01a 80be 4332 b2be
000002a0: b335 97be 8d47 d8be 4448 7cbe 3db3 0f3d
000002b0: da1b 55bd 700d 1ebe a7ac bbbe 5713 81be
000002c0: e552 25bd b594 3cbe 849a acbd 615e ceb9
000002d0: 5cc3 6abd 4b5e 433e a0bf cf3d a9ef 293d
000002e0: 5978 463e 8a64 443d 8782 e73d f41e a23e
000002f0: d5c3 4a3e 72e7 5a3e 3552 103e 7d29 ba3d
00000300: 2bae 143d d86f 263e bce2 9a3e ccfd b83e
00000310: 50f1 383e 0c7b 963e 6ab9 963d a407 f73d
00000320: 2f8a 863d c886 243e a0f2 273e 508f 31bf
00000330: 94f9 e9be 3980 de3d e665 eb3b e31b 1dbd
00000340: 31ee c0bd 38f7 a93d d24b 613e 60fd b7be
00000350: 1823 09bd a724 343d 35fe e6bc 89a1 343e
00000360: 13e3 6b3d 7adb 8a3d b483 b7bc 82ac 1cbc
00000370: e1be cb3d 95b2 3a3e 043a f43c fce8 473d
00000380: ace8 5fba 0859 ad3d 12eb 483e 80b5 49be
00000390: 83fd a63e 0dd1 9cbe 7439 c5be a55d 49bd
000003a0: d834 35be c006 0cbf 6461 723d e33d 983d
000003b0: 1e53 133e fc94 ae3e 1add a1bc 7ebb 553e
000003c0: 331b 1bbe 7250 bc3d 3441 6e3e d601 353c
000003d0: c05b 59bd ad6d f43d 069d febe 22b9 a83e
000003e0: e489 21bd 91ce a0be e443 adbc 124c 0e3e
000003f0: 7d90 cd3d b499 33bc 2a25 943c 8ba7 3fbe

convs.0.lin_l.bias f4 [32]
0.01355617 -0.013211683 -0.0026049775 -0.015952306 -0.035251174 0.029964982 -0.0039556716 0.009910089
-0.048993934 -0.04952597 -0.020997979 -0.016275857 0.025642054 -0.014532226 0.026255189 -0.004114928
0.01897658 0.0015577954 -0.046638403 0.01162739 0.018011743 -0.012733217 -0.010991786 -0.018119983
0.01031594 -0.0688982 -0.0032248783 0.03016056 -0.056011956 0.0028350404 0.017821485 0.011331557
00000000: b31a 5e3c d175 58bc 45b8 2abb 69ae 82bc
00000010: 8963 10bd 1f79 f53c 949e 81bb ed5d 223c
00000020: ddad 48bd bedb 4abd f403 acbc f254 85bc
00000030: 490f d23c 9318 6ebc 1f15 d73c 85d6 86bb
00000040: c674 9b3c f12e cc3a e907 3fbd cf80 3e3c
00000050: 5d8d 933c fc9e 50bc e416 34bc 5c70 94bc
00000060: 3004 293c 801a 8dbd 7b58 53bb 4713 f73c
00000070: cb6c 65bd 16cc 393b 5dfe 913c ffa7 393c

convs.0.lin_r.weight f4 [32, 223]
-0.014273271 -0.030621033 -0.030956423 -0.014660534 -0.0067647463 -0.015808532 -0.009540572 0.0032892681
-0.003184168 0.011493755 -0.00092917157 -0.0016133537 0.0033142595 -0.009562604 -0.017085375 -0.00933369
-0.017807243 -0.009589942 -0.01948696 -0.0049323277 -0.0065567144 0.010620797 -0.0035085361 0.003826324
0.029047996 -0.0072600767 -0.008980437 -0.011485065 -0.007743622 -0.013177439 -0.00941765 -0.010791917
-0.017804997 0.011515099 -0.023540525 -0.014060522 -0.003920548 0.0064185825 -0.015632765 -0.012594194
-0.0049939067 0.0036989218 -0.01123763 -0.014288261 -0.009800045 -0.0026392555 -0.01694106 0.005725179
-0.015000206 -0.015723048 -0.014700435 -0.009009507 -0.011392179 -0.008677001 -0.0149079375 0.018788276
-0.017370116 -0.006643514 -0.009613013 0.012695368 -0.015066944 -0.0046201325 0.018232638 0.018481225
-0.015204873 -0.04662968 -0.00059294095 -0.018069325 -0.00608772 0.0013040622 -0.0020204491 -0.025741039
-0.0023338546 -0.034540057 0.0021441502 0.026975328 -0.014274173 0.00038111059 0.0091513675 -0.00970774
-0.0027116786 0.012133251 -0.017579751 0.0069550285 -0.007945695 0.016594311 0.01796992 -0.017792908
0.004349099 -0.01842054 -0.015259944 0.00074134924 -0.035407443 0.031967953 -0.005291132 -0.030065816
-0.015764687 -0.00979219 0.015317188 -0.012319513 -0.012125711 -0.004584066 0.0018914004 -0.009039727
0.000218615 0.0069863857 -0.016952975 -0.013978465 -0.0105921235 -0.005651551 0.030044565 -0.010481073
0.0049508573 -0.011295829 -0.017079353 -0.02701485 -0.024801148 -0.01231421 -0.021019857 -0.011846236
-0.015555588 -0.012941459 -0.017987039 0.00027638674 -0.22559981 -0.055526406 -0.11824499 -0.095960945
-0.1627986 -0.12912107 0.035293702 -1.0423845 -0.07478771 -0.10519189 -1.0871767 -0.06503045
-0.016154438 -0.010080609 -0.10762936 -0.14828488 -0.019358048 -0.005393792 -0.049298383 0.0076115043
-0.011612748 -0.0007823909 0.0013420226 -0.0796006 -0.025850566 -0.055059176 -0.012643666 -0.0046645394
-0.09814665 -0.008734504 0.0014531693 -0.022474747 -0.0066971644 -0.03438942 -0.015085312 -0.017237056
-0.032180857 -0.022088075 -0.030587252 -0.0124675 0.0006894497 -0.009861677 -0.017747398 0.003626436
-0.012551859 -0.0115204295 0.015510743 -0.0043219174 -0.0034797743 -0.0034329263 -0.007170398 0.0028400214
-0.005816367 -0.0041559786 -0.0075355037 -0.001884021 0.0063807694 -0.018679282 -0.008959147 0.005930961
0.020309003 0.0101766605 0.013607841 0.021475984 0.009529356 0.015956793 0.0060361177 0.004825271
0.003828459 0.020536123 0.013141549 0.013024986 0.022731202 0.016504455 0.01089932 0.00932406
0.007806961 0.0012693509 0.0033634452 -0.71259975 -1.0154757 0.013735853 -0.0003329528 -0.0084204
-0.0013575566 0.015000615 0.01406473 -0.041199595 0.015745813 0.009954638 0.020222107 0.03190915
0.019727869 0.021022141 0.0022765426 0.0138580445 0.015951363 0.011421216 0.0150622055 0.0062773107
0.10952845 0.116606176 0.043551568 0.029459244 0.019712493 0.029428558 0.014306598 0.02569099
0.027194576 0.005010835 0.031142319 0.03373197 0.04193259 0.0424587 0.03156201 0.045234807
0.023884915 0.030589676 0.04787343 0.03707913 0.027601542 0.032357715 0.0065741893 0.049556255
0.014360341 0.011117543 0.020096945 0.017321242 -0.014854278 0.028393583 0.029825643 0.019593826
00000000: 70da 69bc f6d8 fabc 5398 fdbc bd32 70bc
00000010: ceaa ddbb e580 81bc 0f50 1cbc c390 573b
00000020: 79ad 50bb 4d50 3c3c a693 73ba 2b77 d3ba
00000030: 0c34 593b 78ac 1cbc a1f6 8bbc 55ec 18bc
00000040: 7fe0 91bc 221f 1dbc 1ea3 9fbc 5d9f a1bb
00000050: b5d9 d6bb da02 2e3c 78ef 65bb 10c3 7a3b
00000060: 10f6 ed3c f0e5 edbb af22 13bc db2b 3cbc
00000070: 36be fdbb 2fe6 57bc 7d4c 1abc 95d0 30bc
00000080: c9db 91bc d3a9 3c3c 0fd8 c0bc 1b5e 66bc
00000090: f177 80bb f952 d23b 4910 80bc e157 4ebc
000000a0: eda3 a3bb 9c69 723b 091e 38bc 4f19 6abc
000000b0: 5e90 20bc 5cf7 2cbb fac7 8abc 489a bb3b
000000c0: 6dc3 75bc 9fcd 80bc 18da 70bc 9c9c 13bc
000000d0: 43a6 3abc fb29 0ebc 6c40 74bc dfe9 993c
000000e0: c64b 8ebc d6b1 d9bb e67f 1dbc 3c00 503c
000000f0: 58db 76bc 7b64 97bb 9d5c 953c f065 973c
00000100: dc1d 79bc c3fe 3ebd 986f 1bba 1f06 94bc
00000110: 7f7b c7bb 11ed aa3a 8369 04bb dfde d2bc
00000120: 95f3 18bb e079 0dbd df84 0c3b 5dfb dc3c
00000130: 39de 69bc cccf c739 9eef 153c 360d 1fbc
00000140: 6bb6 31bb 8bca 463c 6903 90bc 02e7 e33b
00000150: a92e 02bc cbf0 873c a735 933c 6fc2 91bc
00000160: e382 8e3b ace6 96bc d804 7abc 1b57 423a
00000170: 6507 11bd d4f0 023d 3b61 adbb 964c f6bc
00000180: f224 81bc 6c6f 20bc f1f4 7a3c c8d7 49bc
00000190: ebaa 46bc ef35 96bb dee8 f73a 5d1b 14bc
000001a0: 043c 6539 0dee e43b f7e0 8abc ef05 65bc
000001b0: 968a 2dbc a530 b9bb 0520 f63c ceb8 2bbc
000001c0: cd3a a23b 2412 39bc 00ea 8bbc 3f4e ddbc
000001d0: c72b cbbc 8ac1 49bc d631 acbc b716 42bc
000001e0: dddc 7ebc 6a08 54bc 8e59 93bc 00e8 9039
000001f0: a303 67be a86f 63bd 6e2a f2bd 2c87 c4bd
00000200: adb4 26be 5038 04be 2190 103d db6c 85bf
00000210: 4d2a 99bd d86e d7bd 9b28 8bbf af2e 85bd
00000220: 5056 84bc 2329 25bc c86c dcbd fed7 17be
00000230: c594 9ebc 68be b0bb 1aed 49bd ed69 f93b
00000240: 6543 3ebc 5d19 4dba cee6 af3a a405 a3bd
00000250: 91c4 d3bc bb85 61bd 6127 4fbc fed8 98bb
00000260: 1c01 c9bd 2a1b 0fbc 4578 be3a f61c b8bc
00000270: e373 dbbb ecdb 0cbd 6228 77bc ba34 8dbc
00000280: 13d0 03bd 0df2 b4bc 1e92 fabc 7c44 4cbc
00000290: 30bc 343a df92 21bc fe62 91bc 80a9 6d3b
000002a0: 50a6 4dbc 2fc0 3cbc c520 7e3c df9e 8dbb
000002b0: ed0c 64bb f2fa 60bb a8f5 eabb a71f 3a3b
000002c0: 3997 bebb e02e 88bb 63ec f6bb 41f1 f6ba
000002d0: c615 d13b 4b05 99bc 63c9 12bc 8258 c23b
000002e0: 115f a63c 02bc 263c 6cf3 5e3c 67ee af3c
000002f0: 0421 1c3c d2b7 823c a0ca c53b 4f1d 9e3b
00000300: e2e6 7a3b 5f3b a83c a74f 573c c066 553c
00000310: c936 ba3c 5a34 873c 1093 323c f1c3 183c
00000320: 89d1 ff3b 5960 a63a 3f6d 5c3b f06c 36bf
00000330: 1cfb 81bf 580c 613c 2b90 aeb9 b8f5 09bc
00000340: 0af0 b1ba 24c5 753c c16f 663c e8c0 28bd
00000350: 5dfd 803c c718 233c d5a8 a53c 2bb3 023d
00000360: 579c a13c a036 ac3c 0c32 153b da0c 633c
00000370: 6fac 823c 0d20 3b3c 78c7 763c e6b1 cd3b
00000380: 7450 e03d 38cf ee3d 2163 323d 8354 f13c
00000390: 187c a13c 2914 f13c 3966 6a3c e975 d23c
000003a0: 29c7 de3c ee31 a43b 2d1e ff3c 892a 0a3d
000003b0: 82c1 2b3d 2ce9 2d3d 2b47 013d 2248 393d
000003c0: 4caa c33c 3397 fa3c ee16 443d 49e0 173d
000003d0: a11c e23c 8689 043d 4c6c d73b 80fb 4a3d
000003e0: a347 6b3c 5b26 363c 59a2 a43c 47e5 8d3c
000003f0: 5c5f 73bc a999 e83c e854 f43c 3b83 a03c
