notebooks/graphsage_v2/runs_graphsage/run1_20251023T141444Z/graphsage_encoder_run1.pt (torch, 338121 bytes, 6 tensors)

convs.0.lin_l.weight f4 [128, 262]
0	0xbdc11e6c	-0.09429631
1	0x3c8c0b62	0.017095271
2	0x3d14941e	0.036274068
3	0x3d1e115f	0.038590785
4	0xbde367db	-0.11103793
5	0x3cafa17f	0.021439312
6	0xbdcacdcc	-0.09902534
7	0xbcff1cd1	-0.03114167
8	0xbc32d753	-0.010915595
9	0x3d7f924d	0.062395383
10	0x3de5a31c	0.11212751
11	0xbc7804ad	-0.015137834
12	0x3ce7bf49	0.028289454
13	0xbd9f44a3	-0.07776763
14	0x3bc9031c	0.006134404
15	0x3cff91de	0.031197485
16	0xbdf20fe6	-0.11819439
17	0x3b91708a	0.0044384645
18	0xba9fb565	-0.0012184797
19	0xbc2e5b50	-0.010641888
20	0xbdd00450	-0.101570725
21	0x3d3932e0	0.045214534
22	0x3c632707	0.013864285
23	0xbcc70a2f	-0.024296848
24	0x3d399c8a	0.045315303
25	0xbe01f1a4	-0.12689835
26	0x3c97d198	0.01853256
27	0xbc254fac	-0.010089796
28	0xbd105cd6	-0.035244785
29	0x3d10a439	0.035312865
30	0x3c79cda3	0.0152467815
31	0xbcc6d929	-0.024273472
32	0xbd84c3e8	-0.06482679
33	0x3d4b863a	0.049688555
34	0xbd548b58	-0.0518907
35	0xbd931ed2	-0.07183613
36	0xbbbd744f	-0.0057816873
37	0xbd5ac4f7	-0.053410497
38	0xbd6ef021	-0.058334474
39	0xbc63a149	-0.013893434
40	0xbd5ea8a5	-0.05436005
41	0xbcf255bf	-0.029581903
42	0xbd5ac252	-0.053407975
43	0x3d45241b	0.048130136
44	0xbe019a00	-0.12656403
45	0x3da85f62	0.08221318
46	0x3d0c236e	0.034213476
47	0xbc520d37	-0.0128205335
48	0xbd742ad8	-0.05961117
49	0xbdf451c9	-0.11929662
50	0xbdab06b5	-0.08350889
51	0xbd8e929b	-0.069615565
52	0x3daa9212	0.08328642
53	0x3db62d13	0.08895316
54	0xbd81a7b4	-0.06330815
55	0xbd5b2647	-0.0535033
56	0x3db0a14f	0.08624517
57	0x3d2ed4d3	0.042683434
58	0xbd1e8768	-0.038703352
59	0x3c6e8745	0.014558618
60	0xbdcca32a	-0.099920586
61	0x3d0a438e	0.03375583
62	0xbd9bc15c	-0.0760524
63	0xbd0a6616	-0.033788763
64	0xbc2fd020	-0.010730773
65	0xbc0b06b2	-0.008485483
66	0xbcbea9fe	-0.023274418
67	0x3d0919f1	0.033472005
68	0x3da389ae	0.07985245
69	0xbd8e2599	-0.06940765
70	0x3badfe78	0.005309876
71	0x3d0c0467	0.034183886
72	0xbda209c6	-0.079120204
73	0xbd373017	-0.044723596
74	0xbd2a0f40	-0.04151845
75	0x3d8339fb	0.06407543
76	0x3b0208a7	0.0019841583
77	0x3d9d5b74	0.07683459
78	0xbd1fc5e1	-0.03900707
79	0x3ce51b85	0.027967224
80	0x3d0e64ab	0.034763973
81	0xbdd30816	-0.10304277
82	0x3dbfe874	0.09370509
83	0xbe27d2c7	-0.16388999
84	0xbd3c06ae	-0.045904808
85	0x3b98e16b	0.004665544
86	0xbe1301c6	-0.14356145
87	0xbcea3154	-0.028587975
88	0x3e23e3d0	0.16004872
89	0xbbb7d2f5	-0.005609865
90	0xbc9648ce	-0.018345263
91	0x3c80cba1	0.015722098
92	0xbdbd422f	-0.09241139
93	0x3cd4b4e0	0.025965154
94	0x3d56f167	0.052476313
95	0xbd14f45c	-0.03636585
96	0x3d9f66db	0.0778329
97	0xbd11e7cd	-0.035621453
98	0xbd925c10	-0.07146466
99	0xbdb0c73b	-0.0863175
100	0xbd8be446	-0.06830649
101	0xbda615e9	-0.08109648
102	0x3c954dc6	0.018225562
103	0x3d710e80	0.05885172
104	0xbd95630a	-0.07294281
105	0x3ca1d511	0.019754918
106	0xbd237879	-0.039909814
107	0x3da7e602	0.081981674
108	0xbd8c4bd4	-0.068504006
109	0xbc3b85bd	-0.01144546
110	0xbdb6c4ee	-0.0892428
111	0xbdfdbf9c	-0.12390062
112	0x3d8cd2b1	0.06876124
113	0xbddeec29	-0.10884888
114	0x3c163cf2	0.009169804
115	0x3aefd620	0.0018298067
116	0x3d0cae0d	0.034345675
117	0xbd88543b	-0.06656691
118	0x3bc96830	0.0061464533
119	0xbdc7b365	-0.09751014
120	0x3c8fe853	0.017566836
121	0xbdb3bb77	-0.087759905
122	0xbca1b394	-0.01973895
123	0x3c69a4e1	0.014260502
124	0xbce7cf77	-0.02829717
125	0xbd302d12	-0.043011732
126	0x3d3b376b	0.045707148
127	0xbe0a52a4	-0.13508087
128	0x3dfdfaf3	0.124013804
129	0x3dcfdf16	0.10149972
130	0xbc51fd61	-0.012816758
131	0xbd80c1df	-0.06286978
132	0x3ddebd05	0.10875896
133	0xbd08f826	-0.033439778
134	0x3d4b9f06	0.049712203
135	0x3b06c3ee	0.002056356
136	0x8146864c	-3.646321e-38
137	0x3cd890cd	0.026436234
138	0x3c3b5988	0.01143492
139	0x3d5ee9fb	0.05442236
140	0x3dbca077	0.09210294
141	0x3d5491d6	0.051896892
142	0x3c82b731	0.015956493
143	0x3d284fbd	0.04109167
144	0xbc5692e9	-0.01309655
145	0x3da5e513	0.08100333
146	0x3cfa17a5	0.030528853
147	0x3cda02d0	0.02661267
148	0x3c06dbe2	0.008231135
149	0x3ccb7fa2	0.024841134
150	0xbd50906e	-0.05091899
151	0x8317cefa	-4.461251e-37
152	0x3d009536	0.0313923
153	0xbd8c8851	-0.06861938
154	0x3d3557cb	0.04427318
155	0x3be3fd25	0.0069576674
156	0x3ce9bacf	0.02853146
157	0xbbbe00aa	-0.005798419
158	0xbd1c1ea3	-0.038115155
159	0xbd8aa70e	-0.067701444
160	0xbd2e2347	-0.04251411
161	0x3cf6a59a	0.030108262
162	0xbc763aa5	-0.01502863
163	0x3c828e17	0.015936894
164	0xbbd4d4ef	-0.00649511
165	0xbd4f12ea	-0.050555147
166	0xbd4393c9	-0.04774836
167	0xbd7cc910	-0.061715186
168	0xbc2080c8	-0.009796329
169	0xbd6e5b2c	-0.058192417
170	0x3b2516fc	0.0025190702
171	0xbd69f048	-0.057113916
172	0xbccb921e	-0.024849948
173	0xbd3fe8e6	-0.04685297
174	0xbcd96bac	-0.0265406
175	0xbd21c588	-0.03949502
176	0xbcb778fd	-0.022396559
177	0xbdae213d	-0.085024334
178	0xbca84d15	-0.020544568
179	0xbdb24620	-0.087047815
180	0x3c6d695e	0.0144904535
181	0xbdbb362d	-0.091411926
182	0xbd82499c	-0.06361696
183	0x3d8360f9	0.064149804
184	0xbd8784d3	-0.06617131
185	0x3ccd49f2	0.025059674
186	0xbd5e030d	-0.05420213
187	0xbd110410	-0.035404265
188	0xbd9c8eee	-0.07644449
189	0x3d28f1c3	0.041246187
190	0xbd6071cb	-0.05479602
191	0xbd186122	-0.037202008
192	0xbd29c1ac	-0.041444466
193	0x3db5c1cc	0.088748544
194	0x3dc4acee	0.09603296
195	0xbd033c3e	-0.032039873
196	0x3cc8de3c	0.024520032
197	0xbc6e0676	-0.014527908
198	0xbd8315d3	-0.06400647
199	0x3d118f4f	0.03553706
200	0x3d01d6fe	0.031699173
201	0x3d0bc40d	0.034122515
202	0xbd5cea4b	-0.053934377
203	0xbb99ef13	-0.0046976893
204	0x3c89918a	0.016793031
205	0xbd9ecf8d	-0.07754431
206	0xbc8bdecc	-0.017074011
207	0xbd59277f	-0.053016182
208	0x3c0c5375	0.00856482
209	0x3b3fe41d	0.0029280253
210	0xbc1fab5a	-0.009745443
211	0xbc8b157d	-0.01697802
212	0xbd727454	-0.05919297
213	0xbce6d810	-0.028179199
214	0x3d23b7cd	0.039970208
215	0xbd9f7740	-0.07786417
216	0xbb1ce026	-0.0023937314
217	0x3d5eba60	0.05437696
218	0x3d36b098	0.044602007
219	0x3d4297e2	0.047508128
220	0xbc9ecccf	-0.01938477
221	0x3d38c18c	0.045106456
222	0x3ca55346	0.02018131
223	0xbbfc28a8	-0.0076952763
224	0xbb9b4c4d	-0.0047393204
225	0x3ccaab68	0.024739936
226	0x3b39b659	0.0028337447
227	0xbd4ab742	-0.049491175
228	0xbc22a5dc	-0.009927239
229	0xbcbcbefb	-0.023040285
230	0x3d49a41d	0.049228776
231	0xbda9881a	-0.082779124
232	0xbc8c65d2	-0.017138395
233	0x3d87af3f	0.066252224
234	0x3d267e15	0.040647585
235	0xbd199652	-0.037496872
236	0x3c80d130	0.015724748
237	0xbcc985f0	-0.0246
238	0x3bf2a5fc	0.007405041
239	0xbcccb5f6	-0.02498911
240	0xbbf07612	-0.007338294
241	0xbd982087	-0.07428079
242	0xbd6211cc	-0.055192754
243	0x3b42d4e8	0.0029728953
244	0xbcde69f0	-0.027150124
245	0xbc870196	-0.016480248
246	0xbc6dd7ca	-0.01451678
247	0xbc7a9b70	-0.015295848
248	0xbc268320	-0.010163099
249	0x3d833d33	0.06408157
250	0xbd98fdce	-0.074702844
251	0xbd31f1ab	-0.043443363
252	0xbd169f76	-0.036773168
253	0x3d34a7f6	0.044105493
254	0xbcca1a77	-0.024670823
255	0xbd939eba	-0.07208009

convs.0.lin_l.bias f4 [128]
0	0xbb9fa0cc	-0.0048714634
1	0x3c14eb81	0.009089352
2	0x3d2347ed	0.039863516
3	0x3d09e55c	0.033666
4	0xbcdec96b	-0.027195653
5	0x3b30eda5	0.0026997116
6	0xbcab683c	-0.020923726
7	0xbce4ed6c	-0.027945243
8	0xbd75a21b	-0.05996905
9	0x3d1c1a41	0.038110975
10	0x3d03e156	0.03219732
11	0xbd0f2fb6	-0.03495761
12	0x3cf95fe9	0.030441241
13	0xbc076911	-0.008264796
14	0x3ca4cf80	0.020118475
15	0x3cc52f66	0.024070453
16	0xbb6614c5	-0.0035107594
17	0x3c264091	0.01014723
18	0x3c53dd8b	0.012931238
19	0xbd7b4a1e	-0.06134998
20	0x3ca238a2	0.019802395
21	0x3bc6e4b6	0.006069745
22	0xbc8371e2	-0.016045514
23	0x3ce71bb1	0.028211446
24	0x3d43938d	0.047748137
25	0x3d84d588	0.0648604
26	0x3d2ec845	0.04267146
27	0xbcbdc68d	-0.023165965
28	0xbd1df703	-0.038565647
29	0x3d251297	0.04030093
30	0x3bb671eb	0.0055677793
31	0xbd16b5dd	-0.036794532
32	0xbd51eef9	-0.051253293
33	0xbbcb8c2a	-0.006211777
34	0x3d3d17dc	0.046165332
35	0x3d22b0f8	0.03971955
36	0xbd258f1d	-0.040419687
37	0x3b8bb210	0.00426317
38	0x3d3314c9	0.043720994
39	0xbcdb3c88	-0.026762262
40	0x3a86b8d8	0.0010278476
41	0x3ce09f0f	0.027419595
42	0x3ce27afa	0.02764653
43	0xbc90f0fe	-0.017693039
44	0x3d557fe5	0.052123923
45	0xbd33ea0e	-0.043924384
46	0xbd2d87eb	-0.04236595
47	0xbd5ef947	-0.05443695
48	0xbcd6f681	-0.02624059
49	0xbcb5a391	-0.022172721
50	0x3d304536	0.043034755
51	0xbc97a1cf	-0.018509774
52	0xbb888b1d	-0.004166974
53	0x3d1c9d94	0.038236216
54	0x3c5f16ed	0.013616306
55	0x3c52ab75	0.012858261
56	0xbbc8be3e	-0.0061261943
57	0x3c80b35c	0.015710525
58	0x3d2f2a90	0.0427652
59	0x399df41d	0.00030127252
60	0xbc9c85ae	-0.019106712
61	0xbd1e451b	-0.038640123
62	0xbd042a1a	-0.032266714
63	0xbae8f78b	-0.0017773969
64	0x3d40a630	0.04703349
65	0x3c0c1f76	0.008552423
66	0x3d0a5563	0.033772837
67	0xbcbc0d21	-0.02295548
68	0x3c7a0e0b	0.015262137
69	0xbc8ee558	-0.017443344
70	0xbccd6468	-0.025072291
71	0x3b462cbc	0.0030239066
72	0x3c15c394	0.009140868
73	0xbbf19bb2	-0.0073732967
74	0x3d5bba82	0.053644665
75	0x3d2c6260	0.042086005
76	0xbcd149b3	-0.025547838
77	0xbd37344f	-0.04472762
78	0xbd55f2a2	-0.052233346
79	0x3d1354cd	0.035969544
80	0xbd4393e6	-0.04774847
81	0x3cff7194	0.031182088
82	0xbc0e6698	-0.008691452
83	0xbd300b8b	-0.04297976
84	0xbd56bc7c	-0.052425846
85	0xb91eb778	-0.00015136402
86	0x3bfe536b	0.007761409
87	0xbd47a9ef	-0.048746046
88	0xbd13a96d	-0.03605025
89	0x3ce38d9f	0.027777491
90	0xbd1356fb	-0.035971623
91	0x3cd5d0e7	0.026100589
92	0x3c4ee488	0.012627728
93	0x3d07cb83	0.03315307
94	0xbc26c25a	-0.010178173
95	0x3cb77bee	0.022397961
96	0xbd34580e	-0.044029288
97	0xbcb2229e	-0.021745022
98	0xbcf15bab	-0.029462656
99	0xbcb06258	-0.021531269
100	0x3d102f0a	0.03520111
101	0x3b95b009	0.004568104
102	0xbd2baf05	-0.04191496
103	0x3c527876	0.012846103
104	0xbcb64d0c	-0.022253536
105	0xbc5ac8af	-0.013353511
106	0xbd8f6557	-0.07001751
107	0x3cab44e6	0.020906877
108	0x3c6bf55a	0.014401758
109	0xbd999695	-0.07499424
110	0xbc0adf5b	-0.008476104
111	0x3c50ffae	0.012756271
112	0xbcbe968c	-0.023265146
113	0x3c57147b	0.0131274415
114	0xbc6bb173	-0.014385569
115	0xbd65ab3c	-0.056071505
116	0xbd3969c9	-0.0452669
117	0x3d5cfd2b	0.053952377
118	0x3c816481	0.015794994
119	0x3d28290d	0.041054774
120	0xbd2cdd56	-0.04220327
121	0x3ce4c0fa	0.02792405
122	0xbcf4f3b0	-0.029901356
123	0xbd018d52	-0.031628914
124	0x3d533af9	0.051569913
125	0xbc43d32d	-0.011952204
126	0x3c8a88e2	0.016910974
127	0x3d34a9bd	0.044107188

convs.0.lin_r.weight f4 [128, 262]
0	0x3c03858a	0.008027444
1	0xbda09551	-0.0784098
2	0x3c9f867e	0.01947331
3	0x3bf3d02c	0.0074405875
4	0x3d1ab4d1	0.037770096
5	0xbbbff1c8	-0.00585768
6	0x3b5e01cd	0.0033875585
7	0x3cb71145	0.022347102
8	0xbbd57b9e	-0.0065149805
9	0x3cf1c6e2	0.02951378
10	0x3d967f1e	0.073484644
11	0xbd4cd9f7	-0.050012555
12	0x3d139089	0.03602651
13	0x3b005fd8	0.0019588377
14	0x3c99a7a1	0.01875669
15	0x3d1df616	0.038564764
16	0xbdceb1f2	-0.10092534
17	0x3c283658	0.010266863
18	0xbc7ddb2c	-0.015494149
19	0x3cd258df	0.025677143
20	0x3d52e018	0.051483244
21	0xbc7141e4	-0.014725182
22	0xbd2f6391	-0.042819563
23	0xbcd2d7a5	-0.025737593
24	0x3c81a5de	0.015826162
25	0x3cc1d3f9	0.023660647
26	0x3cc698be	0.024242755
27	0xbd5a55ca	-0.05330447
28	0x3dacf3ce	0.084449396
29	0xbcb15d57	-0.021650953
30	0xbcd6277c	-0.026141874
31	0x3d8dc14c	0.06921634
32	0xbc4bf21b	-0.012447859
33	0x3b385414	0.0028126286
34	0x3d297142	0.041367777
35	0x3d3bdf7e	0.045867436
36	0x3ce912cb	0.028451344
37	0x3ccb7d85	0.024840126
38	0x3c6d7228	0.014492549
39	0x3c60f40b	0.013730059
40	0xbc5ee75f	-0.013604968
41	0x3db934f4	0.09043303
42	0x3dfb9b22	0.122854486
43	0xbd00d069	-0.031448755
44	0x3b0e307a	0.0021696375
45	0xbd96524d	-0.073399164
46	0xbd5d69fb	-0.05405615
47	0x3c8a3547	0.016871108
48	0xbc099628	-0.008397616
49	0x03241ef8	4.823082e-37
50	0x3dc98029	0.09838898
51	0x3d04b085	0.032394905
52	0xbb1d10dc	-0.0023966348
53	0xbcd0fb9e	-0.025510605
54	0xbd54b61f	-0.051931497
55	0xbc88d1c7	-0.016701592
56	0xbd54e525	-0.05197634
57	0x3ceaae72	0.028647635
58	0x3d9f7d61	0.07787586
59	0x03570643	6.319001e-37
60	0xbd856c4f	-0.06514799
61	0xbb9feee6	-0.004880774
62	0x3e082c36	0.13298115
63	0x3cf591b3	0.029976701
64	0xbd8e2141	-0.069399364
65	0xbb9376b1	-0.004500233
66	0xbd08fd02	-0.033444412
67	0x3dab4d70	0.083643794
68	0xbd7625d6	-0.060094677
69	0x3d24201e	0.04006969
70	0xbc94e6e2	-0.0181765
71	0xbcd2fd31	-0.025755497
72	0x3d8671e2	0.0656469
73	0xbd4f000e	-0.05053716
74	0x3cb5c8f4	0.022190548
75	0x3a80c0c4	0.0009823074
76	0x3d664b6c	0.05622427
77	0x3cd19f9d	0.025588805
78	0x3d8e6223	0.06952312
79	0x3d75cb7a	0.060008503
80	0xbcf78adc	-0.03021758
81	0x3dd34670	0.10316169
82	0xbc76f98e	-0.015074147
83	0x3cb3a485	0.021929035
84	0xbd496bbf	-0.04917502
85	0xbcc8909d	-0.02448302
86	0x3d72f3d0	0.05931455
87	0xbc805689	-0.015666263
88	0xbab44569	-0.0013753596
89	0x023c3ab4	1.3828906e-37
90	0x3d1acd0b	0.0377932
91	0x3caa271a	0.020770598
92	0x83239247	-4.8069313e-37
93	0xbd126808	-0.035743743
94	0x830a61f8	-4.0667018e-37
95	0x3d5e7bca	0.054317273
96	0xbd283d36	-0.041074
97	0xbd3f4721	-0.046698693
98	0x3c2f849e	0.010712771
99	0x3d815b23	0.06316211
100	0x3c66501f	0.014057188
101	0x3d772867	0.060341265
102	0xbc2e1f05	-0.010627513
103	0x01bf2786	7.021903e-38
104	0xbc0a6084	-0.008445863
105	0x3bfaae7b	0.007650194
106	0x3cab1ebd	0.02088868
107	0xbd697473	-0.05699582
108	0xb855178d	-5.080509e-05
109	0xbd27d3ae	-0.040973358
110	0x3c24b14b	0.010052036
111	0xbd56658e	-0.052342944
112	0xbd912bb1	-0.070884116
113	0x3c6f5e70	0.014609918
114	0xbd4548af	-0.04816502
115	0xbcdfc4a6	-0.027315449
116	0x3d51918d	0.0511642
117	0x3c12c645	0.008958404
118	0x3c5216d4	0.012822825
119	0x3dda0821	0.10646082
120	0x3c1e09d1	0.009645895
121	0x3dd7f743	0.10545208
122	0x3c484fbb	0.0122260405
123	0x02d1dc50	3.0836243e-37
124	0xbc4368d5	-0.011926849
125	0xbd506b49	-0.050883565
126	0xbcaedb64	-0.021344848
127	0x021226b7	1.0737497e-37
128	0x0332978e	5.2483475e-37
129	0x3c8472a1	0.01616794
130	0x82ae04ea	-2.5569823e-37
131	0x831235e6	-4.2967416e-37
132	0xbd5b3b94	-0.053523615
133	0x3d039b47	0.032130506
134	0x3cd74bef	0.026281325
135	0x3d9b02e7	0.07568913
136	0x0338ab64	5.4269487e-37
137	0xbd7251f6	-0.059160195
138	0x3b533e00	0.0032233
139	0x3d3d7d04	0.046261802
140	0xbd04024d	-0.032228757
141	0x3b7c1a6e	0.0038467902
142	0x3ca93257	0.020653887
143	0x0203b172	9.675284e-38
144	0xbbf0abfb	-0.0073447204
145	0xbcbb862e	-0.02289113
146	0x3dc164df	0.09443068
147	0xbd8cd51b	-0.06876584
148	0xbd579a13	-0.05263717
149	0x3c78ab34	0.015177537
150	0xbd08d1b0	-0.0334031
151	0x3da5543c	0.08072707
152	0x02870384	1.9838485e-37
153	0x83d0c525	-1.2270403e-36
154	0x032b716b	5.038258e-37
155	0x3d5a9470	0.053364217
156	0xbcb9dfe9	-0.022689776
157	0x3d1806b5	0.03711577
158	0xbae2e349	-0.0017310168
159	0xbd83ab65	-0.06429175
160	0x3cb84e0b	0.022498151
161	0xba9f35af	-0.0012146736
162	0xbd50c097	-0.050964918
163	0xbc025ced	-0.007956726
164	0xbae1f998	-0.0017240522
165	0x3d36eecb	0.044661324
166	0x3d732288	0.059359103
167	0x3c9a85ed	0.018862689
168	0xbb3f28d0	-0.0029168613
169	0x3d21e4be	0.039524786
170	0x3d3329dc	0.043741092
171	0xbb83e7d0	-0.004025437
172	0xbd708c67	-0.058727648
173	0xbc95b196	-0.018273156
174	0xbd90eec3	-0.0707679
175	0x032d1545	5.0864547e-37
176	0xbd13c6ee	-0.036078386
177	0xbc905308	-0.017617717
178	0xbbe77344	-0.0070633013
179	0xbd369d99	-0.04458389
180	0xbcd65e6c	-0.02616807
181	0xbd1cb1b1	-0.038255397
182	0x3cbedeef	0.023299662
183	0xbd3f933c	-0.046771273
184	0x3c12a344	0.008950058
185	0xbd3e7189	-0.046494994
186	0xbb501a0f	-0.0031753813
187	0xbd5da58a	-0.05411295
188	0x3d2d0707	0.04224303
189	0x3c0c98d7	0.008581362
190	0x3bbdf103	0.005796553
191	0x8280adf8	-1.8907763e-37
192	0x3d8dcc2c	0.06923708
193	0xbc70e734	-0.014703561
194	0x3d490b0f	0.049082812
195	0x3cb0c510	0.021578342
196	0x3ba1558a	0.004923527
197	0xbd45ed21	-0.048321847
198	0x3c9a02ca	0.018800158
199	0xbc8874ff	-0.01665735
200	0xbd836377	-0.06415456
201	0x3cda4df8	0.026648507
202	0xbc7705c2	-0.015077056
203	0x3c9d43ff	0.019197462
204	0xbc42631c	-0.01186445
205	0x3cbae4c2	0.022814158
206	0xbd03d024	-0.03218092
207	0xbbbfd751	-0.005854525
208	0x3c8cfd3d	0.017210597
209	0xbc083509	-0.008313426
210	0x3ba76d4c	0.0051094647
211	0xbd9efe97	-0.07763403
212	0xbb922247	-0.0044596526
213	0x3c865454	0.016397633
214	0xbd865241	-0.065586574
215	0x3d1ef995	0.03881224
216	0x3d3f2b92	0.04667241
217	0x3c490dc0	0.012271345
218	0x3d486be4	0.048931018
219	0x3d400f67	0.04688969
220	0x3d1eac25	0.03873839
221	0xbd141211	-0.036150042
222	0x3cef946a	0.029245574
223	0xb7a585a8	-1.9731771e-05
224	0xbcd94009	-0.026519792
225	0xbc3f6907	-0.011682755
226	0x3d6d309c	0.057907686
227	0xbd4733d0	-0.048633397
228	0xbd1d5195	-0.03840788
229	0xbc05680a	-0.008142481
230	0xbc443b72	-0.0119770635
231	0xbc4c067c	-0.012452718
232	0x3d58e30b	0.0529509
233	0x3d1dd1d6	0.038530193
234	0xbd3a0da0	-0.04542315
235	0x3d74224e	0.059603028
236	0x02d106bc	3.0713655e-37
237	0x3d83744c	0.06418666
238	0x3d10467b	0.035223465
239	0xbd51a572	-0.05118317
240	0x3d69babf	0.05706286
241	0xbcdc3442	-0.026880387
242	0x3d58a495	0.052891333
243	0x3c04d674	0.00810777
244	0xbca7dfb0	-0.020492405
245	0x3cae4a39	0.021275626
246	0xbb6b14cf	-0.0035870557
247	0xbbac3795	-0.0052556493
248	0xbd3bf675	-0.045889337
249	0xbc2b4b53	-0.01045497
250	0xbd12ab98	-0.035808176
251	0xbbf96175	-0.0076104947
252	0xbda7b93a	-0.08189626
253	0xbc163993	-0.009169
254	0xbc0389e0	-0.008028477
255	0x3d4e033c	0.050296053

convs.1.lin_l.weight f4 [64, 128]
0	0x3dc048b2	0.093888655
1	0xbd3b46ed	-0.045721937
2	0x3b034891	0.0020032267
3	0x3dec8872	0.115494624
4	0x3de3b853	0.111191414
5	0xbc6ae079	-0.014335745
6	0x3d001163	0.03126658
7	0x3e041ad5	0.1290086
8	0xbdb5bad9	-0.08873529
9	0x3d8a7942	0.06761409
10	0xbe0421ac	-0.1290347
11	0xbdc3d47e	-0.09562014
12	0xbd92ed6b	-0.0717419
13	0xbdaba651	-0.08381332
14	0x3d0f5a1d	0.034998048
15	0xbe37c004	-0.17944342
16	0xbb47459c	-0.003040648
17	0xbd8901a5	-0.06689767
18	0x3bdef8f2	0.006804579
19	0xbc0b1539	-0.008488947
20	0xbdf55ad2	-0.11980213
21	0xbd620dd8	-0.055188984
22	0xbd094771	-0.033515397
23	0xbd5adb6f	-0.053431924
24	0x3daf3279	0.08554549
25	0x3d00cee7	0.031447317
26	0x3d66557f	0.05623388
27	0xbd463883	-0.048393738
28	0xbdb48364	-0.08814123
29	0xbd93ecba	-0.072228864
30	0xbdc7831b	-0.09741803
31	0xbdf9802d	-0.12182651
32	0x3deb93cf	0.115028016
33	0xbd0f298b	-0.034951728
34	0xbd958473	-0.07300653
35	0xbd1f0401	-0.038822178
36	0xbe28426e	-0.16431591
37	0xbc2b933b	-0.010472114
38	0xbd5c4502	-0.05377675
39	0x3d7ef4da	0.062245227
40	0xbd874f15	-0.066068806
41	0xbcc5cb2c	-0.024144731
42	0x3d43cc36	0.047802173
43	0xbe054a93	-0.13016729
44	0xbdb76dc7	-0.08956485
45	0xbe0969ba	-0.13419238
46	0xbd873ffa	-0.066039994
47	0x3dd3bc1c	0.103386134
48	0x3d7c092e	0.061532192
49	0xbd8b1ffa	-0.067932084
50	0x3ceb3b15	0.028714696
51	0xbbc40315	-0.0059818127
52	0xbd1fbcc6	-0.038998388
53	0xbd90f048	-0.0707708
54	0x3d38db64	0.045131102
55	0xbcc1b353	-0.023645079
56	0x3d90681b	0.070511065
57	0xbae641c9	-0.0017567213
58	0x3db53746	0.08848433
59	0xbd139769	-0.036033068
60	0xbde33f33	-0.11096039
61	0x3dd6a3bf	0.10480451
62	0xbdab0cad	-0.08352027
63	0x3c9d0fa0	0.01917249
64	0x3cb1a7d9	0.021686481
65	0x3dcbe1e6	0.09955196
66	0xbc6c0c2b	-0.014407198
67	0xbdd200b6	-0.10254042
68	0x3d26ad15	0.040692408
69	0x3b7da95a	0.0038705678
70	0x3c0e86cd	0.008699131
71	0x3d9106dc	0.070813864
72	0xbce26ff5	-0.027641276
73	0xbe1489d7	-0.14505707
74	0xbddf850b	-0.10914048
75	0xbd6d0d8c	-0.057874247
76	0xbd4e8af5	-0.05042549
77	0x3d42f1a4	0.047593728
78	0xbd5af3cd	-0.053455163
79	0xbce20b4d	-0.02759328
80	0x3dc39b12	0.09551062
81	0x3daa7d2d	0.08324657
82	0x3c18c37f	0.009323954
83	0xbe57b8e9	-0.21066631
84	0xbcffe956	-0.031239193
85	0x3d1578eb	0.03649227
86	0xbd3c6e07	-0.046003368
87	0x3a8409b8	0.0010073697
88	0xbdd669f2	-0.10469426
89	0xbd8fb07f	-0.07016086
90	0x3e12a0c1	0.14319135
91	0x3d3b9cd5	0.045803864
92	0xbcdd6d17	-0.027029557
93	0x3d9ce57f	0.076609604
94	0x3cdc70ee	0.026909318
95	0xbd1096be	-0.03530001
96	0xbde1882e	-0.11012302
97	0xbd40b85a	-0.04705081
98	0xbe129298	-0.14313734
99	0xba334ed3	-0.0006840054
100	0x3c382103	0.011238339
101	0x3d8c0da1	0.06838537
102	0xbdb730e8	-0.08944875
103	0xbde824f1	-0.11335171
104	0xbcbaf69c	-0.02282267
105	0x3c69ec2b	0.014277498
106	0xbd222903	-0.039589893
107	0xbd4539fc	-0.048151
108	0x3c7436a7	0.014905608
109	0x3d3ec678	0.046575993
110	0xbb987ec0	-0.0046537817
111	0x3bd9bfce	0.0066451794
112	0x3ce58101	0.028015615
113	0xbddbc7cf	-0.1073147
114	0x3d6438bc	0.05571817
115	0x3e27985d	0.16366716
116	0xbc288cde	-0.010287492
117	0xbca135b2	-0.019678924
118	0xbc666856	-0.014062962
119	0x3dca3133	0.09872665
120	0xbded99b8	-0.11601585
121	0xbd7ed3b2	-0.062213607
122	0x3d24fb83	0.040278923
123	0x3d85d5b8	0.06534904
124	0xbd9c2cc0	-0.07625723
125	0xb9d525c6	-0.0004065467
126	0xbdf8a748	-0.12141281
127	0xbd831c14	-0.0640184
128	0x3c837fad	0.016052091
129	0x3d61983d	0.055076826
130	0x3dd6b811	0.10484327
131	0x3c317346	0.010830706
132	0xb98f0a23	-0.00027282638
133	0xbd913c72	-0.07091607
134	0xbe255f21	-0.1614957
135	0x3d5ad871	0.05342907
136	0xbc8cf8c1	-0.017208459
137	0xbd1837b0	-0.037162483
138	0xbccaeeab	-0.024772009
139	0xbc02e568	-0.007989265
140	0x3c86a51e	0.016436156
141	0x3a9f54ce	0.0012156011
142	0x3d5f5751	0.05452663
143	0x3ce99b31	0.028516384
144	0x3cd2672b	0.02568396
145	0x3dfbf8cf	0.12303316
146	0x3dc10da8	0.09426433
147	0xbcb83f16	-0.02249102
148	0xbd088876	-0.033333264
149	0xbb3a22fa	-0.0028402195
150	0x3c24ea4a	0.0100656245
151	0x3d115c75	0.035488565
152	0xbbe85e13	-0.0070912926
153	0x3dab0888	0.083512366
154	0x3c2a7240	0.010403216
155	0xbc6c43ee	-0.014420493
156	0xbc1ac909	-0.009447345
157	0x3d9a19c2	0.07524444
158	0x3d8100b9	0.06298966
159	0xbd255354	-0.04036267
160	0x3d032cb9	0.032025073
161	0x3daf5585	0.085612334
162	0x3e026cd9	0.12736835
163	0xbce0d91e	-0.02744728
164	0xbc11d98f	-0.008901968
165	0xbd2b02e6	-0.04175081
166	0xbd653572	-0.055959173
167	0xbbad2cfe	-0.0052849045
168	0x3da14c06	0.078758284
169	0xbd721c13	-0.059108805
170	0xbd63bc2a	-0.05559937
171	0x3e07c497	0.13258587
172	0xbd46802a	-0.04846207
173	0x3dbc23a2	0.09186484
174	0xbcbec479	-0.023287045
175	0xbe1f9913	-0.15585737
176	0x3d5daf89	0.05412248
177	0xbd02a677	-0.031897034
178	0x3dbcfc54	0.09227815
179	0xbaae68fa	-0.0013306432
180	0xbbf24d20	-0.007394448
181	0x3cb030d5	0.02150766
182	0x3d02c964	0.031930342
183	0xbcb9a6e8	-0.022662595
184	0xbd788cdb	-0.060681205
185	0xbca3325a	-0.01992147
186	0xbd5e3fe2	-0.054260142
187	0xbd91f1f4	-0.07126227
188	0x3d0aaf98	0.033858865
189	0xbd318911	-0.043343607
190	0x3c47570f	0.0121667525
191	0x3dd984ea	0.106210545
192	0xbd83b19a	-0.06430359
193	0xbb8d1a48	-0.0043061115
194	0xbd0a50d9	-0.03376851
195	0x3c7943cf	0.015213921
196	0x3df1581e	0.11784385
197	0x3ccdea5f	0.02513617
198	0x3b3bb722	0.0028643091
199	0x3da707b6	0.081557676
200	0xbd4729a9	-0.048623715
201	0xbd59a868	-0.05313912
202	0x3d8aed72	0.0678357
203	0x3c18ff00	0.0093381405
204	0x3da8dccb	0.08245238
205	0x3dd24af5	0.10268203
206	0xbd106eb9	-0.035261843
207	0x3d40851e	0.04700195
208	0xbc93491a	-0.017979193
209	0xbd116d51	-0.035504643
210	0xbdaf888e	-0.085709676
211	0x3c8be8c9	0.017078774
212	0xbd31473c	-0.043280825
213	0x3d3031fb	0.043016415
214	0xbd4943ea	-0.049137034
215	0x3d9130c6	0.07089381
216	0x3db60c18	0.088890254
217	0x3d22c8f2	0.039742418
218	0x3cca56c9	0.024699586
219	0x3d69f778	0.05712077
220	0xbe1ed3be	-0.1551046
221	0x3c98d8b7	0.018658025
222	0xbda2c047	-0.0794683
223	0x3d4de64a	0.05026845
224	0xbd167c87	-0.036739852
225	0x3c4c4637	0.012467912
226	0xbcdc5fc9	-0.026901143
227	0xbc00f7da	-0.007871592
228	0x3c65b315	0.014019747
229	0xbd6c64f4	-0.057713464
230	0xbc8d72e1	-0.017266693
231	0x3c77aebf	0.015117346
232	0x3d821bd8	0.06352967
233	0x3c0c042d	0.008545917
234	0x3c529506	0.012852913
235	0x3d106d70	0.035260618
236	0xbdb588d6	-0.0886399
237	0x3cc02600	0.02345562
238	0x3c5f42cd	0.013626766
239	0xbd35c3d7	-0.04437622
240	0x3dc11992	0.09428705
241	0x3d0f4b0c	0.03498368
242	0xbdae7155	-0.0851771
243	0x3d9ffbdc	0.0781171
244	0x3ca80d47	0.020514144
245	0x3dcf7b67	0.10130959
246	0x3d104f18	0.03523168
247	0xbc267c99	-0.010161542
248	0x3cc4d6e7	0.024028255
249	0xbc5ff082	-0.013668181
250	0xbdf679f9	-0.12034983
251	0x3d146083	0.036224853
252	0x3c2ffd06	0.010741478
253	0xbd2e64da	-0.04257665
254	0x3d83241a	0.0640337
255	0x3d78c2b3	0.060732555

convs.1.lin_l.bias f4 [64]
0	0x3d7484fd	0.05969714
1	0xbd83d755	-0.06437556
2	0x3c867308	0.016412273
3	0xbdb968f3	-0.090532206
4	0xbd8fb802	-0.070175186
5	0x3c32b2d8	0.0109068975
6	0xbbe04a74	-0.006844813
7	0x3cf81ddb	0.030287674
8	0xbd5a2324	-0.05325617
9	0x3d4add5b	0.049527507
10	0x3d706080	0.05868578
11	0x3d81fbc9	0.06346852
12	0x3c6a1201	0.014286519
13	0x3cfb594e	0.030682232
14	0x3c947daa	0.018126328
15	0x3d477312	0.048693724
16	0xbd077a98	-0.0330759
17	0xbd1d3abf	-0.038386103
18	0x3d8c1390	0.06839669
19	0x3c165b89	0.009177097
20	0x3d8485aa	0.06470807
21	0x39f19e2c	0.0004608495
22	0xbd85407e	-0.065064415
23	0x3d13fc8c	0.03612952
24	0xbd727d71	-0.05920166
25	0x39be7054	0.00036323315
26	0xbc2c939a	-0.010533238
27	0xbc80c68f	-0.01571968
28	0x3d4d4292	0.050112315
29	0xbd1fae5c	-0.03898464
30	0x3ccbb829	0.024868088
31	0xbd0d4800	-0.034492493
32	0x3d21057a	0.039311863
33	0xbd4d690b	-0.050149005
34	0x3d3314e7	0.043721106
35	0xbd319680	-0.04335642
36	0x3c1e84ba	0.009675199
37	0x3d3d8a80	0.046274662
38	0xbd415572	-0.047200628
39	0x3d77beb4	0.060484603
40	0xbd7d7892	-0.061882563
41	0xbcb0bd6e	-0.021574702
42	0x3d8a0dc2	0.06740905
43	0xbc9c5cc6	-0.019087207
44	0x3c71ba38	0.014753871
45	0xbd0ea50f	-0.03482538
46	0xbcb9acee	-0.022665467
47	0x3d748730	0.059699237
48	0x3ce22917	0.027607484
49	0xbbb6a11a	-0.005573404
50	0xbd8a2f4c	-0.067473024
51	0xbd721d88	-0.059110194
52	0x3d375cfe	0.04476642
53	0x3cc8c645	0.024508605
54	0x3d1e573f	0.038657423
55	0x3d5fbccc	0.05462341
56	0xbcebb08c	-0.028770708
57	0xbd7dfe22	-0.062009938
58	0x3ce1f825	0.027584145
59	0xbd90f26e	-0.0707749
60	0x3d7d8c64	0.061901465
61	0x3c0c5f92	0.008567708
62	0x3d9a59df	0.07536673
63	0x3d1d7942	0.03844572

convs.1.lin_r.weight f4 [64, 128]
0	0xbc175bce	-0.009238197
1	0xbd567600	-0.052358627
2	0xbd1b7d01	-0.03796101
3	0xbcc60955	-0.024174372
4	0xbdf5d902	-0.120042816
5	0xbc89b26e	-0.016808715
6	0xbdbdd907	-0.0926991
7	0xbd1c3aa8	-0.038141876
8	0x3d2e9065	0.042618174
9	0x3d9c1fc5	0.07623247
10	0xbdd8ff57	-0.10595577
11	0xbd843f82	-0.06457426
12	0xbd6d368a	-0.05791334
13	0x3ccc84fa	0.024965752
14	0xb9905ee0	-0.00027536508
15	0xbd51d203	-0.051225673
16	0xbdaf9c4e	-0.08574735
17	0xbd2bfe55	-0.041990597
18	0x3d2101fa	0.039308526
19	0x3d14e56d	0.03635161
20	0xbd48c0b6	-0.04901191
21	0x3d0101fd	0.031496037
22	0xbbf466cb	-0.007458543
23	0xbc8de681	-0.017321827
24	0xbcbf5d07	-0.023359789
25	0xbd3fb8c8	-0.04680708
26	0xbd769306	-0.060198806
27	0xbd947766	-0.07249336
28	0xbd88ac68	-0.06673509
29	0xbdbd1492	-0.09232439
30	0xbdbc9bfe	-0.09209441
31	0xbd76d39e	-0.060260408
32	0x3db528a9	0.08845646
33	0x3d890aa0	0.0669148
34	0x3cb43a9d	0.022000605
35	0x3d8595f9	0.06522746
36	0xbdac2dd3	-0.08407178
37	0xbc8d0568	-0.017214492
38	0xbda60fd5	-0.081084885
39	0xbe352f28	-0.1769377
40	0xbd8d235e	-0.068915114
41	0xbc2641e1	-0.010147543
42	0x3d3be9cb	0.04587726
43	0xbe0ef32e	-0.13959953
44	0x3ca82755	0.020526567
45	0x3cd6cadc	0.026219778
46	0x3d85ef27	0.06539755
47	0xbd04dd59	-0.032437656
48	0x3caeb61a	0.021327067
49	0x3d738112	0.059449263
50	0x3c71fc89	0.014769682
51	0x3d1933dd	0.037402976
52	0xbd0aa6e4	-0.033850566
53	0xbc8531f4	-0.016259171
54	0x3c66ebc9	0.0140943015
55	0x3b9dc48b	0.0048146895
56	0x3d8e36bb	0.06944033
57	0x3b2d9a45	0.0026489657
58	0x3c9420a0	0.018081963
59	0xbd9259e5	-0.07146052
60	0xbd929637	-0.071575575
61	0x3bcf4112	0.0063248957
62	0xbe116434	-0.1419838
63	0xbd57c3f8	-0.052677125
64	0xbccb3678	-0.024806246
65	0xbb70215e	-0.0036640982
66	0x3ca0a928	0.01961191
67	0xbd8fbb26	-0.070181176
68	0xbd1bca3c	-0.038034663
69	0x3cca7983	0.024716144
70	0x3d730c6d	0.059338022
71	0x3d08a405	0.033359546
72	0x3d2c9628	0.042135388
73	0xbe10b76a	-0.14132467
74	0xbd7d0e7d	-0.061781395
75	0xbd1a2776	-0.03763529
76	0xbcdba806	-0.026813518
77	0x3bfc2f82	0.007696093
78	0xbdb40459	-0.08789892
79	0xbd359513	-0.04433162
80	0xbcfeb396	-0.031091493
81	0xbd12c768	-0.0358347
82	0xbda06697	-0.078320675
83	0xbdb554c1	-0.08854056
84	0x3d710330	0.05884093
85	0xbb541dcf	-0.00323664
86	0xbc994bea	-0.018712956
87	0x3d183517	0.037160005
88	0x3c23dbe2	0.010001155
89	0xbc5a775c	-0.013334122
90	0x3c94487e	0.018100973
91	0x3d0dcd92	0.034619875
92	0xbb90fb28	-0.0044244714
93	0x3da72184	0.081606895
94	0xbcaa0d05	-0.020758161
95	0x3ca63504	0.020288952
96	0x3d251f74	0.0403132
97	0x3c0284aa	0.0079662
98	0xbd011e90	-0.031523287
99	0xbdb66fa3	-0.08908012
100	0xbd1dffc4	-0.038573995
101	0xbc96bfa8	-0.018401936
102	0xbdaae8bd	-0.083451726
103	0x3cb216f0	0.021739453
104	0x3c88f1a1	0.01671678
105	0xbc68d11b	-0.014210011
106	0xbdd5871c	-0.10426161
107	0x3d0e6880	0.034767628
108	0xbd2d614f	-0.04232913
109	0x3d2c0ce5	0.042004485
110	0xbda75281	-0.08170033
111	0xbd4fcb62	-0.05073107
112	0xbd98898a	-0.074481085
113	0xbd56a343	-0.052401792
114	0xbc17d4b9	-0.009267026
115	0x3d7ba28a	0.061434306
116	0xbd4f1688	-0.050558597
117	0x3d362e90	0.044478
118	0x3d3af00a	0.045639075
119	0x3d661cc1	0.056179766
120	0xbdb0d1be	-0.08633755
121	0xbbd4fd13	-0.0064998954
122	0x3c62c863	0.013841721
123	0xbdfafcda	-0.12255259
124	0x3cf4cf2f	0.02988395
125	0xbd13f19c	-0.03611909
126	0xbd6d8364	-0.057986632
127	0x3d35aa3b	0.044351798
128	0xbc80a58a	-0.015703935
129	0x3d9bbae1	0.07604004
130	0x3cb055a3	0.02152521
131	0xbd0bfe89	-0.03417829
132	0x3d26ab45	0.04069068
133	0xbdf4ffa2	-0.119628206
134	0x3cd01058	0.025398418
135	0x3bf1e57b	0.0073820925
136	0xbca19868	-0.019725993
137	0xbda89603	-0.082317375
138	0xbd05f858	-0.032707542
139	0xbc51a3cc	-0.0127954
140	0x3d4c6cc6	0.049908422
141	0xbab58dc0	-0.0013851449
142	0x3db4ad38	0.08822101
143	0x3d64082a	0.05567185
144	0xbbe72d08	-0.0070549287
145	0x3d3760ce	0.044770055
146	0x3d099ce2	0.03359688
147	0xbc4aa337	-0.012368015
148	0x3d13e70d	0.03610902
149	0xbc13f08d	-0.00902952
150	0xbdf42f84	-0.119231254
151	0x3cfd7654	0.030940212
152	0x3cc2316e	0.02370521
153	0x3cdd84c2	0.027040843
154	0x3cf7b85f	0.030239282
155	0xbc5b5374	-0.013386596
156	0x3c9ad360	0.01889962
157	0xba32332f	-0.0006797788
158	0x3cef6894	0.029224671
159	0xbd0ff4b2	-0.03514547
160	0xbd99fe53	-0.075192116
161	0xbcc91a0b	-0.024548551
162	0x3d1958c6	0.037438177
163	0x3cbb4cd1	0.022863777
164	0xbd4aa82e	-0.049476795
165	0xbcb717ff	-0.02235031
166	0x3ce4670a	0.027881164
167	0x3ced8d4c	0.02899804
168	0x3d251e16	0.040311895
169	0x3c846ac1	0.016164185
170	0xbc955496	-0.01822881
171	0xbd26ec50	-0.04075271
172	0x3ce4ab68	0.027913764
173	0xbddb2577	-0.10700505
174	0xbd92c837	-0.07167094
175	0xbd10b688	-0.035330325
176	0x3b454366	0.0030099987
177	0xbc92a20e	-0.01789954
178	0x3d6f2444	0.058384195
179	0x3d4b89b7	0.049691882
180	0xbbff65d1	-0.00779412
181	0xbd19c9fe	-0.03754615
182	0xbc84f873	-0.016231751
183	0xbd5eba03	-0.054376613
184	0xbd130d65	-0.035901446
185	0x3cb6e8ab	0.022327742
186	0xbbda1367	-0.006655145
187	0xbc24f8b2	-0.010069059
188	0x3c9027ea	0.017597158
189	0xbd764c32	-0.06013126
190	0xbc3138d2	-0.01081677
191	0x3d287230	0.041124523
192	0xbc977d88	-0.018492475
193	0xbcefb74c	-0.029262207
194	0x3d9b8ec6	0.07595591
195	0x3c279ed9	0.010230743
196	0x3c6dd47d	0.014515993
197	0xbd640cac	-0.055676147
198	0x3d1fc5ef	0.039007124
199	0x3de0e8c2	0.10981895
200	0xbd65c9e7	-0.056100752
201	0x3d0292ad	0.031878162
202	0x3dbf7865	0.09349135
203	0x3c0f06a2	0.008729609
204	0xba01a2e1	-0.00049452303
205	0x3dac42b4	0.0841116
206	0x3cc81a76	0.02442668
207	0xbc243fea	-0.010025004
208	0xbdfdec8f	-0.123986356
209	0x3d114d50	0.03547412
210	0x3c9a5cc9	0.018843072
211	0x3c4cde7b	0.012504215
212	0xbd439f0b	-0.047759097
213	0x3d647289	0.05577329
214	0x3b4d4932	0.0031324145
215	0x3d4b56fe	0.04964351
216	0xbb500ab6	-0.0031744665
217	0xbc566450	-0.01308544
218	0x3da99518	0.082803905
219	0x3ce515d9	0.02796452
220	0xbda5e2a9	-0.080998726
221	0x3d47b898	0.048760027
222	0xbd028915	-0.031869013
223	0x3d3aa213	0.045564722
224	0x3da73e70	0.08166206
225	0x3c3d6b91	0.01156129
226	0xbcbcf6d8	-0.023066923
227	0xbceaa58b	-0.02864339
228	0x3c8ea2ac	0.017411552
229	0xbc13caa4	-0.009020481
230	0xbcc90e0b	-0.024542829
231	0x3c647191	0.013943092
232	0xbcd4ab3b	-0.025960555
233	0x3cd96b8d	0.026540542
234	0x3d14ff84	0.03637649
235	0x3d8d164c	0.068890184
236	0xbb9efcd7	-0.004851918
237	0xbc1b2014	-0.009468097
238	0xbc39cd1b	-0.011340405
239	0xbd6c33a1	-0.057666425
240	0xbc49f949	-0.012327501
241	0x3d3daa26	0.046304844
242	0x3d846a1e	0.06465553
243	0x3cb5e701	0.022204878
244	0x3c3ae2e8	0.011406638
245	0x3b9ab904	0.0047217626
246	0xbc387b90	-0.011259928
247	0xbb696aa5	-0.0035616544
248	0x3c0799c8	0.00827641
249	0xbd62a608	-0.05533412
250	0xbca307cf	-0.019901184
251	0x3ce72f4f	0.0282208
252	0x3c92441d	0.017854745
253	0xbd32da29	-0.043665085
254	0x3c0196f5	0.007909526
255	0xbd15c994	-0.036569193
