notebooks/graphsage_encoder.pt (torch, 69627 bytes, 3 tensors)

convs.0.lin_l.weight f4 [32, 262]
0	0x3cd906a9	0.026492434
1	0xbce148b5	-0.02750049
2	0xbae491c0	-0.0017438456
3	0x3b9e5700	0.0048321486
4	0xbd6c19ef	-0.05764192
5	0xbde386b9	-0.11109681
6	0xbbc1ca27	-0.005913991
7	0x3dab8087	0.08374124
8	0x3dd4bc6d	0.10387502
9	0xbd41f715	-0.047354776
10	0xbe977b73	-0.29586372
11	0x3e805f7e	0.25072855
12	0xbd7e6d49	-0.06211594
13	0x3cf07b4d	0.02935567
14	0x3e04fa00	0.12985992
15	0x3d30ef09	0.04319671
16	0x3d1f1612	0.038839407
17	0x3be15851	0.006876983
18	0xbe2a7048	-0.16644394
19	0x3d7c8064	0.06164588
20	0x3e5300d5	0.20605786
21	0x3d1d3a7e	0.03838586
22	0x3de628a3	0.112382196
23	0x3d9139a9	0.07091076
24	0xbd32aa7e	-0.043619625
25	0x3e3c47e6	0.18386802
26	0xbc1954b5	-0.009358575
27	0x3db3be1b	0.08776494
28	0xbd1708e7	-0.036873724
29	0xbd873e34	-0.06603661
30	0x3d3a3783	0.045463096
31	0xbd926998	-0.07149047
32	0x3cf4d87f	0.02988839
33	0x3e458a39	0.19291009
34	0xbdb0b5d7	-0.08628433
35	0xbd340551	-0.043950383
36	0x3d9e37a7	0.077254586
37	0x3ec8783f	0.3915424
38	0xbc3ac8eb	-0.011400442
39	0xbdb1ccba	-0.086816266
40	0x3ec6dbed	0.38839665
41	0x3ddfe871	0.109330066
42	0x3e19d4fa	0.1502265
43	0xbcae17e2	-0.021251623
44	0x3e3c50ca	0.18390194
45	0xbe8172a6	-0.25282782
46	0xbc06bd26	-0.008223807
47	0x3e33b207	0.17548381
48	0xbc24d243	-0.010059896
49	0x3f53000d	0.8242195
50	0x3f08c519	0.5342575
51	0xbc18154a	-0.009282419
52	0xbddc5a4a	-0.10759409
53	0xbe1f6730	-0.15566707
54	0x3aa046d2	0.0012228137
55	0xbd701329	-0.058612023
56	0xbc5f9ddf	-0.013648479
57	0xbe1b4977	-0.15164743
58	0x3e3b39be	0.18283746
59	0x3e0ccf7c	0.13751024
60	0x3e07a623	0.1324697
61	0x3c5fe448	0.013665266
62	0x3ea171c9	0.31532124
63	0xbe5a1171	-0.21295716
64	0xbd299eb0	-0.0414111
65	0x3f23288b	0.6373374
66	0xbe40348d	-0.18770047
67	0x3d5b6a7b	0.053568345
68	0xbb1a866b	-0.0023578655
69	0xbb55839c	-0.0032579666
70	0x3d55971c	0.052146062
71	0x3cee3b85	0.029081115
72	0x3d5fb744	0.054618135
73	0x3e3faa00	0.18717194
74	0x3d70a774	0.058753446
75	0xbe2f6973	-0.1713007
76	0x3e0f0bc3	0.1396933
77	0x3d86d49c	0.06583521
78	0x3c80ae17	0.015708013
79	0x3cd26ac4	0.025685675
80	0x3ea0caac	0.31404626
81	0xbd0943e0	-0.033511996
82	0xbe58f768	-0.21188128
83	0x3eb82135	0.35962835
84	0x3bfddd7e	0.007747351
85	0x3d11d550	0.03560382
86	0x3db89803	0.09013369
87	0x3e046086	0.12927446
88	0xbe3c39d7	-0.18381439
89	0x3e109343	0.14118676
90	0x3e0974c9	0.13423456
91	0x3b2bdeff	0.0026225445
92	0x3e8016b5	0.25017324
93	0xbdad95dc	-0.08475849
94	0x3d22cb8a	0.03974489
95	0xbc03c698	-0.008042954
96	0xbd5d3eae	-0.054014854
97	0x3e408c2f	0.18803476
98	0xbd2a7a86	-0.041620754
99	0x3ca3ec65	0.020010183
100	0xbcd395e2	-0.025828306
101	0x3df9b62e	0.12192951
102	0x3cb39f6d	0.021926606
103	0xbe1a9dbe	-0.15099236
104	0x3d96d66a	0.07365115
105	0xbe145e39	-0.14489068
106	0x3e5f9782	0.2183514
107	0xbdf7c9a8	-0.1209901
108	0x3d37c169	0.044862185
109	0xbcaeb3f9	-0.021326052
110	0x3c76d8e4	0.015066359
111	0xbdb3dbda	-0.08782168
112	0xbd809181	-0.06277753
113	0x3bb03d0b	0.0053783706
114	0x3c9444e4	0.018099256
115	0xbc322f67	-0.010875559
116	0xbd9dcb68	-0.07704812
117	0x3d855f58	0.06512326
118	0xbcf9be52	-0.03048626
119	0x3e8fa87e	0.28058237
120	0xbdac8240	-0.08423281
121	0x3f4c3783	0.79772204
122	0x3e3d18a6	0.18466434
123	0xbde25a9f	-0.11052441
124	0x3f0abc10	0.5419321
125	0x3d32454d	0.04352312
126	0xbd796fec	-0.060897753
127	0x3ebc66e7	0.36797258
128	0xbe02a135	-0.12756808
129	0x3b3445a1	0.0027507322
130	0x3ee0d4b1	0.4391227
131	0x3f223f00	0.6337738
132	0xbea09576	-0.3136403
133	0x3ed53a3f	0.41646
134	0x3e2e4723	0.17019324
135	0xbd674fe5	-0.056472678
136	0x3d2a6f9d	0.04161035
137	0x3beeaf9d	0.0072841183
138	0xbe024918	-0.12723196
139	0xbe48549b	-0.19563524
140	0x3e2bc406	0.16773996
141	0xbda26c78	-0.07930845
142	0xbe0f7ac8	-0.14011681
143	0xbda57b7d	-0.08080194
144	0xbe18c977	-0.14920603
145	0x3e116159	0.14197291
146	0xbbf4275a	-0.00745098
147	0xbd8d6b8d	-0.06905279
148	0x3d09a43c	0.03360389
149	0xbe0d5e27	-0.13805448
150	0x3def5d93	0.1168777
151	0xbd944735	-0.07240144
152	0xbdf17c36	-0.117912695
153	0x3dc12577	0.09430974
154	0x3e04cce9	0.12968792
155	0x3d00c425	0.031437058
156	0x3cb6e442	0.022325639
157	0xbd167d37	-0.036740508
158	0xbdfa8553	-0.12232461
159	0xbdd5a2cb	-0.10431441
160	0xbc36cac8	-0.011156745
161	0xba717854	-0.00092113507
162	0x3d14c18a	0.036317386
163	0x3df0e04f	0.117615335
164	0x3d2ec918	0.042672247
165	0xbe85af9f	-0.2611055
166	0x3cc2f028	0.023796156
167	0xbe660c7e	-0.22465703
168	0x3dc895b6	0.0979418
169	0xbe2db1bf	-0.16962336
170	0xbd37cbaa	-0.044871964
171	0xbd889273	-0.06668558
172	0xbd7b0220	-0.061281323
173	0x3d2650ac	0.04060428
174	0x3e03305a	0.12811413
175	0x3d9a3da8	0.07531291
176	0x3d84d534	0.06485978
177	0xbd57aa82	-0.052652843
178	0xbe32c1d3	-0.1745675
179	0xbd843d67	-0.06457024
180	0xbd405b3b	-0.046962004
181	0x3c8fe042	0.01756299
182	0x3ce355e9	0.027750926
183	0xbe073efe	-0.13207623
184	0x3dcc226d	0.09967504
185	0xba982b85	-0.001160965
186	0x3d810b3a	0.063009694
187	0xbc97ccb2	-0.018530224
188	0x3caa716b	0.020806035
189	0x3e3fae98	0.18718946
190	0xbca39680	-0.019969225
191	0x3dc8b98b	0.098010145
192	0x3c5c571f	0.013448506
193	0x3df2e8bb	0.11860796
194	0x3e3fcb23	0.18729834
195	0x3da00bc5	0.07814745
196	0x3d77798c	0.06041865
197	0x3d180f10	0.03712374
198	0xbcdeb341	-0.027185084
199	0x3e7754ef	0.24153493
200	0xbde35bca	-0.11101492
201	0x3dc5edba	0.09664483
202	0x3de5765f	0.11204218
203	0x3cf49801	0.029857637
204	0x3c85cfdd	0.016334468
205	0xbc9100ce	-0.017700579
206	0x3de33011	0.11093152
207	0x3e0c07f6	0.13674912
208	0x3c8b0e19	0.016974496
209	0x3e242213	0.16028623
210	0x3dfed20e	0.124424085
211	0x3d8fe133	0.07025375
212	0xbd3a98b1	-0.045555774
213	0x3de5ab86	0.11214356
214	0x3dce4deb	0.100734554
215	0xbd8faba5	-0.070151605
216	0xbde75b7f	-0.11296748
217	0xbdb2fa69	-0.08739168
218	0xbe387cbe	-0.18016335
219	0xbc8f9f4b	-0.017532011
220	0xbe87c26c	-0.2651552
221	0x3d83a455	0.06427828
222	0x3e72bc90	0.23704743
223	0xbd65268e	-0.05594497
224	0x3dee957c	0.11649606
225	0xbda395d6	-0.07987563
226	0x3dc12c42	0.0943227
227	0xbe06a64b	-0.13149373
228	0xbe37f156	-0.17963156
229	0xbd8d4034	-0.068970114
230	0x3d3bc3ad	0.045840908
231	0xbdc7cae6	-0.09755497
232	0x3d307851	0.043083493
233	0x3d438286	0.0477319
234	0xbe24c356	-0.1609014
235	0x3d868d4d	0.0656992
236	0x3e62897e	0.22122762
237	0xb9c33c98	-0.00037238444
238	0xbd15929d	-0.036516774
239	0x3e06c9c3	0.13162903
240	0xbdc6db02	-0.09709741
241	0x3e25bf21	0.16186191
242	0xbda29fe6	-0.079406545
243	0x3d1db8b0	0.03850621
244	0xbc1eccc9	-0.009692379
245	0x3b5c4558	0.0033610668
246	0x3d1c9b50	0.038234055
247	0xbde7b185	-0.11313156
248	0xbc2d6675	-0.01058351
249	0x3d6c9e3b	0.057768088
250	0x3d744d56	0.059644066
251	0x3d50cf93	0.05097921
252	0xbe15cb7c	-0.14628404
253	0x3d826238	0.0636639
254	0xbdcbce89	-0.09951503
255	0xbb899f16	-0.0041998727

convs.0.lin_l.bias f4 [32]
0	0xbca0a311	-0.019609006
1	0x3c2f4933	0.010698604
2	0x3d0542d2	0.032534428
3	0xbc97f14f	-0.018547682
4	0xbcf15dbf	-0.029463647
5	0x3cc23cb0	0.023710579
6	0xbca8c1f0	-0.02060029
7	0xbbd398c6	-0.006457421
8	0xbd1f8d5b	-0.038953166
9	0xbcbced17	-0.023062272
10	0xbc6c0070	-0.014404401
11	0x3cba016c	0.022705756
12	0xbc578070	-0.0131531805
13	0xbcea6de4	-0.028616853
14	0x3b019e72	0.0019778279
15	0xbcb0ea65	-0.021596143
16	0xbc8c47e8	-0.017124131
17	0x3c416740	0.011804402
18	0x3cd75a71	0.026288243
19	0xbc33e0cb	-0.010978888
20	0x3a2c513b	0.00065733836
21	0x3cbbddba	0.022932876
22	0x39c18504	0.00036910933
23	0xbb9a231b	-0.004703892
24	0xbb5d73e5	-0.0033791002
25	0x3d2d0a89	0.042246375
26	0x3c0991ad	0.008396548
27	0x3cad7212	0.021172557
28	0x3b1c21dc	0.0023823893
29	0xba8039cc	-0.000978285
30	0xbba72694	-0.0051010344
31	0x3c1dc1cf	0.009628727

convs.0.lin_r.weight f4 [32, 262]
0	0x3ba043ca	0.0048908936
1	0x3d41add7	0.047284927
2	0x3d4073ea	0.046985544
3	0x3cd140a2	0.025543515
4	0x3bde7fba	0.0067901285
5	0x3cb6431a	0.022248793
6	0x3cb528b2	0.022114132
7	0x3cab4dbd	0.020911092
8	0x3cee9604	0.029124267
9	0x3b1b6aec	0.0023714853
10	0x3c0da968	0.008646347
11	0x3d5b189f	0.053490277
12	0x3bf1e84c	0.0073824283
13	0x3c90395f	0.017605482
14	0x3cfbfbd6	0.030759733
15	0x3c8cd6be	0.01719224
16	0x3ca99cb1	0.0207046
17	0x3c731b27	0.014838017
18	0x3ca81663	0.020518487
19	0x3d2da090	0.042389452
20	0x3d259d07	0.040432956
21	0x3cdc81b0	0.026917309
22	0x3cf2281c	0.029560141
23	0x3c98eb46	0.018666875
24	0xbc4cf9b2	-0.012510704
25	0x3b91dedf	0.004451617
26	0xbcb1571f	-0.021647988
27	0xbc52c29c	-0.012863781
28	0xbca15a50	-0.019696385
29	0xbd01a417	-0.03165063
30	0xbc5d9b0f	-0.013525738
31	0x3ba5dd10	0.005061753
32	0xbbce595c	-0.0062972736
33	0xbc349550	-0.011021927
34	0xbcd3e45d	-0.025865728
35	0xbc0a086a	-0.008424858
36	0x3bb454ff	0.0055032964
37	0x3c1c45e3	0.009538147
38	0xbbf706e7	-0.0075386646
39	0xbc89c427	-0.016817166
40	0xbc596aa0	-0.01327005
41	0xbbdd6de2	-0.006757484
42	0x3c9cbb17	0.01913218
43	0xbc4d0faf	-0.012515946
44	0x3bf36178	0.0074273907
45	0xbd1d8d95	-0.0384651
46	0xbc5da871	-0.013528929
47	0x3cd394b9	0.025827752
48	0xbb0fc4b3	-0.002193731
49	0x3afe6202	0.0019407871
50	0x3cb064ef	0.021532504
51	0xbcbd5bb2	-0.023115013
52	0xbc880b56	-0.016606968
53	0xbcea9c3a	-0.028638948
54	0xbc30c6e6	-0.010789609
55	0xbc77eec7	-0.015132613
56	0xbc106037	-0.008812002
57	0xbc99ee57	-0.018790407
58	0x3a1cd37c	0.00059824414
59	0x3c8458af	0.016155569
60	0x3c3a200a	0.011360178
61	0x3c79586f	0.015218838
62	0x3be4886e	0.0069742715
63	0xbc1c5af1	-0.0095431665
64	0xbc6d01db	-0.014465774
65	0xbb049f75	-0.0020236645
66	0xbcf634b4	-0.030054428
67	0x3a6792d7	0.00088338315
68	0xbc3f090d	-0.011659873
69	0xbbade6a9	-0.005307038
70	0xbc03ce42	-0.008044781
71	0xbbd5f3fe	-0.0065293303
72	0xbbc72a1b	-0.0060780174
73	0xbba8f70a	-0.0051564025
74	0xbbf567d0	-0.007489182
75	0xbcf5bf7c	-0.029998533
76	0xbc2d47bb	-0.010576184
77	0xbbfffe14	-0.007812271
78	0xbb5e404a	-0.003391283
79	0xbc1018a8	-0.008794941
80	0x3d0b307a	0.033981778
81	0x39f348b1	0.0004640273
82	0x3d160881	0.036629204
83	0x3c991640	0.018687367
84	0xbc230c0c	-0.009951603
85	0x3b8f3b5d	0.0043710903
86	0xbb46a7fc	-0.0030312529
87	0x3bf1a413	0.0073742955
88	0xbcc5a467	-0.024126245
89	0x3c93d3ba	0.018045295
90	0x3b8a1628	0.004214067
91	0x3c3d9924	0.011572156
92	0xbcab64e1	-0.020922126
93	0xbcafb11c	-0.021446757
94	0x3c84ccd1	0.016210945
95	0xbc911ef2	-0.017714951
96	0xbcf607e6	-0.030033063
97	0xbc386d10	-0.011256471
98	0xba159649	-0.0005706293
99	0xbcbfef1a	-0.023429442
100	0xbc56b50c	-0.013104688
101	0x3c94214d	0.018082285
102	0xbca72bcb	-0.020406624
103	0xbc548c0d	-0.012972844
104	0x3bec1df3	0.0072057187
105	0xbccb9693	-0.024852073
106	0xb95a4d04	-0.0002081879
107	0xbd031191	-0.031999175
108	0xbc7fbd40	-0.015609086
109	0xbcb9e2d7	-0.022691173
110	0xbb99a938	-0.004689362
111	0xbc7706ec	-0.015077334
112	0xbc9992d1	-0.018746765
113	0xbc9e25d7	-0.019305153
114	0xbc6c7e57	-0.014434419
115	0xbc53f20a	-0.012936125
116	0xbcd722ac	-0.02626165
117	0xbc19567d	-0.009358999
118	0xbc2bbd5a	-0.010482157
119	0x3c618a8c	0.013765942
120	0x3ab3a302	0.0013705196
121	0x3cc4763a	0.023982156
122	0xbbde0ec6	-0.0067766635
123	0xbb962ad5	-0.0045827427
124	0x3b72ddff	0.003705859
125	0x3cb4087f	0.021976708
126	0x3ca81e1b	0.020522168
127	0x3c9ea8bd	0.01936757
128	0xbcf622ef	-0.030045955
129	0x3b98fff3	0.0046691834
130	0xbb7ca394	-0.0038549649
131	0x3cf2ee85	0.02965475
132	0xbc8c5b26	-0.017133307
133	0x3cdb1ad0	0.026746184
134	0x3c630ac7	0.01385755
135	0xbd2e4bb9	-0.042552684
136	0xbcaed7c1	-0.021343114
137	0xba802f88	-0.000977979
138	0xbb9dd3d6	-0.0048165126
139	0xbd133683	-0.03594066
140	0x3d3d4ae3	0.046213996
141	0x39ae677e	0.00033264974
142	0xbc0f4ec7	-0.008746809
143	0xbd9fe05b	-0.07806464
144	0x3cf44636	0.029818635
145	0x3ba203f7	0.0049443203
146	0xbc303126	-0.010753905
147	0xbbf1da97	-0.0073807943
148	0xbb129da5	-0.0022371795
149	0xbdb3c334	-0.087774664
150	0x3d0b4c62	0.03400839
151	0xbdda539b	-0.10660478
152	0xbcdfdc83	-0.027326828
153	0x3cab6c3c	0.020925634
154	0xbdac5ee4	-0.084165365
155	0x3b8ebdff	0.0043561454
156	0xbc8871b1	-0.016655775
157	0xbb9f2631	-0.0048568477
158	0xbd2342fe	-0.03985881
159	0xbb72976d	-0.0037016526
160	0xbc172c7c	-0.0092269145
161	0x3c09cce4	0.008410666
162	0x3c3fc552	0.01170476
163	0xbb5619a5	-0.0032669094
164	0xbb64610f	-0.003484789
165	0xbd43155c	-0.04762779
166	0x3b8e7a21	0.004348055
167	0xbca2a88f	-0.019855766
168	0xbb938229	-0.0045016003
169	0xbdf736af	-0.12070977
170	0xbce9b5be	-0.028529044
171	0xbca31e4a	-0.019911904
172	0x3c45d468	0.012074567
173	0x3c517df2	0.012786375
174	0x3c4c1b53	0.0124576865
175	0x3a9eeb49	0.0012124564
176	0x3a1dba2d	0.0006016817
177	0x3c361de2	0.011115523
178	0xbcabe77d	-0.020984406
179	0xbb9e525e	-0.0048315963
180	0xbc02925a	-0.007969463
181	0x3c6977e0	0.014249772
182	0x3af86268	0.0018950226
183	0x3bd9f779	0.0066518155
184	0x3c436026	0.011924779
185	0x3b4b6d89	0.003104063
186	0x3d1468b9	0.036232684
187	0xbb85515d	-0.004068537
188	0x3bb2be7c	0.0054548364
189	0x3cab3c57	0.020902796
190	0xbb9c6518	-0.0047727935
191	0xbc8da651	-0.01729122
192	0xbb77627f	-0.0037747917
193	0x3c5d93ad	0.013523978
194	0x3bdd5116	0.006754051
195	0xbc165bb8	-0.009177141
196	0x3b57e8e0	0.00329452
197	0xbc042134	-0.008064557
198	0x3caef339	0.021356212
199	0xbba83ad6	-0.005133967
200	0xbb135444	-0.0022480646
201	0xbb19b3ce	-0.002345312
202	0x3c6a3a99	0.014296197
203	0xba4c8e3d	-0.00078031776
204	0x3c1ee9fd	0.009699342
205	0xbb2778b4	-0.0025554122
206	0x3c446fb8	0.011989526
207	0x3bd655cf	0.006540991
208	0x3b5427dd	0.0032372393
209	0x3b03d2b1	0.0020114596
210	0xba1ae0e0	-0.0005908143
211	0x3b96c111	0.004600652
212	0x3b51ce06	0.0032013669
213	0x3ac34c1a	0.0014899999
214	0x3c1580b4	0.0091249235
215	0x3af22366	0.0018473684
216	0x3b5c630d	0.0033628375
217	0x3aa17e20	0.0012320913
218	0xbc5e1f92	-0.013557332
219	0xbb43db2a	-0.002988527
220	0xbca9ab7a	-0.02071165
221	0xbc039829	-0.008031883
222	0xbb526c88	-0.0032108147
223	0xbc7cd8c3	-0.015432539
224	0x3bed1905	0.0072356486
225	0xbbb3710e	-0.0054761237
226	0xbd0081e1	-0.031373862
227	0xbcaaed86	-0.020865213
228	0xbd615a5e	-0.05501782
229	0x3b59c2a1	0.003322758
230	0xbbb52c4a	-0.0055289613
231	0xbdecfe08	-0.1157189
232	0xbd149fee	-0.036285333
233	0xba93293e	-0.0011227501
234	0xba9fd28f	-0.0012193489
235	0x3a45b070	0.0007541245
236	0x3d4f9a52	0.05068428
237	0xb700129e	-7.633729e-06
238	0xbbb8f16c	-0.005644014
239	0xba33e83c	-0.0006862914
240	0xbc6b08ea	-0.014345387
241	0x3c632c83	0.013865593
242	0xb7f9e95c	-2.979178e-05
243	0xbacac5dd	-0.0015470345
244	0x3bdca32f	0.00673332
245	0x3b1e914c	0.002419549
246	0xb9972626	-0.00028829387
247	0xbb4630ed	-0.0030241564
248	0x3b0514be	0.0020306553
249	0x3ac060d6	0.0014677297
250	0xbc410f4e	-0.011783434
251	0x3b1c01ad	0.002380471
252	0x3bd5d7fc	0.0065259915
253	0xbaa0215c	-0.0012216973
254	0x3a3a1de3	0.00070997904
255	0x3b3ad693	0.0028509244
