notebooks/graphsage_encoder.pt (torch, 337997 bytes, 6 tensors)

convs.0.lin_l.weight f4 [128, 262]
0	0xbc31fc03	-0.010863307
1	0x3d41ffdc	0.047363147
2	0xbd05b7b2	-0.03264589
3	0x3d13d294	0.036089495
4	0x3e10db3c	0.14146131
5	0x3e0c0d8e	0.13677046
6	0x3cd2c909	0.025730627
7	0xbe31a675	-0.17348655
8	0xbd6fa6b8	-0.058508605
9	0xbde13a63	-0.109974645
10	0x3e8184df	0.25296685
11	0x3d5b696f	0.053567346
12	0x3d9b0d07	0.07570844
13	0x3dc927c3	0.09822037
14	0xbd8738dd	-0.06602643
15	0x3dfffab1	0.124989875
16	0x3c9250b3	0.017860746
17	0xbd297e65	-0.041380305
18	0x3d34319d	0.043992627
19	0xbdbdf3f6	-0.092750475
20	0x3afc7232	0.0019260107
21	0xbd71ad85	-0.05900337
22	0xbe73fd8c	-0.23827189
23	0xbdd21fbc	-0.10259959
24	0xbda68969	-0.08131678
25	0x3bfbb2ef	0.0076812427
26	0x3bb63113	0.0055600493
27	0xbd2b3a99	-0.04180393
28	0x3d157774	0.036490873
29	0x3c822cc1	0.015890481
30	0xbd2b86d8	-0.041876644
31	0xbd2bbdde	-0.04192912
32	0x3d736cba	0.05942986
33	0xbca5ce50	-0.020239979
34	0x3e61df0e	0.22057745
35	0x3d7e5e44	0.062101617
36	0x3c8c73ce	0.017145064
37	0x3cb4e223	0.022080487
38	0xbd3b3083	-0.04570056
39	0xbe0d9629	-0.13826813
40	0x3d6dd57f	0.058064934
41	0xbe307002	-0.17230228
42	0xbddd4472	-0.108040705
43	0xbc5f6db8	-0.013636999
44	0x3d47222c	0.048616573
45	0x3db1e396	0.08685987
46	0x3de8a6ee	0.11359964
47	0xbd834bce	-0.06410943
48	0xbdb4b978	-0.08824438
49	0xbc4bc2f7	-0.01243662
50	0xbd823e31	-0.06359518
51	0xbc5cc8a1	-0.013475568
52	0xbd0161b6	-0.031587325
53	0x3d2e8ebe	0.0426166
54	0xbe0f4713	-0.13991956
55	0xbd8089b4	-0.06276265
56	0x3d29312c	0.04130666
57	0xbd949d50	-0.072565675
58	0x3c103863	0.008802506
59	0x3d30b6ed	0.0431432
60	0x3cfd1d7c	0.030897848
61	0xbd8885af	-0.06666123
62	0xbdce1563	-0.10062673
63	0xbd12d572	-0.03584809
64	0x3dc84a7a	0.0977983
65	0xbb70590d	-0.0036674172
66	0x3e0ed42b	0.13948123
67	0x3dc3feba	0.095700696
68	0xbe000814	-0.12503082
69	0xbda0e1fa	-0.078556016
70	0xbe5941eb	-0.21216552
71	0x3df78260	0.12085414
72	0x3dd5ef68	0.10446054
73	0x3db0638e	0.086127385
74	0xbc8df5f7	-0.0173292
75	0x3d04baf5	0.03240486
76	0xbd215c44	-0.039394632
77	0xbd9759bc	-0.07390162
78	0xbe14fec3	-0.14550309
79	0xbc5904f9	-0.0132458145
80	0xbd4442a3	-0.047915112
81	0xbda296ce	-0.0793892
82	0x3d71cea1	0.059034947
83	0xba2e6fc4	-0.00066542276
84	0x3de826a6	0.113354966
85	0xbdcaf588	-0.099101126
86	0xbd5280db	-0.051392417
87	0x3c9328a8	0.017963722
88	0xbd8a6592	-0.06757654
89	0x3d60b325	0.054858346
90	0x3d325b80	0.043544292
91	0x3d411163	0.047135722
92	0xbdc91311	-0.0981809
93	0x3d106121	0.03524888
94	0xbdba871a	-0.091078
95	0xbda79d84	-0.081843406
96	0x3db6d837	0.089279585
97	0xbcc44806	-0.023960125
98	0xbc03f6e5	-0.00805447
99	0x3d679534	0.056538776
100	0xbe3859d8	-0.18003023
101	0xbe0828a5	-0.13296755
102	0xbe19e16a	-0.15027395
103	0xbde0c286	-0.109746024
104	0x3d395067	0.045242693
105	0xbe23b46b	-0.15986793
106	0x3ac1b7eb	0.0014779543
107	0x3df92806	0.12165837
108	0x3d4e225e	0.050325744
109	0x3e2b76a3	0.16744475
110	0x3d8d6be6	0.069053456
111	0xbd4e3c3e	-0.05035042
112	0xbe10f79a	-0.14156953
113	0xbd334703	-0.043768894
114	0x3caa1fc7	0.020767106
115	0xbe0babbf	-0.13639735
116	0x3d995440	0.074867725
117	0xbd2b6ae9	-0.041850004
118	0x3de840ff	0.11340522
119	0x3cb48a35	0.022038558
120	0x3dd9e629	0.10639603
121	0xbbecc1d2	-0.0072252536
122	0xbcc7e3cd	-0.024400616
123	0x3df13fc9	0.11779744
124	0xbcf13918	-0.02944617
125	0xbc876126	-0.016525816
126	0xbdc8b27b	-0.097996674
127	0xbd036cad	-0.032086063
128	0xbc82426c	-0.015900813
129	0xbcbb7d48	-0.022886887
130	0xbcc71f08	-0.024306789
131	0x3cd8861c	0.026431136
132	0xbd414607	-0.047185924
133	0x3bd6e789	0.006558363
134	0xbd2836f2	-0.041068025
135	0xbb290065	-0.0025787589
136	0x3aaeea8a	0.0013345045
137	0x3d014842	0.03156305
138	0x3e14da3c	0.14536375
139	0x3c457768	0.012052394
140	0xbd359621	-0.044332627
141	0x3d54d48b	0.05196051
142	0x3e1d0c18	0.15336645
143	0x3a187ca7	0.00058169145
144	0x3ce1d173	0.027565693
145	0x3d38127b	0.0449395
146	0x3e0a25cb	0.1349098
147	0x3b44d1f1	0.0030032361
148	0x3ddd4425	0.10804013
149	0x3e2c2ea0	0.16814661
150	0xbbb4d0ea	-0.0055180686
151	0x8f55e6a5	-1.0546131e-29
152	0x3b2a1c6b	0.002595688
153	0x3bb418eb	0.0054961345
154	0xbbd163b1	-0.006390058
155	0xbc55d781	-0.013051868
156	0xbc95d5e6	-0.018290471
157	0xbb011307	-0.001969518
158	0xbc6a3aad	-0.014296216
159	0xbd40b2ff	-0.047045704
160	0xbd339c99	-0.043850515
161	0xbc770aff	-0.015078305
162	0xbcbe2d4f	-0.023214964
163	0xbd9224a5	-0.07135896
164	0xbd1169ca	-0.03550128
165	0xbbe539ca	-0.0069954144
166	0xbd1288ec	-0.03577511
167	0xbd15c105	-0.03656103
168	0xbd14986c	-0.036278173
169	0xbc27c9d7	-0.010240993
170	0xbcc72037	-0.024307353
171	0xbc7d0da1	-0.015445144
172	0xbd5b57de	-0.053550594
173	0xbc9c2762	-0.019061748
174	0x3c059910	0.008154169
175	0x3cdf4066	0.027252387
176	0xbd30407f	-0.04303026
177	0xb83226e8	-4.247474e-05
178	0xbcb07293	-0.021539008
179	0xbd9d8796	-0.076918766
180	0xbcbf0195	-0.023316184
181	0x3cefd15c	0.029274635
182	0xbdd3566c	-0.10319218
183	0xbcb91466	-0.022592735
184	0xbd4252b6	-0.04744216
185	0xbc90ea0b	-0.017689725
186	0xbd333df1	-0.043760244
187	0xbce96f72	-0.028495524
188	0xbca12643	-0.019671565
189	0xbd394394	-0.045230463
190	0xbd899c65	-0.06719283
191	0xbd2b7e4d	-0.041868497
192	0xbd5c3c55	-0.053768475
193	0x3a7d21e4	0.0009656234
194	0x3d46e60f	0.048559245
195	0xbd49af63	-0.049239527
196	0xbdb9417b	-0.090456925
197	0xbdf22360	-0.118231535
198	0xbbf64db3	-0.0075165867
199	0xbd81fc31	-0.0634693
200	0xbde8b813	-0.11363234
201	0xbd899adb	-0.067189895
202	0xbdfc200d	-0.12310801
203	0xbcfb93b2	-0.030710075
204	0xbd49b824	-0.049247876
205	0xbc74cb28	-0.014941014
206	0xbd9ce122	-0.07660128
207	0x3ad96203	0.0016584996
208	0xbd5209ce	-0.05127888
209	0xbcec72e0	-0.02886337
210	0xbd389268	-0.0450615
211	0xbd6d6b98	-0.057963938
212	0xbd2b1da5	-0.041776318
213	0x3c596e7d	0.013270971
214	0xbdb9244d	-0.09040127
215	0xbd91c401	-0.07117463
216	0xbdcdfd0f	-0.10058033
217	0xbd90f6bf	-0.07078313
218	0xbd2d51d9	-0.042314384
219	0x3e1d9173	0.15387516
220	0x3e54db90	0.20786881
221	0xbcd7ab72	-0.026326869
222	0x3d9491cf	0.07254373
223	0x3b4ba058	0.0031070914
224	0xbda5b0d1	-0.08090366
225	0x3e1763d9	0.14784183
226	0xbc16b800	-0.009199142
227	0xbc371758	-0.011174999
228	0xbbb27543	-0.0054461076
229	0xbc83f4f0	-0.016108006
230	0x3deb7f40	0.114988804
231	0x3db73ef3	0.089475535
232	0xbb8e57b4	-0.004343951
233	0x3c921c29	0.017835693
234	0x3de7a26f	0.113102786
235	0x3d01cfb0	0.031692207
236	0x3d45de31	0.0483076
237	0x3d3a3e55	0.0454696
238	0x3d93fc32	0.07225837
239	0xbd03ad2a	-0.032147564
240	0xba9e9da5	-0.0012101425
241	0x3d44bfff	0.048034664
242	0x3e00b0fe	0.12567517
243	0x3c2aa4e1	0.010415287
244	0xbdb1da4d	-0.08684216
245	0xbdce6426	-0.100776955
246	0xbc93ea78	-0.01805614
247	0xbd963ebe	-0.07336186
248	0xbd743345	-0.059619207
249	0xbc0f05da	-0.008729422
250	0x3e5ef43d	0.21772857
251	0x3b4f7f46	0.0031661554
252	0xbd99b8f5	-0.07505981
253	0x3a7c7e55	0.0009631862
254	0xbd0726d5	-0.032996017
255	0xbc1a8811	-0.009431855

convs.0.lin_l.bias f4 [128]
0	0x3d2ba304	0.04190351
1	0xbd10cbd7	-0.035350647
2	0xbc7ad1ae	-0.015308781
3	0xbc565152	-0.013080912
4	0xbd442536	-0.04788705
5	0xbc8106c0	-0.015750289
6	0xbd264c2f	-0.040599998
7	0xbcf60b87	-0.030034794
8	0x3b847d54	0.0040432606
9	0xbd049f4d	-0.032378484
10	0xbca6252d	-0.020281399
11	0x3cb22da6	0.021750282
12	0x3b717256	0.0036841831
13	0x3ce2348b	0.027612945
14	0xbd3bbf56	-0.04583677
15	0x3d49a4fe	0.049229614
16	0xb90bd0ab	-0.00013333808
17	0x3d1b9547	0.03798416
18	0xbd10d5cf	-0.035360154
19	0x3ca31aba	0.019910205
20	0x3c08a8f5	0.008341064
21	0x3bcf5b0d	0.006327993
22	0x3c0210a6	0.00793854
23	0x3c6fad47	0.014628715
24	0xbd021b39	-0.031764243
25	0xbc065568	-0.008199073
26	0xbd54f659	-0.051992748
27	0x3cb54e25	0.022131989
28	0xb8de6088	-0.00010603765
29	0x3d252ddc	0.040326938
30	0xbd0660ae	-0.032807045
31	0xbc130dad	-0.0089754285
32	0x3d20c224	0.039247647
33	0xbc9111a5	-0.017708609
34	0xbcf2a7e9	-0.029621081
35	0x3bf9608f	0.0076103876
36	0x3c8d43f7	0.017244322
37	0xbbb252fc	-0.0054420214
38	0xbd13e26b	-0.0361046
39	0xbc8cac36	-0.01717196
40	0xbc822a2c	-0.01588925
41	0xbb0a0dc1	-0.0021065327
42	0x3d5de803	0.05417634
43	0xbb300fe4	-0.002686494
44	0x3c40577c	0.011739608
45	0x3ccd41f8	0.02505587
46	0x3c8bb8c4	0.017055877
47	0xbdb21f91	-0.08697427
48	0xbca44f4a	-0.02005734
49	0xbd36b67d	-0.044607628
50	0x3cabc62c	0.02096852
51	0xbd861f27	-0.065489106
52	0xbd5ab38d	-0.05339389
53	0xbc7b2bbc	-0.015330251
54	0x3c7f29d8	0.015573941
55	0xbbacd8d6	-0.0052748723
56	0xbd151d91	-0.03640515
57	0x3d47e4d9	0.04880223
58	0x3c9c586b	0.01908513
59	0xbd67fbf8	-0.05663678
60	0xbccf0498	-0.025270745
61	0x3c2b8f93	0.0104712425
62	0x3c94873c	0.018130891
63	0x3c1f7f23	0.009734902
64	0xbcc73684	-0.024317987
65	0x3d22e3f4	0.039768174
66	0xbd487794	-0.048942164
67	0x3ca93879	0.020656811
68	0x3c34a1ed	0.011024934
69	0x3c8bbf4d	0.017058993
70	0x3d15eb6c	0.03660147
71	0xbd1e77c3	-0.038688432
72	0xbd2fd643	-0.042928945
73	0xbc135aba	-0.008993799
74	0x3d27761a	0.040884115
75	0x3d0a28fb	0.03373049
76	0xbd27c2c8	-0.040957242
77	0xbd74996f	-0.05971664
78	0xbcef9262	-0.029244605
79	0x3be4b2b9	0.006979313
80	0xbb2aa61a	-0.0026038946
81	0xba4adbc3	-0.00077384355
82	0xbcf51d11	-0.029921087
83	0xbd5f03ac	-0.05444686
84	0x3c27dc93	0.01024546
85	0x3b2d0ed2	0.0026406539
86	0xbd4c33f0	-0.04985422
87	0x3c0a1d41	0.008429826
88	0xbd1948d9	-0.03742299
89	0x3c81e71e	0.015857276
90	0x3d25457b	0.040349465
91	0xbc9b43f3	-0.0189533
92	0xbd6e6b3a	-0.058207728
93	0xbd6b1f1c	-0.057402715
94	0x3b2504e4	0.0025179917
95	0x3d179ba0	0.03701365
96	0xbccb6256	-0.024827164
97	0xbd442d2f	-0.047894653
98	0x3c0d0966	0.008608198
99	0x3c9f987e	0.019481894
100	0x3c95d3bb	0.018289438
101	0x3b5a3476	0.003329543
102	0x3d39f439	0.045398924
103	0xbc89c919	-0.016819524
104	0xbcc18468	-0.023622707
105	0xbd63a3f7	-0.05557629
106	0x3c5a790d	0.013334525
107	0x3c20c90b	0.009813557
108	0xbd7a42b4	-0.06109877
109	0xba97c578	-0.0011579236
110	0x3cc93c6b	0.024564942
111	0xbd653a6b	-0.055963915
112	0x3cab12b8	0.02088295
113	0xbd68b75b	-0.056815486
114	0xbc917866	-0.017757606
115	0x3d52b6d8	0.051443905
116	0xbd32b7a8	-0.04363218
117	0xbd908ed6	-0.07058494
118	0x3d1242af	0.035708126
119	0xba067940	-0.0005129762
120	0xbceb2ac1	-0.02870691
121	0xbd0f2418	-0.03494653
122	0xbd19901a	-0.03749094
123	0xbd3631d0	-0.0444811
124	0x3d81d3b9	0.06339211
125	0xbcf616c5	-0.030040154
126	0xbd4163fb	-0.04721449
127	0x3d1a1916	0.03762158

convs.0.lin_r.weight f4 [128, 262]
0	0x3c1dffd0	0.00964351
1	0x3d12b5e2	0.03581799
2	0x3ce32054	0.027725376
3	0xba4142ea	-0.00073723367
4	0x3d50fd03	0.05102254
5	0xbb2d7dcc	-0.0026472686
6	0xbbfbe627	-0.0076873484
7	0xbd3a9533	-0.045552444
8	0xbbc14cbc	-0.00589904
9	0x3c8208c6	0.015873324
10	0x3d751654	0.059835747
11	0xbb97bda8	-0.004630763
12	0x3d25cc41	0.040477995
13	0x3d31879d	0.04334222
14	0x3d2e9027	0.042617943
15	0xba5316a9	-0.0008052388
16	0x3b7604ee	0.003753956
17	0xbc9c554f	-0.019083647
18	0x3d359b6a	0.044337668
19	0x3aed3e52	0.0018100238
20	0x3d219e9e	0.03945791
21	0x3d1c49a3	0.038156163
22	0xbd3c0678	-0.045904607
23	0x3cf956dd	0.030436927
24	0x3cd73575	0.026270607
25	0xbd8fcb4e	-0.07021199
26	0x3d4832ca	0.04887656
27	0x3d6657b4	0.056235984
28	0xbceea775	-0.029132584
29	0xbd054572	-0.03253693
30	0xbd849ea9	-0.064755745
31	0x3cdcd5ef	0.02695748
32	0xbd1d61ca	-0.038423337
33	0xbd3ed681	-0.046591286
34	0x3d4d7c00	0.050167084
35	0x3cff2cf6	0.031149369
36	0xbd164182	-0.036683567
37	0xbb9e5774	-0.0048322026
38	0x3c822c8f	0.015890388
39	0x3d4f8f48	0.050673753
40	0x3b029f9f	0.0019931567
41	0xbda27f6f	-0.07934462
42	0x3d1c040b	0.038089793
43	0x3aad3adf	0.0013216397
44	0xbc085569	-0.008321145
45	0x3d524712	0.05133731
46	0xbcafe79f	-0.02147275
47	0xbc07cec5	-0.008289044
48	0xba07df53	-0.0005183119
49	0xbc855d78	-0.016279921
50	0xb9886811	-0.00026017477
51	0x3d6e1b04	0.058131233
52	0x3cb7a216	0.022416156
53	0xbd70bd4a	-0.05877427
54	0xbb9271de	-0.0044691404
55	0x3d235ccd	0.039883424
56	0x3d799257	0.060930576
57	0x3cddd2e5	0.027078101
58	0xbcdbc7a0	-0.026828587
59	0x3d5b38c8	0.053520948
60	0xbce660a2	-0.02812225
61	0x3cde6454	0.02714745
62	0x3c76a6d1	0.015054421
63	0xbc445300	-0.011982679
64	0xbbf36b83	-0.007428588
65	0xbbd51f9d	-0.0065040127
66	0x3cf7561b	0.030192425
67	0xbcd52eb6	-0.02602325
68	0x3a87208a	0.001030938
69	0x3c3a47d9	0.011369669
70	0x3ced9276	0.029000502
71	0xbba85203	-0.0051367297
72	0x3b17fede	0.0023192684
73	0xbca3583c	-0.019939534
74	0x3c295146	0.0103343185
75	0x3a0d3b7b	0.00053875864
76	0xbd4f526e	-0.05061572
77	0x3cd6a187	0.02620007
78	0xbc3c5208	-0.011494167
79	0xb99ea5c2	-0.00030259608
80	0x3c7439d5	0.014906366
81	0xba9d1ed6	-0.0011987339
82	0x3dcbf204	0.0995827
83	0xbc7fea17	-0.015619776
84	0x3c3d0751	0.011537389
85	0xbd98d57b	-0.07462593
86	0x3c4d5afc	0.012533899
87	0xbcd09c98	-0.025465295
88	0xbd7eea9d	-0.062235463
89	0xbcccb94f	-0.024990706
90	0xbd779785	-0.060447235
91	0xb6becace	-5.686051e-06
92	0x3cd7acca	0.02632751
93	0x3c29e022	0.010368379
94	0x3c4a36d8	0.012342177
95	0x3d5b73ab	0.053577106
96	0x3d0b1e4c	0.03396444
97	0x3d8174c3	0.06321099
98	0x3cb85377	0.022500737
99	0x3bf5cff5	0.007501597
100	0xbd90aed7	-0.07064598
101	0x3cc7d224	0.024392195
102	0x3ceaf0ac	0.028679214
103	0x3c20de27	0.00981859
104	0x3d556287	0.052095916
105	0xbd5c7ada	-0.053828098
106	0xbd5c6db5	-0.053815562
107	0x3d413954	0.047173813
108	0x3c4d6164	0.012535427
109	0x3d874c5c	0.06606361
110	0x3d255707	0.0403662
111	0x3d655112	0.055985518
112	0xbc8dce10	-0.017310172
113	0x3d0917b6	0.033469878
114	0x3c83f05c	0.016105823
115	0x3932379e	0.00016996122
116	0x3d9c8932	0.076433554
117	0xbc813d6f	-0.015776364
118	0x3d99497c	0.07484719
119	0xbcb9ce87	-0.022681488
120	0xbc169bc6	-0.009192413
121	0x3b52628b	0.0032102193
122	0x3b2dc8f5	0.0026517485
123	0x3d1027a5	0.035194058
124	0xbb864140	-0.004097134
125	0xbcb611c9	-0.022225277
126	0x3d09245d	0.033481944
127	0xbb2dc87a	-0.0026517198
128	0xbc831116	-0.015999358
129	0x3d8824ce	0.06647645
130	0xbd14229d	-0.036165822
131	0x3c36dbab	0.011160771
132	0xbbf0414f	-0.007332004
133	0x3cfec9b8	0.031102046
134	0xbb2b207d	-0.0026111894
135	0x3d51cca1	0.05122054
136	0xbb01878a	-0.0019764625
137	0x3caf041a	0.02136426
138	0x3cd55da0	0.02604562
139	0x3bb72008	0.005588535
140	0x81969ead	-5.5328986e-38
141	0xbd33550d	-0.043782283
142	0x3db5a126	0.08868627
143	0x3bc8b242	0.0061247656
144	0x3dcc880e	0.09986888
145	0x3b0ed79a	0.002179599
146	0xbd053aac	-0.032526657
147	0xbcbe3ad5	-0.023221413
148	0xbb16c99a	-0.0023008347
149	0xbe1d70c0	-0.15375042
150	0xbd2c6e42	-0.042097338
151	0x0147f396	3.6725292e-38
152	0x3c39086f	0.011293515
153	0xbb74d51b	-0.0037358466
154	0x3d8f00fe	0.06982611
155	0xbbd5366d	-0.006506732
156	0xba75d11c	-0.0009377168
157	0xbcaa459c	-0.020785145
158	0x3d8c1c88	0.068413794
159	0xbc529089	-0.012851843
160	0x3d1a0c63	0.03760947
161	0xbc62ced9	-0.013843262
162	0x3d9579eb	0.07298645
163	0xbc9ad713	-0.018901384
164	0xb6453741	-2.938745e-06
165	0x3d462277	0.048372712
166	0x3c299585	0.01035059
167	0xbd65f373	-0.056140374
168	0xbbd5cccf	-0.006524659
169	0x3d1dc556	0.038518272
170	0xbd5cde42	-0.0539229
171	0x3d50c532	0.05096931
172	0xbd9c0f05	-0.07620052
173	0xbcec55a9	-0.02884944
174	0x3ca50324	0.0201431
175	0xbc2f6a8d	-0.010706556
176	0xbd2dfc5d	-0.042477
177	0x3d1f6180	0.038911343
178	0xbca9a643	-0.020709163
179	0xbc67dafb	-0.01415133
180	0xbd1ee89e	-0.03879606
181	0x3cd45d0b	0.025923273
182	0xbd322dac	-0.043500587
183	0xbc897ee6	-0.016784143
184	0x3baf7a3e	0.0053551486
185	0xbd4b9e2a	-0.049711384
186	0xb98814ed	-0.00025955532
187	0x3c84f7f8	0.016231522
188	0xba232b8f	-0.0006224447
189	0xbd88b578	-0.066752374
190	0xbcda0113	-0.02661184
191	0x3b994d8c	0.0046784338
192	0xbd379ab7	-0.044825282
193	0xbd8f82c0	-0.070073605
194	0xbb7203d7	-0.0036928558
195	0x3bc7ba44	0.0060952026
196	0x3d01e8ab	0.03171603
197	0xbd0b66cb	-0.034033578
198	0x3baf90ff	0.005357861
199	0xbd6298d3	-0.055321526
200	0x3c14bf2a	0.00907878
201	0xbcf929c7	-0.030415429
202	0xbc865ae9	-0.016400771
203	0xbcd5079f	-0.02600461
204	0xbd002261	-0.031282786
205	0xbd2f0489	-0.042728934
206	0xbcc281ae	-0.023743477
207	0xbc7abf02	-0.015304329
208	0xbd415527	-0.04720035
209	0x3d4321a7	0.047639515
210	0xbd5d4aef	-0.05402654
211	0x3d08ca04	0.033395782
212	0xbd04afc0	-0.03239417
213	0x3bd7d4a4	0.006586628
214	0x3cb06164	0.021530814
215	0x3b455863	0.0030112497
216	0x3cabd34a	0.020974774
217	0x3c810061	0.015747251
218	0xbd45c5a7	-0.0482842
219	0x3d0ae8f6	0.033913575
220	0xbdae54e0	-0.08512282
221	0x3c686c3e	0.014185963
222	0xbd0793f0	-0.03310007
223	0x004ad374	6.871682e-39
224	0x3d457ca6	0.048214577
225	0x3d38866a	0.045050062
226	0x3d804b5f	0.06264376
227	0xbd13b0a6	-0.036057137
228	0xb9bb7062	-0.0003575115
229	0x3d68cb12	0.056834288
230	0xbbc773e0	-0.0060868114
231	0x3da2f5c2	0.07957031
232	0x3c2a47f0	0.010393128
233	0x3db1cf00	0.0868206
234	0x3d36761e	0.04454624
235	0xbd0d3dab	-0.03448264
236	0xba13e9b1	-0.0005642428
237	0xbcc68cca	-0.024237055
238	0xb688e9ab	-4.0803184e-06
239	0xbca82160	-0.020523727
240	0x3b0ac241	0.0021172913
241	0xbc20261f	-0.009774714
242	0xbc2ce5ea	-0.010552863
243	0x3d15ea95	0.036600668
244	0xbd46e269	-0.048555765
245	0x3d42233a	0.047396876
246	0x3cca2980	0.024677992
247	0xbc562f78	-0.013072841
248	0xbd83a3f7	-0.06427758
249	0x3c328fd0	0.010898545
250	0xbd12ec1a	-0.035869695
251	0xbcd84b82	-0.026403192
252	0xbce418ca	-0.027843852
253	0x3c051354	0.008122284
254	0xbaf4e728	-0.0018684613
255	0xbc1d8ef5	-0.009616603

convs.1.lin_l.weight f4 [64, 128]
0	0x3d92e9ce	0.07173501
1	0x3e60578f	0.21908401
2	0x3b4a6c9d	0.0030887492
3	0x3bd628d9	0.006535631
4	0xbdadbd4a	-0.0848337
5	0x3e1c8b9f	0.15287636
6	0x3df5752b	0.11985239
7	0x3d4dfe6c	0.050291464
8	0xbd29351d	-0.04131042
9	0x3dd4f118	0.103975475
10	0xbcad049c	-0.021120362
11	0xbcb7ed6f	-0.022452084
12	0xbd67fc5b	-0.05663715
13	0xbd31d543	-0.043416273
14	0x3d478d88	0.04871896
15	0x3c078de8	0.008273579
16	0xbd8fb16f	-0.07016265
17	0x3da49fca	0.0803829
18	0x3d90aa72	0.0706376
19	0xbdc10617	-0.0942499
20	0x3db3a7b3	0.087722205
21	0xbd6ccb5f	-0.057811137
22	0x3d3425e7	0.04398146
23	0x3b8d01f4	0.0043032113
24	0xbd24d1c1	-0.0402391
25	0xbacafc07	-0.0015486487
26	0x3c263872	0.010145294
27	0x3aa9dbad	0.0012959145
28	0xbda899c2	-0.08232452
29	0xbde5da57	-0.11223286
30	0x3dc31e8e	0.09527312
31	0xbc0737e3	-0.0082530705
32	0xbdab4921	-0.083635576
33	0xbd9a707e	-0.075409874
34	0xbc57c581	-0.013169647
35	0x3b8798ed	0.004138103
36	0x3c1eddf3	0.0096964715
37	0xbdd97222	-0.10617472
38	0xbdb69128	-0.08914405
39	0xbd3b320e	-0.045702033
40	0x3db20b42	0.086935535
41	0xbb820fe2	-0.0039691785
42	0x3e045a30	0.12925029
43	0xbc9ed62c	-0.019389234
44	0xbd41f938	-0.047356814
45	0xbc94c548	-0.018160477
46	0x3bdac90b	0.006676798
47	0xbb53c34c	-0.003231245
48	0xbc218d69	-0.009860375
49	0x3d35e9a2	0.044412263
50	0x3d198d8a	0.037488498
51	0xbb880a44	-0.0041516144
52	0xb9c333d9	-0.00037231928
53	0x3e0e6987	0.13907443
54	0x3d07276f	0.03299659
55	0xbd47209c	-0.048615083
56	0x3e0ef080	0.13958931
57	0x3dd3f341	0.103491314
58	0xbc84b483	-0.016199356
59	0xbbbe95e1	-0.005816207
60	0x3d8da8e7	0.06916981
61	0xbdcd33e9	-0.10019667
62	0x3c90b63e	0.017665025
63	0xbdcf9347	-0.10135513
64	0xbd00709f	-0.031357404
65	0xbd7cb495	-0.061695654
66	0x3de85d7a	0.11345954
67	0x3d586c0c	0.052837417
68	0xbb8acc84	-0.004235806
69	0x3c7726aa	0.015084902
70	0x3c584d95	0.013202091
71	0x3d408ec0	0.047011137
72	0xbd35f651	-0.04442436
73	0xbdabfbfd	-0.08397672
74	0x3d2abbc1	0.041682962
75	0x3e0376e5	0.12838323
76	0xbca64ff4	-0.020301796
77	0xbb68ce67	-0.0035523416
78	0x3cceca6f	0.025243012
79	0x3d087b61	0.03332079
80	0xbc51955f	-0.0127919605
81	0xbd3d0b77	-0.04615351
82	0xbca78339	-0.020448314
83	0x3d13a31e	0.036044233
84	0x3d797ecf	0.06091195
85	0x3d2b7a04	0.04186441
86	0x3dba53b6	0.09097998
87	0x3d2fc975	0.042916734
88	0x3d7d97db	0.0619124
89	0x3d882a4b	0.06648692
90	0x3d73f1ea	0.05955688
91	0xbc1819ac	-0.009283464
92	0xbd86cfcd	-0.065826036
93	0xbce58e3c	-0.028021924
94	0xbc886e6c	-0.016654216
95	0xbe3d9186	-0.18512544
96	0xbdc466ba	-0.09589906
97	0xbd564fd1	-0.052322213
98	0x3db8a34d	0.09015522
99	0x3d8f41d5	0.06994978
100	0xbb020f86	-0.0019845678
101	0xbd7703e8	-0.06030646
102	0x3dff7a84	0.1247454
103	0xbc9dbeb8	-0.01925598
104	0x3d30ddd5	0.043180306
105	0x3cbdb5fa	0.023158062
106	0x3cae314a	0.021263737
107	0xbca1db24	-0.019757815
108	0x3c388c18	0.01126387
109	0x3c4f4285	0.012650137
110	0x3c8cad77	0.017172558
111	0xbdb96157	-0.09051769
112	0x3caa79f5	0.020810107
113	0xbd83943c	-0.06424758
114	0xbb956fd5	-0.0045604506
115	0xbc64200b	-0.013923655
116	0x3d83f467	0.064431004
117	0xbd1a22bd	-0.037630785
118	0x3d9b2494	0.07575336
119	0x3e179df2	0.14806345
120	0xbda01c9b	-0.07817956
121	0xbdf55a3f	-0.11980104
122	0x3d26beda	0.040709354
123	0x3d9506f5	0.072767176
124	0xbd78a09a	-0.060700037
125	0xbd8647ff	-0.06556701
126	0xbbe9df9f	-0.0071372534
127	0x3c48e718	0.012262128
128	0xbc44fcce	-0.012023164
129	0xbe526ea6	-0.20550022
130	0xbd62a212	-0.055330344
131	0x3df9660e	0.121776685
132	0xbc6326e6	-0.013864255
133	0x3af0d7fd	0.0018374916
134	0xbd527504	-0.051381126
135	0x3d5e3e77	0.05425879
136	0x3ceedb2c	0.029157244
137	0xbcfd569d	-0.03092509
138	0x3de13a28	0.109974205
139	0x3da53bf7	0.08068078
140	0x3d527406	0.05138018
141	0x3d3e1733	0.046408843
142	0xbd1b68e3	-0.037941825
143	0x3d164db5	0.0366952
144	0x3dc1cff4	0.09463492
145	0xbdc195a2	-0.09452368
146	0x3dddaa12	0.10823454
147	0x3d114564	0.035466567
148	0x3c2f79ae	0.010710163
149	0x3d185f8c	0.037200496
150	0x3d7d9e17	0.061918344
151	0xbe28abb4	-0.1647175
152	0x3dde9886	0.10868935
153	0x3bf4d46d	0.007471612
154	0x3c9f2784	0.019428022
155	0xbc45aca6	-0.012065088
156	0x3d6ad06e	0.05732768
157	0x3d2723a3	0.04080547
158	0xbd05aeb3	-0.03263731
159	0xbd8a1e13	-0.067440175
160	0xbd685938	-0.05672571
161	0x3dc85e46	0.09783606
162	0x3d486e89	0.04893354
163	0x3d44711d	0.047959436
164	0xbd5aa44c	-0.053379342
165	0x3d39304e	0.045212083
166	0x3d8d1f1d	0.068907
167	0x3d12fdd9	0.03588662
168	0x3dbe5996	0.09294431
169	0xbdef755f	-0.11692309
170	0xbe024343	-0.12720971
171	0x3ba7318c	0.005102342
172	0x3d9dc737	0.07704013
173	0x3d2cda64	0.04220046
174	0xbd559103	-0.052140247
175	0xb9b21262	-0.00033964502
176	0x3e02cf0d	0.12774296
177	0xbdb918ad	-0.0903791
178	0xbdf4a95e	-0.11946367
179	0x3d0ec42e	0.03485506
180	0xbcb8eb81	-0.022573235
181	0xbdda269e	-0.10651897
182	0xbdc80766	-0.09767036
183	0xbcccbbcd	-0.024991894
184	0xbd9f3d23	-0.07775333
185	0xbc90d83d	-0.017681235
186	0x3dace61e	0.08442329
187	0x3d2cb159	0.04216132
188	0x3daa9104	0.08328441
189	0x3d91e833	0.071243666
190	0xbd7c9067	-0.06166115
191	0x3d641f3d	0.055693854
192	0xbd9cf51c	-0.076639384
193	0xbddaaf8b	-0.106780134
194	0xbdd8e774	-0.10591021
195	0xbdc03fb8	-0.093871534
196	0xbd01f78d	-0.031730223
197	0xbc06362c	-0.0081916265
198	0xbd90fb7c	-0.07079217
199	0xbd9c31ec	-0.07626709
200	0x3da70e47	0.0815702
201	0xbc6f4624	-0.014604125
202	0x3d81999f	0.06328129
203	0xbe05ba2b	-0.13059299
204	0xbd8691dc	-0.06570789
205	0xbb603cc9	-0.0034215918
206	0x3d1447e7	0.036201384
207	0x3da4eef0	0.08053386
208	0xbbda6af8	-0.0066655837
209	0x3de1b58e	0.11020957
210	0x3cbef304	0.023309238
211	0xbd71c15c	-0.059022292
212	0x3d00e18e	0.031465106
213	0x3e12ffde	0.14355418
214	0xbc5b1310	-0.013371244
215	0xbcb9b98f	-0.022671489
216	0x3e131ba3	0.14366011
217	0xbda6476a	-0.0811909
218	0x3df06bc2	0.11739303
219	0xbda4710d	-0.08029375
220	0xbdad2e27	-0.084560685
221	0xbd161979	-0.036645386
222	0xbd9cecb4	-0.07662335
223	0x3dea7e23	0.1144984
224	0xbd6147cf	-0.055000123
225	0x3ce6a89b	0.02815657
226	0xbdaae35e	-0.08344148
227	0xbd63d901	-0.055626873
228	0x3cbf3eed	0.023345435
229	0xbad0b757	-0.001592378
230	0x3a4cb33d	0.0007808691
231	0xbddd66bd	-0.108106114
232	0xbd98e760	-0.07466006
233	0x3bc8ab2e	0.006123922
234	0xbe0622ff	-0.13099287
235	0x3cb00ac8	0.021489516
236	0x3d9cd8da	0.07658549
237	0x3d19b028	0.03752151
238	0xbdb076be	-0.08616398
239	0xbd8da100	-0.06915474
240	0xbd312986	-0.04325249
241	0xbcf2b8aa	-0.02962907
242	0xbd21b023	-0.039474618
243	0xbcca72ac	-0.024712883
244	0xbdfe36ba	-0.12412782
245	0x3badf8ad	0.0053091855
246	0xbd872e72	-0.066006556
247	0xbe123cf8	-0.1428107
248	0xbd828f0e	-0.06374942
249	0x3e4ad2a0	0.1980691
250	0xbd27cbbc	-0.04096578
251	0x3dabcac0	0.08388281
252	0xbc8da1c0	-0.017289042
253	0x3d3515be	0.044210188
254	0x3d943bad	0.07237945
255	0x3ca75ea0	0.020430863

convs.1.lin_l.bias f4 [64]
0	0xbb8ca301	-0.0042918925
1	0x3c659508	0.014012583
2	0x3b9fa3e4	0.004871832
3	0xbd2db35c	-0.04240738
4	0x3da833bf	0.08212995
5	0xbc91136c	-0.017709456
6	0xbbf41d34	-0.0074497703
7	0xbd9acad8	-0.075582206
8	0x3ce308d4	0.02771417
9	0xbd6678bf	-0.056267496
10	0x3cbd4dbb	0.023108354
11	0x3d067137	0.032822814
12	0xbb7f4199	-0.0038949011
13	0xbd035f37	-0.032073226
14	0x3753b194	1.2617926e-05
15	0x3c6a05fb	0.014283652
16	0xbd0b02a5	-0.03393807
17	0xbce20e81	-0.027594807
18	0x3da5a838	0.08088726
19	0xbda04f18	-0.07827586
20	0x3d9b8ae1	0.075948484
21	0xbd4f7343	-0.05064703
22	0xbcb2894d	-0.021793986
23	0x3d7be010	0.06149298
24	0x3c83cab0	0.01608786
25	0x3d284ce4	0.041088954
26	0xbcca1728	-0.024669245
27	0xbd14e26a	-0.036348738
28	0x3cdf6d4a	0.027273793
29	0xbc96cf39	-0.018409358
30	0xbda04116	-0.07824914
31	0xbd7e9e62	-0.062162764
32	0x3b0ad499	0.0021183847
33	0x3d7baedc	0.061446056
34	0x3b98109e	0.004640653
35	0x3d4a7ee5	0.049437422
36	0xbd397711	-0.045279566
37	0x3d2bb01c	0.041915998
38	0xbbe81914	-0.0070830677
39	0x3d6bd88e	0.05757957
40	0xbaffeef1	-0.0019526166
41	0xbcae1c73	-0.0212538
42	0xbd29a2f6	-0.041415177
43	0xbd8d1bb9	-0.06890053
44	0x3cb1982f	0.021679012
45	0xbced976e	-0.029002871
46	0xbb8c5c0f	-0.004283435
47	0xbd58a015	-0.05288704
48	0x3d15fa17	0.036615457
49	0x3c8f8d0f	0.017523317
50	0x3d29ac1e	0.04142391
51	0xbd645ac1	-0.055750612
52	0x3d4b0ca3	0.0495726
53	0x3d2f76a4	0.042837754
54	0x3d06295b	0.032754283
55	0x3d31a910	0.04337412
56	0x3ce48642	0.02789605
57	0xbd4c20f7	-0.049836125
58	0xbc4e9fde	-0.0126113575
59	0x3a3e132e	0.0007250783
60	0xbd4ed8f2	-0.050499864
61	0x3cd7ade6	0.026328038
62	0xbd82be51	-0.06383956
63	0x3d229333	0.03969116

convs.1.lin_r.weight f4 [64, 128]
0	0x3de17951	0.110094674
1	0x3a6651d0	0.0008785995
2	0x3cc1d9c9	0.023663418
3	0x3c1b1285	0.009464865
4	0xbe01eeff	-0.12688826
5	0x3c01cf16	0.007922908
6	0x3cb909ab	0.022587618
7	0x3cf98624	0.030459471
8	0xbd2d111d	-0.04225265
9	0x3d80b92e	0.0628532
10	0xbd4a9feb	-0.049468916
11	0xbd189fcb	-0.037261765
12	0xbd011e6e	-0.03152316
13	0xbd2b7965	-0.041863818
14	0xbb1b33ca	-0.0023681992
15	0xbc9452bc	-0.018105857
16	0xbd58854b	-0.052861493
17	0xbaa0f95d	-0.0012281347
18	0xbcd8b38c	-0.026452802
19	0x3cf62268	0.030045703
20	0x3cf234b2	0.029566143
21	0x3d3949d8	0.04523644
22	0x3bf2f494	0.00741441
23	0xbcc6e444	-0.024278767
24	0xbd2e0f80	-0.04249525
25	0xbc96b108	-0.018394962
26	0x3d7d34e1	0.061818007
27	0xbde2f0bc	-0.11081073
28	0xbe024ed2	-0.1272538
29	0x3c32543b	0.01088434
30	0x3cc025b0	0.02345547
31	0xbc3b8dfc	-0.011447426
32	0xbd6d3d14	-0.057919577
33	0xbd2312e8	-0.039812952
34	0x3d224a62	0.03962172
35	0xbd1c0366	-0.03808918
36	0x3c7567b8	0.014978342
37	0x3b505536	0.003178907
38	0xbd8e0927	-0.069353394
39	0xbd6666ad	-0.056250263
40	0x3d909c20	0.070610285
41	0x3ba34497	0.004982542
42	0x3d2aadea	0.041669764
43	0x3d1eab1f	0.038737413
44	0xbd461839	-0.048362944
45	0xbd9e9b00	-0.07744408
46	0xbb6477f8	-0.0034861546
47	0xbcdad996	-0.026715081
48	0xbcb1fd66	-0.021727275
49	0xbba4355e	-0.0050112447
50	0xbbe8525f	-0.0070898975
51	0xbd3e8f7e	-0.046523564
52	0xbb271042	-0.0025491868
53	0x3da1fe05	0.079097785
54	0xbb04f267	-0.0020286085
55	0xba7e398e	-0.00096979074
56	0x3d8f5745	0.06999067
57	0x3bbf824e	0.005844391
58	0xbc52a3b9	-0.012856417
59	0xbb10cd94	-0.002209519
60	0x3d849280	0.06473255
61	0x3d4e88bc	0.05042337
62	0x3d13f779	0.03612468
63	0xbd80afe4	-0.062835485
64	0xbd46e2ae	-0.048556022
65	0x3ca405ea	0.020022351
66	0xbbdb8f3f	-0.006700426
67	0xbbe12307	-0.0068706307
68	0x3b91f8dc	0.004454715
69	0xbcedb97a	-0.029019106
70	0x3b235ca9	0.0024927056
71	0x3bc4063f	0.00598219
72	0xbdd7f340	-0.10544443
73	0xbcc58c42	-0.024114732
74	0x3dabe542	0.08393337
75	0x3ce9b269	0.028527455
76	0xbd7780b8	-0.06042549
77	0xbd217a89	-0.0394235
78	0x3d87401b	0.06604024
79	0x3d02d6a5	0.031942982
80	0x3d993678	0.07481092
81	0xbdbb86bd	-0.09156559
82	0x3dce0b24	0.10060719
83	0x3c08241c	0.00830939
84	0x3d28bf4a	0.041198052
85	0xbc699fa7	-0.0142592555
86	0x3d24968f	0.040182646
87	0x3d3287bd	0.04358648
88	0xbd93fa58	-0.07225484
89	0x3ce4e38d	0.027940536
90	0xbd4a34ad	-0.04936664
91	0xbc15989e	-0.009130625
92	0x3d95b6b7	0.07310241
93	0x3c0345eb	0.008012275
94	0xbc99bd85	-0.018767128
95	0xbcd0c9c6	-0.025486838
96	0x3c8fee72	0.017569754
97	0xbc62cb55	-0.013842423
98	0x3d4ed0e6	0.05049219
99	0x3c8600b7	0.016357763
100	0xbad71d12	-0.0016411862
101	0xbd3c143a	-0.045917727
102	0x3cfb0bb9	0.030645238
103	0xbcda5927	-0.02665384
104	0x3d176b86	0.036967777
105	0x3d9a8f17	0.075468235
106	0x3d1eacaf	0.038738903
107	0x3cc0f20c	0.023552917
108	0x3e1aa4d2	0.15101936
109	0x3c30b570	0.010785446
110	0x3b45c622	0.003017791
111	0xbd32dbb3	-0.043666553
112	0x3d248f94	0.04017599
113	0xbcc95fd2	-0.024581823
114	0x3dc8eed1	0.098111756
115	0x39a62d7a	0.0003169587
116	0x3c9f105a	0.019416977
117	0x3d0f1510	0.034932196
118	0x3cb57538	0.02215062
119	0x3d315cf1	0.043301526
120	0xbc8fe9db	-0.017567566
121	0xbb2d86e3	-0.0026478104
122	0x3c51b9c8	0.012800641
123	0x3d8a0226	0.06738691
124	0x3c5079a3	0.012724313
125	0xbd18ea7d	-0.037333
126	0xbd788120	-0.06067002
127	0x3dba9fa6	0.09112482
128	0xbd8355d5	-0.064128555
129	0x3d44281b	0.04788981
130	0xbda8c4df	-0.08240675
131	0x3dbfa37c	0.09357354
132	0x3d87d128	0.0663169
133	0xbd11eb25	-0.035624642
134	0x3d26ee2d	0.040754486
135	0xbb717823	-0.0036845289
136	0x3c9d4422	0.019197527
137	0xbad79a93	-0.0016449265
138	0x3d25cfe6	0.04048147
139	0x3da4ecba	0.080529645
140	0x3d17ef78	0.03709361
141	0x3c8d04f9	0.017214285
142	0xbcdf8ebe	-0.027289744
143	0x3c802d09	0.015646474
144	0x3cc9fc25	0.024656365
145	0xbba13b56	-0.0049204035
146	0x3b5de0e8	0.0033855978
147	0x3aba32f2	0.0014205857
148	0x3ca1528a	0.019692678
149	0x3ce76ff8	0.028251633
150	0x3c6ec643	0.014573636
151	0x3ca029d4	0.019551195
152	0x3d1317e9	0.035911474
153	0x3d6f2ba4	0.05839123
154	0xbd75d578	-0.060018033
155	0x3decced8	0.1156289
156	0x3d80cb01	0.0628872
157	0xbc1ee1b4	-0.0096973665
158	0xbd408e28	-0.04701057
159	0xbd0bb559	-0.034108493
160	0x3d5ca0d5	0.05386432
161	0x3dd91f0d	0.106016256
162	0x3cdf5893	0.027263915
163	0x3d9b5bab	0.07585844
164	0x3c303443	0.010754648
165	0xbc410a0f	-0.011782183
166	0x3cc34409	0.023836153
167	0x3d21c815	0.039497454
168	0xbd04c988	-0.032418758
169	0xbd252019	-0.040313814
170	0xbc060d2e	-0.008181853
171	0xbbe1e90a	-0.0068942355
172	0x3ccc5d3d	0.024946803
173	0x3e00b8d8	0.12570512
174	0x3cae90f4	0.021309353
175	0x3dd7e4a7	0.10541659
176	0x3dabb1f6	0.08383553
177	0x3d715786	0.05892136
178	0xbd0c1e9b	-0.034208875
179	0x3d389bee	0.04507058
180	0xbd414a13	-0.047189783
181	0x3d8381ab	0.064212166
182	0xbcc4e471	-0.02403471
183	0xbcc0ffb5	-0.02355943
184	0xbc7d8764	-0.015474174
185	0x3cf8641e	0.030321177
186	0xbc16ce15	-0.009204407
187	0xbbb6b14f	-0.005575336
188	0x3c0f2104	0.008735899
189	0xbb94a7ec	-0.0045366194
190	0xbcd31755	-0.025767962
191	0x3d908ed8	0.07058495
192	0x3cb1295e	0.02162617
193	0xbc58e014	-0.013237018
194	0x3da8b9f7	0.08238595
195	0x3ce0d227	0.027443958
196	0xbb1d030e	-0.002395812
197	0xbb4d2a8b	-0.0031305875
198	0x3ba0b1d0	0.0049040094
199	0x3d7d0ccd	0.061779786
200	0x3d500d69	0.05079404
201	0xbc3a7d05	-0.011382346
202	0xbb8cbb93	-0.0042948215
203	0x3d1b0254	0.037844017
204	0x3d49604c	0.0491641
205	0x3ba76eee	0.0051096594
206	0x3d50dc7b	0.050991517
207	0x3d22c2c1	0.039736513
208	0xbb1205b9	-0.0022281243
209	0x3dbb78a7	0.09153872
210	0xbcc54465	-0.024080465
211	0xbd15a6e2	-0.036536105
212	0x3d1c6379	0.038180802
213	0xbd12c5b2	-0.03583307
214	0xbd749682	-0.059713848
215	0x3d019f99	0.031646345
216	0x3d096d64	0.03355159
217	0xbc5616c2	-0.013066949
218	0x3ddcc1f3	0.107791804
219	0x3cd9d3b4	0.026590206
220	0x3cc701fc	0.024292938
221	0x3c8d770d	0.017268682
222	0x3c9290cc	0.01789131
223	0x3d167bad	0.03673904
224	0xbc84b682	-0.016200308
225	0x3cd89346	0.026437413
226	0xbcfb6551	-0.03068796
227	0xbd01d2be	-0.03169512
228	0xbba51919	-0.0050383923
229	0x3d052055	0.032501537
230	0xbd5ccc03	-0.0539055
231	0xbc2cb909	-0.010542163
232	0xbd28e4a9	-0.041233692
233	0x3d607647	0.054800298
234	0xbd47ae8b	-0.04875044
235	0x3d04e303	0.032443058
236	0xbd3cdbf8	-0.046108216
237	0x3bb0db2f	0.0053972225
238	0xbce51fb7	-0.027969224
239	0xbc505053	-0.012714463
240	0x3dba055c	0.090830535
241	0xbb95ef0e	-0.0045756167
242	0xbe348272	-0.17627886
243	0xbc0137b8	-0.00788682
244	0xbca8fdc5	-0.02062882
245	0xbd1f668e	-0.038916163
246	0x3b7898dd	0.003793291
247	0xbd53e61b	-0.051733118
248	0xbd70e746	-0.05881431
249	0x3d94fea3	0.072751306
250	0xbb2e2e27	-0.0026577802
251	0x3ddae539	0.10688252
252	0x3c7d4a8a	0.015459666
253	0x3db8bf75	0.090208925
254	0x3cbc642c	0.022996984
255	0xbd2bfda1	-0.041989926
