notebooks/runs_graphsage/run4_20251021T145840Z/graphsage_encoder_run4.pt (torch, 69800 bytes, 3 tensors)

convs.0.lin_l.weight f4 [32, 262]
00000000: 6dd1 803c 7f81 b7bb 321d 7ebc 01d0 fb3a
00000010: 1e13 453d 4e76 9a3d cd47 d83c afa7 c43b
00000020: 814a 253c 545d 81bc 02d8 9aba 3e71 51be
00000030: e2df b4bc a929 c23c 1f7e f0bc f900 febd
00000040: 9562 68bc 56e3 46bc d509 00bb 584e b0bd
00000050: 10fb f13c 18fb 0ebd b686 1cbc 87f0 3d3c
00000060: 5bdd c33d 0c41 7f3b 1d67 b03d b498 f5bc
00000070: 6138 bf3e 315d 42be f368 f5bc 6b17 93bd
00000080: a480 603d 736b 18be effa 993d d1ed 6e3d
00000090: 01f1 de3d 24ae 09bd 5b6a 383d 3dc1 843d
000000a0: 39c7 03bd 0cca 9e3b ade9 85be 6e72 05bd
000000b0: 1afb 8a3d 0d20 2e3c bdfc df3d 2b78 993d
000000c0: 5f26 05be 54ea a13e c910 0abe a0da 88bd
000000d0: 9216 8abc 9f00 b23b c72c d4bb 1c17 aabc
000000e0: dc7e 9fbc b318 3abd 09a1 58be efe5 063e
000000f0: 5ce2 7dbe e9bf a63d ac4d 93bd db5b 39be
00000100: 0aa2 d3bd 5e78 8d3d 32bc 0fbd 763d f2bb
00000110: 0eb2 833d 0537 46bd 458d 4dbd ace0 1d3e
00000120: 2676 cb3c b2db c5bd 45db 613d dd59 96bd
00000130: c944 673c d6f5 ac3d 109c 083d c88d 1d3d
00000140: c7de 8bbe fc99 73bc db69 e2bc 65f8 0a3e
00000150: 2cc5 d03c b865 4f3b 11e0 a2bd 4fc8 44bd
00000160: 1a43 f93b e521 533e fd79 433c 3c33 48bd
00000170: d7a5 003d 2d55 153c b5dd a73d a3b9 d63d
00000180: c786 86bd b672 22bd c927 493d 32a0 8cbc
00000190: 77ab 44bd 058b 93be 4629 24bd f68d 49be
000001a0: 0e38 8ebd 6415 06bd ed27 cf3c df03 303d
000001b0: f65a c6bc c561 5fbd 459b 8c3c c23d ffbb
000001c0: 4f45 d43b 703f 463d 3f92 7f3c 1629 523c
000001d0: c28a 24be ca6e 9abb c9d0 ea3c f559 783d
000001e0: 7a33 83ba b8fb 4d3e 67f9 003e b11e a23c
000001f0: 363e b6be 4dc2 6c3e 6b0e 453c 344a adbd
00000200: 124d abbe 3a6e 89be 6c6e e0be 80ee a7be
00000210: 0e37 02be 0d5f 82bd 31fd 623e 6403 dbbd
00000220: db60 07bc 2359 80bd b88d 53be 0374 713d
00000230: 906a ec3d b312 86be 7711 1ebe add4 c83e
00000240: 52b7 e33d 7d77 4ebe 3f43 cdbc b508 54be
00000250: d332 0fbe 532a bcbd 800c c23e f0ca 59bd
00000260: f0c5 4a3e 4559 c83e 3cd9 c83d 9edb f93e
00000270: 43ae a93e f815 c83e eb3f e83e 638f 9b3d
00000280: 7c43 5c3e 5184 a03d ce15 bc3e 2a06 413e
00000290: b3fd a23d a8c9 7c3e 4d4b ab3e e5b6 a53e
000002a0: 6fc2 9a3e bf08 bf3e 6673 4b3e 7655 b53e
000002b0: 7568 b43e c143 173e 2961 8a3e 6779 513e
000002c0: 9209 c53e 3094 883e fcd3 af3e 4cfa 433e
000002d0: 788f 8b3e 4b9a 8a3e d8b3 bb3d ce40 4e3e
000002e0: 04f9 cb3d 0ca3 6f3e 18f2 233d d201 513c
000002f0: 1900 9b3d 2963 993d b7ed 693d 40af 463e
00000300: 02ac b1bc b564 813e 73fd 4b3c 3c06 ea3d
00000310: abca 8e3d d470 dd3c 97c7 b13d 2d82 133d
00000320: 2ee1 1dbe 2707 653e ff71 633c 33df 8b3d
00000330: 43f8 943d 5e11 043e f413 aa3d cebf 033e
00000340: d17f 353e 276a 3d3e 774c 4b3e 8d4b 35bd
00000350: d075 f73d 1c4e 693e feb4 d23d 5a3d 123d
00000360: 292e ff3c 1b82 07be 3573 a9be bdef d6bd
00000370: 72f0 7cbd b33f 10be 4c97 c03d fed6 f13d
00000380: 058b f0bd 8bd5 c4bd ae6d fe3c a918 813d
00000390: a2a2 873d 1cff 76be bed3 aabd 792a a9bd
000003a0: b09f 633d 2eec f5bd ca4e 17be 2979 cabd
000003b0: de65 2b3e 04f8 94bd 8bcc 4ebd 3b09 37be
000003c0: 2367 c3bd 7702 3a3e c905 74be db30 e0bb
000003d0: d44d b3bd aa06 6dbd 637e 773c 7d5f 9abd
000003e0: 153d cbbc 5ef3 21bd 9d6e d83e a60c fe3d
000003f0: 6c56 0dbe b46c 573e 0624 c4bd 8da6 993c
0.015724862 -0.005600154 -0.01550989 0.001921177 0.048113935 0.07542096 0.026401425 0.0060014348
0.010088564 -0.015791573 -0.0011813643 -0.20453355 -0.022079412 0.023701506 -0.029357014 -0.12402529
-0.01418366 -0.012139162 -0.001953711 -0.08608693 0.029538661 -0.03490743 -0.009553602 0.011592991
0.095637046 0.0038948683 0.08613417 -0.029980041 0.373477 -0.18980862 -0.02995727 -0.07182201
0.05481018 -0.14884739 0.07518565 0.05833227 0.108858116 -0.03361334 0.045023303 0.0648217
-0.032172415 0.004845863 -0.26154843 -0.03257983 0.06786175 0.010627759 0.10936878 0.07493623
-0.13002919 0.3162409 -0.13482966 -0.066823244 -0.016856465 0.005432203 -0.0064750644 -0.020762973
-0.019469671 -0.04543371 -0.2115518 0.1317365 -0.2479338 0.08142073 -0.07192549 -0.18101446
-0.10333641 0.06907724 -0.035091586 -0.0073925806 0.064304456 -0.048392314 -0.050183553 0.15417737
0.024836611 -0.09661044 0.055140752 -0.07341359 0.014115521 0.08445327 0.033351958 0.03846529
-0.27318403 -0.014868256 -0.027638366 0.13571317 0.025484644 0.0031646322 -0.079528935 -0.04804259
0.007606876 0.20618398 0.01193094 -0.048876986 0.031408157 0.009114546 0.08196584 0.10484626
-0.065686755 -0.039660178 0.049110208 -0.01716623 -0.048015084 -0.28817 -0.040078424 -0.1968306
-0.06944285 -0.032735243 0.025287593 0.04297244 -0.024213295 -0.0545366 0.017163882 -0.0077893445
0.006477989 0.048400342 0.015598833 0.012827178 -0.16068557 -0.004712914 0.02866401 0.060632665
-0.0010009848 0.20115554 0.1259514 0.019790025 -0.35594338 0.23120995 0.012027363 -0.08461419
-0.33457237 -0.2684191 -0.43834245 -0.3279915 -0.12716314 -0.06365786 0.22166897 -0.10694006
-0.008262838 -0.062670015 -0.2065953 0.058948528 0.11543763 -0.2618614 -0.1543635 0.3922476
0.1111895 -0.20162769 -0.02505648 -0.20706446 -0.13984232 -0.0918776 0.37900162 -0.053172052
0.1980207 0.39130607 0.09807059 0.48800367 0.33140764 0.3907926 0.45361266 0.07595708
0.21510118 0.07837737 0.36735386 0.18850008 0.079585455 0.24686301 0.33455887 0.323661
0.30226466 0.3731136 0.1986824 0.35416764 0.35235944 0.1477194 0.27027252 0.20456468
0.38483864 0.26675558 0.3434142 0.1913845 0.27257895 0.2707084 0.09165162 0.20141909
0.09959605 0.23402041 0.0400258 0.012756782 0.07568378 0.074896164 0.05711147 0.1940279
-0.021688465 0.25272146 0.012450564 0.1142697 0.069722496 0.02703134 0.08680647 0.036012817
-0.1541793 0.2236601 0.013882159 0.06829681 0.07273915 0.1289725 0.08304587 0.12866136
0.1772454 0.18497525 0.19853388 -0.044261504 0.12083018 0.22783703 0.10288428 0.03570304
0.03114994 -0.13233225 -0.33095708 -0.10494945 -0.061752744 -0.140868 0.094038576 0.11808585
-0.11745266 -0.096110426 0.031058159 0.06303532 0.066228166 -0.24120754 -0.08341168 -0.08260054
0.05557221 -0.12007938 -0.1477615 -0.09886391 0.16738078 -0.07273868 -0.050488036 -0.17874615
-0.09541156 0.18165003 -0.23830332 -0.0068417615 -0.08755079 -0.057867683 0.015105817 -0.07537744
-0.0248094 -0.039538734 0.4227189 0.12404756 -0.13802499 0.2103756 -0.095771834 0.018756175

convs.0.lin_l.bias f4 [32]
00000000: 96e8 203c 1dc8 4cbb 3049 82bc aac4 73bc
00000010: c4cf 943c 4def 713d 507f 753c 9305 e4bc
00000020: 311c 9fbc a87b 283d 0cc2 013c be79 0ebd
00000030: 27c3 e63c 800b 43bc ef4b adbc c8be 3a3d
00000040: 9651 033d f29a 3fbb e7fb 463c 987f cebb
00000050: 435c f33c c453 eeba 847b 6d3c 167f 5cbc
00000060: 0822 64bb 0ace 1e3d 52b2 bbbb 7b66 a23c
00000070: 716e 323d 03a7 10bd fa9d b43c c5fb 9cbc
0.009821078 -0.0031247206 -0.01590404 -0.014878431 0.018165477 0.059066106 0.014983967 -0.02783469
-0.019422622 0.041133553 0.0079198 -0.03478407 0.028169228 -0.011904597 -0.021154372 0.0455921
0.03206023 -0.0029236642 0.012145019 -0.0063018315 0.02970708 -0.0018182923 0.01449478 -0.013458034
-0.0034810323 0.038770713 -0.0057280445 0.019824257 0.043562356 -0.035315525 0.022047985 -0.019163022

convs.0.lin_r.weight f4 [32, 262]
00000000: ce83 b53b ebbf f3bc e6eb c5bc feab 183c
00000010: 7996 983a 32d9 113d 92f3 2a3c 21f8 5d3b
00000020: b1ac c6bb 1318 82bc e328 a63c 9f9e fcba
00000030: 1824 603a b68c 8b3c fb87 373b 925e a6bc
00000040: 5834 ac3a 3fd2 0e3b 29fb 583b b335 b939
00000050: fe7b 0f3c 70e4 95ba 1f5e 1a3c d75f 803b
00000060: 2e19 2d3d 487d fd3b a75d 4a3c b4da 0eba
00000070: b629 2b3d 012d 4abc cbec d33b b320 c8bb
00000080: 42bf 1d3a 8a69 95bc e332 693c 25bd b63c
00000090: 97fb 883c 3be3 893b 8256 923b b5ce b8ba
000000a0: 8144 e5bb 329e 39bc 987d b23c addd e03b
000000b0: 680d 8b3c 6c93 eb3b df65 113c f87a 623c
000000c0: 779b babc c522 a8bb 6697 ac3b a4ee 953a
000000d0: 3013 2a3a f2d0 c53b 73bc a03b aff2 dbbb
000000e0: 8b5f 693b 0f17 edbb f2e5 a8bc 493a b33c
000000f0: 09ff 1ebd 3555 9c3c 3aa3 983b a15f 51bd
00000100: 3473 c9bb 4b65 3fbc 3d75 143c 4f80 afbb
00000110: 0546 8a3b 11d8 1e3c 6e1b 6dbc a612 b53c
00000120: b966 073b 9b88 68bc bfde 4b3c a281 0abb
00000130: d158 203c f7c0 773c 2d65 ef3b 2938 863c
00000140: e030 16bb 4209 973c 5067 a63a 335d 103c
00000150: 8e05 d63b 928e ec39 16b2 cd3a d795 97ba
00000160: 344e 1bb9 689d 233d 0b51 303c 4d57 11bd
00000170: bbf0 fbbb a262 b0bc 933b 9a3b 5a41 cc3b
00000180: 749c a13c c4ef c6bb d13f be39 8a32 b83b
00000190: 4290 313c 89cd b5bb f4b8 80bb a211 bcbc
000001a0: 0483 1a3a c2e1 6ebc c162 b33b 6473 fe3b
000001b0: 0e91 4ebc af8e a4bb f681 693c f346 fc3a
000001c0: 677b afbb 215a ca3b 0280 633c 983b 1b3b
000001d0: 741c dfbb cb21 433c 1039 403c a694 be3b
000001e0: 6fc1 543c bd20 883c 9809 833c 811f 6f3d
000001f0: 505a a03b db9a 0f3d d0c9 223c 867e 9cbc
00000200: abea 6bbd 8a91 34bd 520b 2cbc 25c2 4a3d
00000210: e65d 9abd 5fd7 0b3b 74d3 b23c 9537 2dbc
00000220: ae7a 78ba 5872 edbb 8db1 1cbc 4956 89bc
00000230: 5994 ba3b 921e 41bc 8062 aabc 1d5b 863d
00000240: a5ef 2e3b 0eb6 48bc a14d b6bb 0784 88bb
00000250: 58ab a1bb 04e6 24bd 35e5 713d 214c 1c3d
00000260: e14a 823d 781a d83d 250b df3c cfff 343d
00000270: d903 803c e4a0 1c3d dbc5 913d 819c 333c
00000280: 94a9 c33d 17ff 8d3a 04d5 fe3c 3b0e 0f3c
00000290: 0b28 6f3c 3973 c93c 5e53 383d f262 3d3d
000002a0: 1458 ba3b 9ad3 b83d cca6 563d 8ba1 e63b
000002b0: b4bc 193d cd18 003d 4577 883d 7fb7 c03c
000002c0: c91e 4b3c 22f2 7a3d c098 1f3e b20b ed3b
000002d0: 06ac b93c c88f 8b3c 9ebf 323c b688 783c
000002e0: 39d1 cf3b 2601 753c c8d1 1b3d 076a adba
000002f0: 2ab9 b53c ac30 fe3c 28dc 7a3b fe6d 1e3b
00000300: 8b9c fdba 6c78 d33b 3797 06ba e031 0c3b
00000310: 56eb 0b3c c75e 993a 3387 833b 93e4 60bb
00000320: 9e18 cb3b 3240 473b cfa9 4a3c 2836 193a
00000330: 967c e83b 2362 2cbc 021f f23b e01f c43b
00000340: eb22 a23b f4c3 903b ce3a 083b 089e 14bb
00000350: f465 9c3b f3ac 863b bc7c 423c 2a5b 853b
00000360: d4d3 5a3b 8290 05bb 2446 00bc 1aff 1abc
00000370: 7cfd fcbb ac68 f9ba 1800 10ba 2de4 f03c
00000380: d076 1dbc 9aea b2bb ab52 2a3c 3cdb 42bb
00000390: f8f6 b83c 032e 46ba b759 2dbb 5fe4 6dbb
000003a0: 306c 34bc f547 57bb 73f0 e43b 2b1b aabb
000003b0: 2e95 b4bc c5b5 5abb a641 12bd d249 9ebc
000003c0: 8d15 c13d 9c8a c13d 02ba 1cbb 4acc 06bc
000003d0: 32d8 94ba 4f0a c539 d024 bcbb cce6 13bb
000003e0: 0062 30ba b740 e93a 2d31 ea3b 4205 0d3b
000003f0: 8844 ff3a 4465 c2bb cd66 15bb 04c7 ccbb
0.005539394 -0.0297546 -0.024160337 0.00931835 0.0011641524 0.035607524 0.010434048 0.003386982
-0.006063067 -0.01588062 0.020283168 -0.0019273347 0.00085503 0.01703487 0.0028004635 -0.020308767
0.0013138158 0.0021792797 0.0033108687 0.0003532596 0.008757589 -0.0011435878 0.009421854 0.003917675
0.04226034 0.007735882 0.01235143 -0.00054494594 0.041787826 -0.012339831 0.006467437 -0.0061074137
0.00060175743 -0.018238802 0.014233324 0.022306988 0.01672153 0.004207996 0.004465879 -0.001409969
-0.0069966917 -0.011329221 0.021788403 0.0068623633 0.016974166 0.007189205 0.008874386 0.013823263
-0.02277921 -0.005131098 0.0052670715 0.0011438918 0.00064878445 0.006036871 0.0049052774 -0.0067122797
0.0035609927 -0.007235415 -0.020617459 0.021878378 -0.03881744 0.019083599 0.00465813 -0.05111659
-0.0061477665 -0.011681865 0.009061155 -0.0053558717 0.0042197728 0.009695069 -0.014471872 0.022103619
0.0020660593 -0.0141927255 0.0124432435 -0.0021134396 0.0097868005 0.01512169 0.0073057623 0.016384201
-0.0022917315 0.018437032 0.0012695584 0.008811283 0.006531424 0.0004511965 0.0015693333 -0.0011565041
-0.00014811085 0.039945036 0.01076151 -0.035483647 -0.0076886094 -0.021531407 0.004706809 0.0062333765
0.019727923 -0.0060710628 0.0003628717 0.005621259 0.010837616 -0.0055481833 -0.003928298 -0.022957627
0.00058941566 -0.014580192 0.005474419 0.0077652205 -0.012607826 -0.005021892 0.0142521765 0.0019247219
-0.005355287 0.006175295 0.0138855 0.0023686644 -0.006808812 0.011909912 0.011732355 0.00581606
0.012985571 0.016617173 0.015995786 0.058379654 0.0048935786 0.03505979 0.009935811 -0.0191033
-0.057596844 -0.04408411 -0.010500746 0.049501557 -0.07537441 0.0021338088 0.021829344 -0.010572334
-0.000947873 -0.007246297 -0.009563816 -0.016764777 0.005693954 -0.011787074 -0.020798922 0.06560347
0.0026693132 -0.0122504365 -0.0055634533 -0.0041661295 -0.004933756 -0.040258422 0.05905648 0.03815854
0.06361938 0.105519235 0.027226994 0.04418927 0.015626835 0.038239375 0.07117816 0.010962606
0.09553829 0.0010833469 0.031107433 0.00873142 0.014596949 0.024591075 0.04500138 0.04623694
0.0056867693 0.09024735 0.052405164 0.0070383004 0.037533477 0.031273652 0.06663374 0.023524998
0.0123974765 0.061266072 0.15585613 0.00723406 0.022665035 0.017036334 0.010909943 0.015169313
0.00634208 0.014953887 0.03804186 -0.0013230451 0.02218302 0.031029068 0.0038278196 0.0024174447
-0.0019349022 0.0064535644 -0.0005134227 0.0021392033 0.008539995 0.001170122 0.0040139197 -0.0034315928
0.006198003 0.0030403254 0.012369587 0.0005844557 0.00709493 -0.0105214445 0.0073889503 0.005985245
0.00494801 0.0044178907 0.0020787003 -0.0022677202 0.004772896 0.0041099726 0.011870559 0.0040697055
0.003339042 -0.0020380323 -0.007829223 -0.009460235 -0.0077206474 -0.0019028387 -0.0005493178 0.029405678
-0.009610847 -0.0054600956 0.010395686 -0.0029732725 0.022578701 -0.0007559957 -0.002645118 -0.003629945
-0.011012122 -0.0032849286 0.0069866716 -0.005191227 -0.02204379 -0.0033372503 -0.03570714 -0.01932231
0.094279386 0.09450266 -0.002391458 -0.008227417 -0.0011355935 0.0003758245 -0.005741693 -0.0022567986
-0.00067284703 0.0017795776 0.0071469755 0.0021518026 0.001947538 -0.005932482 -0.002279687 -0.0062493104
