notebooks/runs_graphsage/run5_20251021T151011Z/graphsage_encoder_run5.pt (torch, 69800 bytes, 3 tensors)

convs.0.lin_l.weight f4 [32, 262]
00000000: 3939 3dbc 3437 87bc e828 d43c 2821 553c
00000010: 50a4 00be 9417 16be bba1 36bd 740a 2d3d
00000020: e304 373d a2fa e3bc ee48 27be 1738 a73e
00000030: 549a 31bb 769a 2dbd 8688 cb3d 70e3 513e
00000040: e475 ff3c 4778 103d a1a6 7fbd 57bc 073e
00000050: c39b cfbc a103 863d d191 ab3d a217 f43c
00000060: 9166 0fbe a5db b93d 1885 1fbe fbad e53d
00000070: f929 07be 8ec3 563e 166c 9c3d 6206 d53c
00000080: ef12 85bd 9252 9c3e e68f 1ebe 42c8 e2bd
00000090: fd26 9fbd 7f62 493e c2d1 9dbd 39e7 edbd
000000a0: a542 703e ff21 913c de95 a33e 9d31 ff3c
000000b0: 013b 2ebd ad64 36be 534b 20be 29c8 033d
000000c0: 10f6 2c3e 6c1b 4a3e 1458 e83e 7560 133e
000000d0: a83c 35bd 8dc9 ebbd ee1a b63c 987d 82bc
000000e0: 271a 94bc c899 6dbb be92 bb3e 7575 3bbe
000000f0: e6ce 613e cc61 91bd 787b 233e 803f e43d
00000100: 1643 983d 9827 893e 26b3 943c d9b3 593d
00000110: 5cd6 ddbd 2e67 a23d 22ed 613e e0a7 14be
00000120: 834f 0abd 29c4 513e 8275 d73c 002d c23b
00000130: ea91 663d bf6f a6bd edd1 cbbb 77aa b3bc
00000140: a805 b53e ce2a 093e 9573 1fbe cc75 e83c
00000150: 4e2c 51bd 0ef5 873c 7238 3e3e 6be2 e83d
00000160: 97a2 bdbd f2ce 27be 7209 833d 8e51 65bc
00000170: 10b6 ef3d e628 b3bd 64a8 bfbd e65d 72bd
00000180: 66ff b5bc beea c33d c8e2 5fbd 289f eb3d
00000190: 5557 5e3d fb89 ef3e f7e5 a93d 1a4c 3c3e
000001a0: 943a 923c 039b 26bc 0806 6a3d b008 27be
000001b0: d8e5 c23d 09fe 393d 78d3 8cbc ea93 52bd
000001c0: f53a 69bd 52ca a1bd c298 1bbd 76c2 82bd
000001d0: 90c8 df3d 04ae a93c 6acd 79bd a62a f23d
000001e0: 9b88 aebd 2c76 a03e e528 c8bd f4fa ebbd
000001f0: 034c d93e 324a 9fbe 61e5 8abd 068b b43e
00000200: ac48 163e 8e0d 8b3e ecca 3e3f 9602 f03e
00000210: 2485 2dbd 6463 8c3e 0bb3 09be d184 8a3d
00000220: 8f53 4dbd af8a ab3d 285f 1d3e 5382 2dbe
00000230: ca9a 6cbd 0183 a93e fd09 8b3d 8199 bdbe
00000240: f140 25be 8f54 6a3e 0434 13bd e3ae 8e3e
00000250: e408 423e 34ce 9dbd 0ffc 9fbe fdd0 c33d
00000260: 9077 75be 2a2c f5be a45e 12be cd1c debe
00000270: 283d e9be 52c6 c2be 4922 f5be 72e4 8fbd
00000280: cc39 9bbe 6dd2 18be 9c7a c4be a0e0 adbd
00000290: 0d03 b2bd 31fd 3ebe 155f c2be a1f3 45be
000002a0: d8ad 8dbe e864 b8be 118f 67be cb96 95be
000002b0: 53fa 90be 9e5b 19be 1eb3 a2be 984a 66be
000002c0: 1110 b5be deea a2be f029 b0be 3661 40be
000002d0: 06f6 75be b258 87be b16f 9abc 169b 4fbe
000002e0: 0954 8bbd ecad 7dbe 370a 0fbc 871b 8dbb
000002f0: a97a a7bd a562 0dbe efeb 033d eb31 fdbd
00000300: e77d 893d c18c 2cbe 5d37 9dbc 2fe5 11be
00000310: a845 d3bd 3834 9a3d 4c8d a33b a1d1 683b
00000320: 0cab 423e 7741 3bbe 7cf1 593d 8991 2fbd
00000330: c235 9fbd 1cdd 16be c8a2 7bbb aec4 22be
00000340: 4056 15be 1042 dfbd 57d5 79be 89d2 d13d
00000350: 39aa dfbd a120 49be 6129 e4bd 7c6e 97bc
00000360: 1d8a 8e3a 6cdc 253e 468b 9c3e 0120 d83c
00000370: fbbc f2bd 142f 6b3e 73a7 d7bd 7a5c 5abe
00000380: 70e5 423e 1e96 08bd 4c95 68bb 8bbf a63d
00000390: f266 92bd df97 8a3e 8fd3 cb3c f906 c8bd
000003a0: efb8 afbd 38bb 213e 535f 793d 4e18 823d
000003b0: 782e debd 41c8 e63d 8914 d8bc 5049 593e
000003c0: 2cf2 303d 75a4 98be 0b40 343e 41d8 9dbc
000003d0: 1f35 4d3e 6755 003e 20d9 103d 0121 393d
000003e0: b3ac ac3d deb3 2f3e 5e1e d0be 0d63 1bbe
000003f0: 5e89 243e 8ea0 77be 0c3e 383e 3bf2 c33c
-0.0115492875 -0.016505815 0.025898412 0.013008393 -0.1256268 -0.14657432 -0.044587832 0.042246297
0.044682395 -0.027829472 -0.16336414 0.3265998 -0.0027100043 -0.042383634 0.09938149 0.20496917
0.031184144 0.035270955 -0.06241477 0.1325544 -0.025342828 0.06543661 0.08377422 0.029796425
-0.1400397 0.09075097 -0.15578115 0.11214825 -0.13199605 0.20973036 0.07637803 0.02600402
-0.06497752 0.30531746 -0.1548458 -0.110733524 -0.07771108 0.1966648 -0.07706024 -0.11616368
0.23462923 0.017716406 0.31950277 0.031151587 -0.04253674 -0.17811842 -0.15653734 0.03217331
0.1689074 0.19737023 0.45379698 0.14392264 -0.0442473 -0.11513052 0.022229638 -0.015929028
-0.018078877 -0.003625499 0.36635393 -0.18306525 0.22051582 -0.070987314 0.15965068 0.11144924
0.074346706 0.2678802 0.01815183 0.05315003 -0.108319014 0.07929836 0.22063115 -0.14517164
-0.033767235 0.20484985 0.02630115 0.0059257746 0.0562915 -0.081267826 -0.0062200935 -0.02193187
0.35355878 0.13395235 -0.15571435 0.028376482 -0.051067643 0.016596343 0.1857622 0.11371311
-0.09259527 -0.16387537 0.06398286 -0.013996495 0.117046475 -0.08748035 -0.0935829 -0.05917158
-0.02221651 0.09566258 -0.054659635 0.11504966 0.054282505 0.46784958 0.082958154 0.18388405
0.017850198 -0.010168794 0.057134658 -0.16311908 0.095164955 0.045408282 -0.01719068 -0.051410593
-0.05694099 -0.07899918 -0.037987478 -0.06384747 0.10926926 0.02071286 -0.060986914 0.11824541
-0.08522149 0.31340158 -0.09773425 -0.11522475 0.42440805 -0.31111294 -0.06782032 0.35262316
0.1467616 0.2715878 0.74528384 0.46876973 -0.0423633 0.2741958 -0.13447206 0.06763614
-0.050128516 0.08376061 0.1536833 -0.16944246 -0.057764806 0.3310776 0.067890145 -0.37031177
-0.16138054 0.22883819 -0.035938278 0.27867803 0.18948704 -0.07705346 -0.31246993 0.09561346
-0.2397139 -0.47885257 -0.14293915 -0.43381348 -0.4555447 -0.3804193 -0.4787772 -0.07025994
-0.30317533 -0.14924021 -0.38374794 -0.084901094 -0.08691988 -0.18651272 -0.37963167 -0.19331218
-0.27671695 -0.36014485 -0.22613169 -0.29216608 -0.28315982 -0.14976355 -0.3177728 -0.22489393
-0.3536382 -0.31819814 -0.34406996 -0.18787083 -0.24019632 -0.26434857 -0.018852087 -0.20274004
-0.06803138 -0.24773377 -0.008730463 -0.00430626 -0.081776924 -0.13807161 0.032207426 -0.12363037
0.06713467 -0.16850568 -0.019191438 -0.14247583 -0.1031602 0.07529491 0.004991209 0.003552534
0.19010562 -0.18286692 0.053208813 -0.042863403 -0.07773925 -0.14732784 -0.0038396586 -0.1589534
-0.14583683 -0.10901272 -0.24397789 0.102452345 -0.10921139 -0.19641353 -0.11140705 -0.0184853
0.0010874901 0.16197366 0.30575007 0.026382448 -0.118524514 0.22967178 -0.10529985 -0.2132434
0.19032836 -0.033346288 -0.0035489378 0.08142003 -0.071485415 0.27068993 0.024881152 -0.09766955
-0.08580195 0.15794075 0.060881924 0.06352292 -0.10848707 0.11268664 -0.02637698 0.21219373
0.043199703 -0.2981297 0.17602555 -0.019268157 0.20039795 0.12532578 0.035363317 0.04519749
0.08431377 0.17158458 -0.40648168 -0.15174504 0.16068026 -0.2418234 0.17992419 0.023919215

convs.0.lin_l.bias f4 [32]
00000000: 4c48 99bc 3201 a6bb 6817 5bbc 0da4 303d
00000010: 79ad 413c 431f 2b39 f310 78bb e5d3 c8bb
00000020: 9a6f b9bc 66f0 053d efbd efbc 0f59 b83c
00000030: 0344 c43c 3a6c b93c 6df5 b03c 40c2 c7bb
00000040: ef98 a43c 5776 c03c d758 a5bc 4244 b43c
00000050: 0d2d 963c e09c aebc e4df f8bb 6a34 b6bc
00000060: 87f2 bdbc 9558 02bd f601 9f3c dd69 733c
00000070: 6965 e23b e233 03bd 34a9 a63c 9a65 e0bc
-0.018711232 -0.0050660605 -0.01337228 0.0431252 0.011821144 0.00016319477 -0.00378519 -0.0061287754
-0.022636224 0.032699965 -0.029265372 0.022503404 0.023958212 0.022634614 0.021601403 -0.0060961545
0.020092456 0.023493929 -0.020183964 0.022005204 0.018332029 -0.021315038 -0.007595049 -0.02224179
-0.023186935 -0.03182276 0.019410115 0.014856783 0.0069090617 -0.0320319 0.020344354 -0.027392197

convs.0.lin_r.weight f4 [32, 262]
00000000: 701e 0bbc a2a4 8abc 321b 92bc 4e5e c0ba
00000010: f3f9 80bb 03b7 37bd 3f29 3cba 583f eb3b
00000020: fb74 7f3c 76ba 8b3c a358 c6bc 430c 033d
00000030: 201e 593c bcd4 17bc 6ab3 783c 081d 3b3d
00000040: 9b4a 023c 1d21 a83a e1d0 b03b 9087 be3c
00000050: 53f3 d7bb bcc9 5b3c ea5f 1d3c b832 bc3a
00000060: ca83 3abd 2489 e43b 58bc 14bc ae89 9b3b
00000070: 514b 903b 85d9 583b d1c2 473b d674 eb3b
00000080: 0805 763c 3a04 3b3c ecee b8bc 46d6 eebc
00000090: 51f7 e7bb 7484 92ba 0218 db38 20c7 dab6
000000a0: 00f5 043d 9633 8b3c aef9 243c 3b66 d03b
000000b0: 338e 4fbc 6597 c6bc 0116 93bc fefc 553b
000000c0: 8ebf 253d 02fa f53c 4bb9 113c 7f7c 95b9
000000d0: 6f0c 39bb caf8 25bc 841c 30ba dcf8 4b3b
000000e0: a0c1 6abc 800f 383a d8c1 823c 6f36 ddbc
000000f0: a2e5 1c3d e559 9ebc 5f99 823b b43a a13d
00000100: b561 9b3c 5641 103d cd04 34bc 26c5 2d3c
00000110: 5dc5 c1bb b4fd 84bc 19a1 793c 7aac 23bd
00000120: 170a 213b ef05 853c 295c 5fbc 5791 813c
00000130: a74e 70bc 41f9 10bc 7ac4 23bb e8b5 27bc
00000140: f6ad 713c 5388 3abd d96c fe3c 9f21 c93b
00000150: fb41 68bc 0618 f83a e09e 4a3c 4130 f83b
00000160: 02fb 4bbc 3d27 4ebc 13d5 293c 1c87 b73c
00000170: 1a85 813c 7fd1 c33a bf35 af3c bc35 46bc
00000180: e433 debc 5c40 ba3a a327 523c fa4d 61bc
00000190: 5f86 c9bb fbae 8c3c eac6 013c 52ac 8b3d
000001a0: 8723 893c 19f6 f639 4deb 1f3c fcb0 a3bc
000001b0: 8403 37bb 2493 2dbb ee07 2fbc c90d 97bb
000001c0: f44b 7bbb 9544 0cbc 6c04 a6bc 4514 61bc
000001d0: b44a 2bbc 8066 2eb8 4115 d5bb 0959 403c
000001e0: cda9 00bd 1596 97bc 1827 823c 33d7 b5bd
000001f0: df3a cd3c 4ade 363c 53f2 373c bec2 063d
00000200: fd60 413d d74f 523d 7a35 8e3c d352 ebbc
00000210: 9b74 e13d ac83 bd3b f430 46bb 95f9 02bc
00000220: fd19 2eba 8f29 453c fa81 1f3c 5772 e6bb
00000230: 7ffc 233d 8aef 953c 7a52 993b 2836 0ebe
00000240: 2d98 ad3c dd31 7e3c e892 d83a d655 f13a
00000250: 041b 1c3c 034c babd b5be efbc f747 f1bd
00000260: b7b3 04be ef17 eabd 0bd7 8cbd c5bc 63bd
00000270: 8730 67bc 9599 28bd bc48 f7bd ff8d 61bc
00000280: 0725 cbbd ba88 803b 4f37 98bd d62e 22bc
00000290: b463 e2bb 814f 30bd 82b3 52bd 0a41 81bd
000002a0: b14b 4b3b 87be 25be 7ff6 dcbd 64cb 36bc
000002b0: 8e55 e3bc 313f 95bc 91c2 5dbd fa79 02bd
000002c0: 03e0 97bb de34 98bd ab40 26be 262f 59bb
000002d0: dfa2 98bc a335 22bc 181c 04bc e7f1 45bc
000002e0: b8f0 58bb 85d8 fabb d2ec 803a ff7a 283b
000002f0: 63a8 b6bb e181 0abc 99a6 793b e462 c1bc
00000300: dd35 5f3c 1904 c83b 4d47 893c 5912 bebb
00000310: 6376 04bb 04d8 d3bb d031 f33c f0ad f3b9
00000320: 36ce b4bb ebf9 38bb 2473 823b 3da3 993b
00000330: d3e7 133b 5c76 603c d6a5 aab9 6a72 b53a
00000340: 5f45 3e3a 84ab 2c3b 00a9 0cbb 818f e73b
00000350: dc86 4cba fe94 11ba 4a93 103b 9fb6 373a
00000360: 0b03 e53b 5108 9a3b 6253 113c 8e51 f23a
00000370: c672 71bb 9c4c 2a3b 9569 b1bb e6cf 87bd
00000380: 5b5a 593c b1fa a73a f640 97bd 1b10 ed3c
00000390: 86f6 07bd d4fe a63b d415 2bbb a9f1 99bd
000003a0: 847b f73b 2167 333b eead 19bc 9636 d13b
000003b0: 156a 463d e190 2b3c accb ea3c 99e4 5d3c
000003c0: 8419 1dbe 1a46 0ebe 1bd5 c23b 5a1a 563c
000003d0: 38f1 a53b 98ba 0a3a 2abc ec3b 7eae 7d3b
000003e0: 9335 233b 322b 9f3b 1b2f 43bc 8a5f d1ba
000003f0: 1633 88bb 18bf bd39 b5d1 e73b fd07 033c
-0.008491144 -0.016924206 -0.017835233 -0.0014676542 -0.0039360463 -0.044852268 -0.0007177777 0.007179182
0.015591855 0.017056685 -0.024212187 0.031994116 0.013251811 -0.009267028 0.015179494 0.045681983
0.007952358 0.0012827251 0.005395994 0.023258 -0.006590286 0.013414796 0.009605387 0.0014358377
-0.04553584 0.0069743562 -0.009078108 0.0047466373 0.0044035097 0.0033088636 0.003048111 0.007185559
0.015015848 0.011414582 -0.022574864 -0.029154908 -0.007079043 -0.001117839 0.000104472056 -6.5200875e-06
0.032460213 0.016992372 0.010069294 0.006359843 -0.01266818 -0.024242112 -0.017954828 0.0032652016
0.040465884 0.03002644 0.008894275 -0.0002851225 -0.002823617 -0.010130117 -0.00067181163 0.0031123674
-0.01432839 0.00070213526 0.015961573 -0.027003495 0.038304932 -0.019329974 0.0039855684 0.07872525
0.018967489 0.03521856 -0.010987473 0.010606086 -0.00591342 -0.016234256 0.015236163 -0.03995941
0.0024572664 0.01623818 -0.013632813 0.015816374 -0.01466719 -0.008848489 -0.0024988935 -0.010236241
0.014750948 -0.045540165 0.031057762 0.006138041 -0.014175887 0.0018928058 0.01236698 0.0075741117
-0.012449982 -0.012582597 0.010365742 0.022403292 0.015810538 0.0014939754 0.021387933 -0.012097772
-0.027124353 0.0014209854 0.012826833 -0.013751501 -0.0061500515 0.017173281 0.00792096 0.06819977
0.016740574 0.00047104133 0.00976069 -0.019981854 -0.002792568 -0.0026485408 -0.010683043 -0.0046097976
-0.0038344832 -0.008561273 -0.02026578 -0.013737743 -0.010454822 -4.1580293e-05 -0.006502778 0.011739978
-0.031411935 -0.018504182 0.015887782 -0.088789366 0.025052486 0.011161396 0.011227208 0.032900564
0.047211636 0.051345672 0.017359484 -0.028726017 0.11008569 0.005783519 -0.003024158 -0.007994075
-0.0006641446 0.012033834 0.009735579 -0.0070326733 0.04003572 0.018302698 0.0046790214 -0.13887846
0.021190727 0.015514818 0.0016523274 0.0018412422 0.009527925 -0.09096529 -0.02926574 -0.11781304
-0.12959181 -0.11430346 -0.06876954 -0.055599947 -0.014110691 -0.041162092 -0.1207442 -0.013766765
-0.09919172 0.003922549 -0.07432424 -0.009898862 -0.006908858 -0.04304457 -0.051440723 -0.06311233
0.0031020457 -0.16185962 -0.10789203 -0.011156891 -0.027750757 -0.018218609 -0.05414063 -0.031854607
-0.0046348586 -0.074319586 -0.16235606 -0.0033139675 -0.01863235 -0.009900483 -0.008063339 -0.0120816
-0.0033102464 -0.0076552057 0.0009836203 0.0025708077 -0.0055742725 -0.008453817 0.0038093685 -0.023606725
0.013623682 0.006104004 0.016757632 -0.005800527 -0.0020212166 -0.00646496 0.029686838 -0.00046478165
-0.0055177463 -0.0028225135 0.003981011 0.004688649 0.0022568598 0.013700094 -0.00032548484 0.0013843302
0.0007258262 0.0026347348 -0.0021463037 0.0070666675 -0.0007802078 -0.00055535126 0.0022060447 0.00070081087
0.006988888 0.0047006984 0.008869978 0.001848744 -0.0036842092 0.0025985604 -0.0054141977 -0.0663145
0.013266171 0.0012815801 -0.07385437 0.028938344 -0.033194087 0.005096296 -0.002610554 -0.07516796
0.007552566 0.0027374702 -0.009379847 0.006384681 0.04844101 0.010471554 0.028661571 0.013543271
-0.15341765 -0.13893929 0.0059458143 0.013067806 0.005064156 0.0005292087 0.0072245793 0.0038708742
0.002490376 0.004857444 -0.011913086 -0.0015973907 -0.0041564805 0.00036191265 0.0070745596 0.00799751
