notebooks/runs_graphsage/run4_20251029T073740Z/graphsage_encoder_run4.pt (torch, 59752 bytes, 3 tensors)

convs.0.lin_l.weight f4 [32, 223]
00000000: 94d1 09bc 6a0c 3cbb 11ed 423d 0f1e 1d3e
00000010: f17a 69be c806 003d fa37 7abe 2964 dfbe
00000020: e856 ea3c 3df1 06be 75e2 eabe 9d0a 213d
00000030: 09d8 0a3d 583b 0e3e 4d6f 1f3e 6eeb fd3d
00000040: e51d 3e3e 4d81 f93c 1c4d 373d ff49 f53c
00000050: d7b1 a3bd ca35 ec3c bd9a f03e 6e64 28bf
00000060: 896c a83e 0882 a7bd d09f 69be 7e0c 42be
00000070: bc3e 2fbd 071d 193f 2f5f 79bd fd54 f0bd
00000080: 892f 47bd 27a4 c5bf adf4 b0bd 77dd 863e
00000090: 00d2 4fbe 0f78 69be 2e23 27be e6f7 12bd
000000a0: 9c5d 8ebe e9d1 913f 4341 a53e 038d 51bf
000000b0: eb7d 93be deff 63be f6da 003e d5da e4bc
000000c0: 614d acbd be15 e93d 7804 6a3e ba2d 38be
000000d0: 244c b6be 5444 563e 61ce e63d 675f 1fbe
000000e0: 7964 ec3e e342 783d 61ed 1fbd 98fc 143e
000000f0: 73b0 8b3f 46ba 70bc c762 e2bf 554c 98be
00000100: 567d a8be 2b1c 163f a428 3ebe a889 153f
00000110: e5ed 263e 4e65 493d ae50 023d 94a4 7f3e
00000120: 6bba 53bd 8cc8 473e e4e2 dcbe 5698 c83b
00000130: 8bf6 debe e996 15be 2e46 82bf df0f 5cbe
00000140: 569b 42bf d890 75be 53e4 adbe f1eb 6ebd
00000150: c9dc 3ebe 4b79 f83c 430d ad3f beb8 6dbb
00000160: 854c d03d 1d0f a7be f567 983f 5fd3 123f
00000170: 02e1 cd3e 7b1e 60bf a6b4 29bd ceda b0bf
00000180: f918 cebd 8ae1 f1bc 3418 e8be 3238 993d
00000190: 5975 923e cb95 d3bd f3cb ffbc a65c d33e
000001a0: 5af9 16bd c8d7 babc ce4d abbd b24a 01bf
000001b0: a2da 0abd b3ac fa3d fdd8 3abe 54a0 a03e
000001c0: 1410 49bf e040 763d e1b8 40bc c9bc 2fbd
000001d0: 0916 40bc 377a e7bd ea58 2abb 3439 bb3d
000001e0: 66c6 7cbe 213f c3bd aec9 433e c993 e0bd
000001f0: 419f 063d f669 133d 5e96 83bd 5f66 b6be
00000200: efa5 a33d 004f 93be 9fa8 28bd 02f1 8ebe
00000210: 3c4b 473d a9fa 7d3d afe9 64bd 664d 39bf
00000220: be35 393e 958b 32bf ef0a 99be 6b7f 3cbf
00000230: 9146 96be ba4d dcbc 2a50 ddbe 6304 d8be
00000240: a6ab d4be f92f 3abe b999 a3be b0a7 b93d
00000250: 538f e7be 0766 0e3e 887e 09be ab72 403e
00000260: c3a4 2abe 6822 a6be 97f9 1abe 0cbf 26bd
00000270: 0e7a 82be 1144 c23d 1699 eabe 2af8 3e3d
00000280: 0bd3 793e 111f 65be 4678 3cbe da14 00bf
00000290: ce39 36bf b21a 093d 56c2 2b3e 09a2 edbe
000002a0: 23fd 2abf 1724 64be 4f47 b3bd af5e 0cbe
000002b0: 9fbd a9be bf57 86bd 8b7f 9c3e 8560 4fbe
000002c0: 490e 25be 4bca e5bd fe2b 99be 6404 48bf
000002d0: 7a94 49be df32 0dbe 72df 633f 9835 863d
000002e0: ddd5 1bbe a023 61bc df8e 2b3d a61e 983e
000002f0: ac2d 423e 46b7 f03e 198f 513f 617a 7c3e
00000300: 213f 7c3e 1ed9 9b3d 4f38 0f3d fd5d c1be
00000310: 2615 803e 7ef0 763e 71a4 b23e 9ad4 d43e
00000320: 2f4c 113f e181 a23e 20f2 f53d b1d1 2e3e
00000330: 4496 883d c624 e93b 5bd8 71be 56e7 25bf
00000340: 8a02 9cbc a7df 87be 67f8 6ebd 344e 40bf
00000350: f30a a8be 34f0 3abe 84b9 15bf d738 5f3e
00000360: 8bba 47be 5eb1 86bd 8c56 a2be 0c7e 80be
00000370: 2dbb a2bc 3107 04bf 0fc6 2d3d bb99 533d
00000380: a336 1b3c fcd9 71bc 64dc d83d 9a38 babd
00000390: 5e96 903e 3235 bebe d45b 04bf 9cbc b5bd
000003a0: 9530 4bbe e0bc 86be 4150 0e3c d240 b6bd
000003b0: 29cc d3bc 032b 8e3e 694b 973b d6f6 703e
000003c0: 5e9a 96bd 761f 443d 9c00 0f3e 30c2 9d3d
000003d0: 0198 603d c73a 8d3e c1a2 84bd 7572 643f
000003e0: ea49 96bc 77a6 f6bd 5a72 27be 3b1c 5d3d
000003f0: 5324 df3e 3395 f3bc feba b4bb 3d78 babd
-0.008411784 -0.0028693923 0.047589365 0.15343498 -0.22800805 0.031256467 -0.24435416 -0.43631104
0.028605893 -0.13177963 -0.45875898 0.039316762 0.033897433 0.13889825 0.15569802 0.1239842
0.18566091 0.030457163 0.04475127 0.02994251 -0.07992905 0.028834242 0.46993056 -0.65778244
0.32895306 -0.08179098 -0.2281487 -0.18950078 -0.042784438 0.5980992 -0.06088179 -0.1173496
-0.048629317 -1.544072 -0.08640418 0.2634084 -0.20294952 -0.22799705 -0.16322014 -0.035880946
-0.27805793 1.1392184 0.32276353 -0.8185579 -0.28807005 -0.22265574 0.12583527 -0.027936378
-0.08413196 0.113811 0.22853267 -0.17986193 -0.35604966 0.20924503 0.112698324 -0.15563737
0.46170405 0.060610663 -0.03904474 0.14549482 1.0913223 -0.014692849 -1.7686394 -0.29745737
-0.32908124 0.5863673 -0.1857019 0.5841317 0.16301687 0.049168877 0.031815223 0.24965125
-0.051691454 0.19510096 -0.43141854 0.0061216755 -0.43547472 -0.14608349 -1.0177667 -0.2149043
-0.76018274 -0.23981035 -0.3396326 -0.05833048 -0.1863891 0.030331274 1.3519672 -0.0036273445
0.10170845 -0.32628718 1.1906725 0.57353777 0.4021073 -0.8754651 -0.041432045 -1.3816774
-0.10063357 -0.02952649 -0.45330966 0.074814215 0.28605154 -0.10331305 -0.03122518 0.41281623
-0.036858894 -0.02280797 -0.083644494 -0.505046 -0.03389991 0.12239971 -0.18246837 0.3137232
-0.7854016 0.060120463 -0.011762829 -0.04290465 -0.011724004 -0.113026075 -0.0025992938 0.0914177
-0.24685058 -0.09533525 0.19119903 -0.10965688 0.03286672 0.035989724 -0.06425165 -0.35624978
0.07990634 -0.2877121 -0.041176435 -0.2791825 0.048655733 0.062006626 -0.05588692 -0.72383726
0.18086907 -0.69744235 -0.29891154 -0.73631924 -0.29350713 -0.026892532 -0.43225223 -0.42190847
-0.41537207 -0.18182363 -0.3195322 0.09065187 -0.45226535 0.13906108 -0.13427174 0.18793742
-0.16664414 -0.32448125 -0.15134273 -0.04070954 -0.25483745 0.09485639 -0.4581992 0.046623386
0.24396913 -0.22375132 -0.18405256 -0.50031817 -0.7118195 0.033472724 0.16773352 -0.46412686
-0.66792506 -0.22279392 -0.087538354 -0.13707994 -0.33152482 -0.06559705 0.30566058 -0.20251663
-0.1611873 -0.11220225 -0.29916376 -0.781317 -0.19685546 -0.13788937 0.89012825 0.06553191
-0.15218301 -0.013741404 0.0418843 0.29710883 0.18962735 0.47014827 0.81858975 0.24656059
0.24633457 0.07609771 0.03496581 -0.3776702 0.25016135 0.24115178 0.34891084 0.41568452
0.5675687 0.31739715 0.12009072 0.17072178 0.06669286 0.0071149794 -0.2361769 -0.64806116
-0.01904418 -0.2653782 -0.058342364 -0.7511933 -0.32820854 -0.18255693 -0.584862 0.21799026
-0.19504754 -0.06576799 -0.31706655 -0.25096166 -0.019864643 -0.51573473 0.04242521 0.05166028
0.009473476 -0.014761444 0.10588911 -0.09092827 0.2823972 -0.3714996 -0.5170262 -0.08873865
-0.19842751 -0.26315975 0.008686126 -0.08899082 -0.025854187 0.2776719 0.004617144 0.2353166
-0.07353662 0.047881566 0.13965076 0.07703054 0.054832462 0.27583906 -0.06476355 0.8923715
-0.018345792 -0.120434694 -0.16352215 0.053982 0.435824 -0.02973423 -0.0055154553 -0.09104965

convs.0.lin_l.bias f4 [32]
00000000: b3dd f73b fc5b 863d 5803 c83c df1f d83c
00000010: fc6f afbb f2f4 f6bc 3a5b bb3b 2d5e 93bc
00000020: a21e ce3c d4fa d4bc c750 c53c 68d9 ecb7
00000030: c15d 3fba 3c8f b23a 2548 e13b 909a 67bc
00000040: 62a7 653b 55f4 753c 4149 c73c e2f4 283d
00000050: 6dfe 1a3d 155d 803b cbee 5cbb d211 713b
00000060: 8b4e 0fbc b309 6abc 283b e3bc 0cd5 c73c
00000070: 9ca3 923c 4272 853c b629 7dbd 747f f5bc
0.0075642704 0.065605134 0.024415657 0.026382385 -0.0053539257 -0.030146096 0.005717662 -0.017989242
0.025161091 -0.02599851 0.02408637 -2.823463e-05 -0.0007300042 0.001362301 0.0068750554 -0.014135972
0.0035042395 0.015011867 0.024326922 0.041249163 0.037840296 0.0039173462 -0.0033711668 0.0036784303
-0.008746753 -0.014284539 -0.027738169 0.02439358 0.01790028 0.016289834 -0.061807357 -0.029968001

convs.0.lin_r.weight f4 [32, 223]
00000000: 9f54 d7bb 913a a53d 45d7 b93d 623c 223d
00000010: a66c 1c3d a595 cdba 4b19 923c 3c4e 9f3c
00000020: ae60 7b3c a6f7 123d 6956 0c3c b421 403d
00000030: 2f9e 163d b89c 533d 63d2 253d d5e6 3f3d
00000040: eced 713d 036c 683d 928c 0d3d c234 563d
00000050: 379c 1c3d 8f70 1b3d 6563 303d fcff a33c
00000060: 5383 023d 0a51 aebb 37ba 9abb 6112 bfbb
00000070: eed4 f6bb 97e1 b83b 0fdd a83c efff 083c
00000080: 7004 923c 786d 9cbb e323 60bb e0a4 1e3d
00000090: cfeb 843c 0b0b 083c f6aa ac3b 03f6 123d
000000a0: 217e 91bb 97ac 953d c531 1d3c b5dc 21bb
000000b0: 700f c03b c8c2 dc39 f37e 0b3d dc6f 8f3b
000000c0: 7d98 ea3b 303c 643d d23e 893d 9628 8a3c
000000d0: 867b 033c b9b6 bb3c 44bb 883c cfc1 113d
000000e0: 3dad 9d3c e782 9a3c 2180 843b ff48 543c
000000f0: 2178 183d b702 1e3c 4d49 24bd c90b 373d
00000100: 3e9f 3f3c ba7d 66bc ef28 8ab9 a79b 353d
00000110: 3058 203d 44f0 4a3c 6988 2e3c af55 473c
00000120: c182 9c3c 4a3b d13c bff5 983a 3949 87bd
00000130: 06f8 493c 5c76 633c 40e5 02bd 9ae9 003b
00000140: e317 2a3c 8df7 183d 2230 82bc 86a3 563c
00000150: 9853 473c a22e 203c 2d36 453d b6c8 443b
00000160: 6f8a a2ba 7568 033d 8c47 843d 96d0 db3c
00000170: 96b4 c23c c52a aebc b6d0 253c 024a 01bd
00000180: eece 893c d232 0b3b 4c68 13bc ae87 8c3c
00000190: a683 053c 30b3 173c 1530 303b 208c 1b3d
000001a0: 14ae f13b 7922 9dba 19f6 023d 98b4 003d
000001b0: c542 6bbc 8b8a 2d3c be84 223d 2af4 2f3c
000001c0: 2667 9639 6ae7 55bc 2c0b a83b 1ec5 b13c
000001d0: 36d3 ad3c 9758 a53c dd89 0f3c a488 353d
000001e0: a05d 9c3c 31de a53b acbe c53c 43b8 eb3c
000001f0: 0e0c f83d f742 8c3d 21fc febd bbdd ccbd
00000200: 2bdc e03d 545d 6abe 4cb7 05bd 52cd 003e
00000210: eb6f a2bc 761a 173d 9bec 973e 4a63 00be
00000220: c626 fdbc 3267 edbc 6ddc eabd 3213 1dbe
00000230: a7cf dbbc 919a a4bc 91ef cebd 2886 abbb
00000240: c328 1dbd b439 67bc 23c1 54bc d512 0abd
00000250: 26c2 03bd 068a 49bc 9c0f 7a3a 60c8 71bc
00000260: f4fe b7bd 4f19 68bd e3a5 39bd a167 9bbc
00000270: 70df ddba 8d2b 5dbc 79b6 6dbc adde d8bc
00000280: 9c63 9bbc 491d 66bc da10 2abd 0c76 9fba
00000290: 5d36 0ebd 9dea a9bc 1f3d f0bb 6f89 afbc
000002a0: 0b7a 053c 6700 263c d867 a33a 581d 5fbc
000002b0: 73e7 4bbd 8307 91bc 4c45 27bc 2ba8 b8bb
000002c0: f23e f93b a2b0 ae3a 2ec9 faba 45a8 98bc
000002d0: 6f4c 81bc a206 cc3c a183 563a 6a41 2e3b
000002e0: 4a97 05bb e619 4f3c fa19 243c 56b3 f13b
000002f0: 1ed5 8b3c 808a 593c abea c83c f6d0 5d3c
00000300: edb3 ad3c 37f2 5e3c 4310 cd3c 49d2 673c
00000310: 7c12 e53c 14e7 cb3c fe4a d93c 26b7 de3c
00000320: aeab d73c fd8c e83c e586 c23c 7105 0a3f
00000330: b802 2f3f 8fc0 21bc 80e3 c7bb 2233 8abc
00000340: 5f23 69bc 1592 66bc 2b01 4ebc c46b 943b
00000350: 8b80 3dbc bbae b3bc ee28 dbbc 815a ff3b
00000360: af67 23bd 822b 3c3b 58c9 a13a d9fb 56bc
00000370: 0fad cdbb acb6 86bc 76bf a9bc a3e2 003c
00000380: 0173 df3d bbba cf3d 32ae df3c 1005 b03c
00000390: 39ac aebb d78b 363c 27fb de3b 22e5 e7b7
000003a0: c07d d73c 72f4 8bbb 84fa a83c 6682 9b3c
000003b0: 0e17 103d 72c3 ae3c b4c8 cb3b e501 063d
000003c0: cd9a e13c 104d 363c 7a5d 093d b4e1 013d
000003d0: 897e fb3c ccd2 813c c314 ea3c b55d 5b3d
000003e0: a95c 303c ef0b afbb 4434 023b fe45 fc3b
000003f0: 1a13 9f3b 7409 ba3c b3f6 853b f0d5 a53c
-0.006571367 0.08067811 0.090742625 0.039608367 0.038189553 -0.0015684856 0.017834326 0.019446485
0.015342874 0.035880707 0.008565524 0.04690714 0.03677195 0.05166313 0.040483844 0.046850998
0.05906479 0.056743633 0.034557886 0.052296408 0.038234916 0.03794914 0.04306354 0.020019524
0.03186352 -0.005319719 -0.0047219056 -0.0058310484 -0.0075327074 0.005642127 0.020613221 0.008361801
0.017824382 -0.004773792 -0.0034201078 0.038731456 0.016225724 0.008303414 0.0052694036 0.035879146
-0.0044400846 0.073083095 0.0095943855 -0.0024698202 0.0058612153 0.00042106793 0.034056615 0.0043773483
0.0071592913 0.05572146 0.06701435 0.016865056 0.008025056 0.022914277 0.016690858 0.03558522
0.019247646 0.018861247 0.0040435945 0.012956857 0.03722394 0.009644202 -0.040108968 0.044688974
0.011695681 -0.0140680615 -0.0002635191 0.044337895 0.039146602 0.012386385 0.01065264 0.012166425
0.019105317 0.025540967 0.0011669918 -0.06605763 0.0123272 0.0138832 -0.03195691 0.0019670487
0.010381672 0.037345458 -0.015892092 0.01310051 0.012165926 0.009776743 0.04814737 0.003002686
-0.0012400876 0.03208204 0.06458959 0.02683286 0.02376775 -0.021260628 0.010120561 -0.03156472
0.016822305 0.0021240008 -0.008997034 0.01715454 0.008149063 0.00925903 0.0026884128 0.03797543
0.007375488 -0.0011988423 0.03197298 0.031422228 -0.014359181 0.010592113 0.039677374 0.010739366
0.0002868708 -0.013055662 0.005128285 0.021700438 0.021218877 0.020183844 0.0087608965 0.044319764
0.019087613 0.0050618877 0.024138771 0.028774386 0.12111674 0.0684871 -0.124504335 -0.10003229
0.10979494 -0.22887164 -0.03264551 0.12578323 -0.019828757 0.03689047 0.29672703 -0.12537876
-0.030902278 -0.028979871 -0.11467824 -0.15339354 -0.026832415 -0.020093234 -0.101042874 -0.0052344985
-0.03836895 -0.014112879 -0.0129855005 -0.033709366 -0.032167576 -0.012300974 0.0009539069 -0.014757246
-0.08984175 -0.05666476 -0.045324218 -0.018970313 -0.0016927551 -0.013499153 -0.014508837 -0.026473368
-0.018968396 -0.014045068 -0.041519977 -0.0012165918 -0.034719814 -0.020741755 -0.007331505 -0.021427838
0.008146773 0.010131932 0.0012466861 -0.013617836 -0.049781274 -0.017703777 -0.010209393 -0.0056352816
0.0076063806 0.0013327787 -0.0019133443 -0.018634925 -0.015783517 0.024905507 0.00081830664 0.0026589283
-0.0020384365 0.012640452 0.010015959 0.007376115 0.017069396 0.01327765 0.02452596 0.01353859
0.02120396 0.013607553 0.025032168 0.014149257 0.027962916 0.02489046 0.026525017 0.027186941
0.02632698 0.028387541 0.023745963 0.5391455 0.68363523 -0.00987257 -0.006100118 -0.016870085
-0.0142296245 -0.014072915 -0.012573521 0.004529448 -0.011566292 -0.021933904 -0.026752915 0.0077927713
-0.039893802 0.0028712456 0.001234333 -0.013121569 -0.0062767337 -0.016444527 -0.020721179 0.007866534
0.10910607 0.10143038 0.027304742 0.021486789 -0.005330589 0.011141739 0.006804842 -2.7644044e-05
0.02630508 -0.0042710835 0.020627268 0.018983077 0.035178237 0.02133343 0.006218994 0.03271665
0.027539635 0.011126772 0.03353641 0.031709388 0.030699985 0.015847586 0.028574353 0.053556163
0.010764279 -0.0053419988 0.0019867579 0.0076987734 0.004854572 0.022709586 0.0040882467 0.020243615
