notebooks/runs_graphsage/run5_20251029T235944Z/graphsage_encoder_run5.pt (torch, 59752 bytes, 3 tensors)

convs.0.lin_l.weight f4 [32, 223]
00000000: 132e e5bd 86c5 47bc d774 44bd 62d6 2dbe
00000010: 4937 fb3d 68da c8be e218 a43e 5dd5 6c3e
00000020: b235 003e b0ac aa3e 6da0 863e 76cb 213b
00000030: cabe 033e c767 013d 0b67 97be 720f a0bd
00000040: c306 e3be 72f6 94bd ddcc 62bd 027a 1ebe
00000050: 1baa c33c 519b b93d cb88 e0bd b905 c13e
00000060: e8d4 cbbe 1c75 1d3d 35fa fc3d a5b8 003e
00000070: 8fe0 26be c0a2 d0be 77fd 2b3d 4786 1d3d
00000080: 326b fe3d 6dfd 893f 3314 3ebe d5d8 cebe
00000090: d2e3 623e 41a0 983e 4e96 54bc d589 0f3e
000000a0: acbd 453a cb11 05bf eff4 533e 01ea ee3e
000000b0: 23f9 c1bc 1617 143d f8ae 0fbd ab40 c7bd
000000c0: 3805 e63d e836 f1be a555 fbbe 25ea 2abe
000000d0: 1904 403e 3d6c 693e 2301 25be ed00 813e
000000e0: d5e4 e2be 181e c53d e749 d63d 4699 813d
000000f0: aae2 6dbf e7b0 9dbd d5a2 0f3f 2659 a73f
00000100: 9f61 da3e 9987 d13c 549b 343e c5d3 d93d
00000110: 4c41 2dbe 9b3f 923d 9ebd 053d 27e8 07bf
00000120: 48f9 9e3b 370b d0bd f157 b23e a54b 0abf
00000130: 8d51 60be 2d3f ca3d d5fe e23c 69d1 873e
00000140: 2dc8 533e a3e8 9e3e 9703 203f 1e61 e3bd
00000150: 03f1 5a3e 6df1 2b3f 6062 92bd 79a9 83be
00000160: bacc 003e 3c8c 583e 7f99 96bf d9db e1be
00000170: 12a2 90be 0fc0 743d d404 96bd c274 083f
00000180: 634a 0abe c0d2 c23d 0409 8e3e dd91 64be
00000190: ade1 30be 80c8 2fbe 8ad9 fc3d 70c9 763d
000001a0: d467 053f 7414 a73f 32bf 853f cf11 6c3f
000001b0: 8bea 9fbc 6a09 9d3d d204 9b3f 6967 9c3e
000001c0: 4fbf 333f f28a fc3e 8593 50bd 3a55 1fbd
000001d0: 4082 cbbd 8cd1 0cbe 58e1 6abe 8e75 05be
000001e0: 1787 583d d8ba edbc ed96 9cbe ac14 9f3e
000001f0: f6f8 f5bd a87a 22bd 9e3a 6dbe 6b22 95be
00000200: e330 a8bd 2d14 2cbf 4a6b 8fbe bb8b 10bf
00000210: aa6a 92bd 1748 00be c28e dabe 87fa 18bf
00000220: d6c2 11bf 2f2d 8cbe 3bde 15bf 0c0f aebe
00000230: 881a 46bf 329b 0ebf dc01 57bf d00d 5b3e
00000240: b471 e7be 3296 8abb 4b6a 3cbe fba0 36bf
00000250: 0a89 d7be 6cec 27bf 1072 c8be d953 d4be
00000260: d044 1ebf 5f56 d0be 4a5b aebe 6cc5 31be
00000270: cb26 2ebe 2252 8dbe e244 ecbd c575 b5be
00000280: 3df1 35bf 1c70 50be a256 00bf 6200 49be
00000290: 4086 443d 215c 38be fa20 91be 0f56 9cbe
000002a0: 8136 a9be 27d5 04bf be97 82be d526 0e3e
000002b0: 48d9 afbc 6353 c1be ea77 dabe 0884 f1be
000002c0: f12d 51be a069 90be 84ca 85bc d0b0 933d
000002d0: 28b4 0fbe eb77 b93d c684 bbbe 790c 14be
000002e0: dafe c33d 9ae3 6abe c3d6 d9bd fde0 503e
000002f0: bbda a5bc a801 753d 2d88 2dbe 7b49 0dbe
00000300: b1be a4bd 6699 093e 634f a43e 01e0 af3e
00000310: d3e1 413e e3e5 983e 8589 693d f94b af3d
00000320: 4b45 a43d 2304 593e d5fb 683e 8a6a 29bf
00000330: 34e2 35be cf31 593e 4473 b73d 325b 943d
00000340: 0964 8c3e b683 fc3d b4ab 1a3e 2481 4abf
00000350: 5cf0 90bd e665 033e 2c7c 343c 0fc5 e63d
00000360: df02 e03d 10fb ef3c 8eed cf3d bb2b 9d3d
00000370: 333a 2d3d 8b77 9d3e 1855 5c3d 390b b2bb
00000380: 7ae0 d1bc 4542 90bd d15b 38be 94aa 403e
00000390: 417e 0fbe 00ea 823e fcbe d03e a5e8 f83b
000003a0: e4ab 053e f6f6 1a3f 4b7d 88bd 7d57 883c
000003b0: 77f9 08be 9768 41be 64e9 603c 7ef4 3fbe
000003c0: f414 98bc 0d69 f2bd a982 1cbe 994c 223d
000003d0: 1215 9f3c b2c2 f9be bb5c 2f3f 16c1 1cbe
000003e0: ae5d 163d 4011 693e a16d a93d 1835 3c3d
000003f0: a0c5 13bf bee4 5b3e bb2a 7f3e d452 c83d
-0.111904286 -0.012193089 -0.04796299 -0.16976312 0.12266404 -0.3922913 0.32050234 0.23128267
0.12520483 0.33334875 0.2629427 0.0024687923 0.12865749 0.03159311 -0.29570803 -0.07815446
-0.44341096 -0.07273568 -0.055371154 -0.1547623 0.023884824 0.090628274 -0.10963591 0.3769968
-0.39810872 0.038441762 0.12352411 0.12570436 -0.162966 -0.40749168 0.04198977 0.038458135
0.1242279 1.0780464 -0.18562393 -0.40399805 0.22157219 0.29809764 -0.012975289 0.14017422
0.0007543217 -0.51980275 0.20698904 0.46662906 -0.023678368 0.03615483 -0.035078973 -0.09729131
0.11231464 -0.47112203 -0.4908878 -0.16690882 0.18751563 0.22795196 -0.16113715 0.2519602
-0.4431521 0.096248806 0.104633145 0.06328063 -0.92923987 -0.07699757 0.56107837 1.3074081
0.42652604 0.025577353 0.17637378 0.10636095 -0.1691944 0.07141038 0.032651536 -0.5308861
0.004851494 -0.10158389 0.3483272 -0.54021674 -0.21906109 0.09875331 0.027709404 0.26526955
0.2068183 0.31036863 0.6250548 -0.11102508 0.21381001 0.6716526 -0.0714767 -0.25715235
0.12578097 0.21147245 -1.1765593 -0.44113043 -0.2824865 0.059753474 -0.0732514 0.5330316
-0.13504939 0.095128536 0.27741253 -0.22321267 -0.17273588 -0.17166328 0.1234618 0.0602507
0.52111554 1.3053117 1.0448973 0.92214674 -0.019521018 0.07667811 1.2110846 0.30547646
0.7021379 0.49324757 -0.050921936 -0.038899638 -0.099369526 -0.13751811 -0.22937524 -0.13033125
0.052863207 -0.029019758 -0.30583897 0.3107046 -0.12010376 -0.039667755 -0.23166892 -0.2912782
-0.082124494 -0.67218286 -0.28011543 -0.5646321 -0.07149251 -0.125275 -0.4268704 -0.59757274
-0.5693792 -0.27378222 -0.5854222 -0.33995855 -0.77384233 -0.5570556 -0.8398721 0.21391988
-0.45203936 -0.0042293305 -0.18399923 -0.71339387 -0.4209674 -0.65595126 -0.39149523 -0.4147022
-0.6182375 -0.40690896 -0.34054023 -0.17360467 -0.17006986 -0.27601725 -0.11536576 -0.35441414
-0.71071225 -0.20355266 -0.5013219 -0.19629052 0.047979593 -0.18003894 -0.28345472 -0.30534407
-0.33049396 -0.51887745 -0.25506395 0.13882 -0.021465912 -0.37758932 -0.42669612 -0.47171044
-0.20427682 -0.28205585 -0.016331919 0.07211459 -0.14033568 0.09056076 -0.36624736 -0.14457883
0.095700935 -0.22938386 -0.10636666 0.20398326 -0.0202459 0.059816033 -0.16946478 -0.13797562
-0.08044184 0.13437423 0.32091817 0.3435059 0.18933801 0.2986289 0.057015914 0.085594125
0.08021029 0.21192984 0.22752316 -0.6617819 -0.17762071 0.21210407 0.08957532 0.072439566
0.2742007 0.12329809 0.15104562 -0.791033 -0.07077095 0.1283184 0.011015933 0.11268055
0.109380476 0.02929452 0.10152732 0.076743565 0.04229183 0.30755267 0.05379209 -0.0054334668
-0.025619734 -0.0704389 -0.18003775 0.1881507 -0.14013006 0.25569153 0.4077071 0.0075960928
0.13053852 0.6053308 -0.06664523 0.01664328 -0.13376413 -0.18887554 0.01372752 -0.1874561
-0.018564679 -0.11836443 -0.15284218 0.03962383 0.019419227 -0.48781353 0.6850087 -0.15308031
0.036710434 0.22760487 0.08272863 0.04594907 -0.57723427 0.21473977 0.24918644 0.09781423

convs.0.lin_l.bias f4 [32]
00000000: a415 6b3c 76e4 eb3c 1845 b2ba 9918 cc3c
00000010: b7db 293c f5a4 a2bb 849f a03b 6018 b0bb
00000020: 813c edbc ed0f 073c 282e 083d 95f9 46bd
00000030: 2bb7 06bc 0b29 913c f2ee ce3c d175 0dbc
00000040: e104 7d3c 428f 063d a3e2 9839 13d4 bf3a
00000050: 8c38 223c 0237 473c 8431 563c 5219 4e3c
00000060: 97f5 ca3c 7385 d2bb 750b 433d b8d3 4bbd
00000070: dd4d d7bb f6ef a5bc 1c5c b83c 6b66 d93c
0.014348421 0.028795462 -0.0013600914 0.024914073 0.0103673255 -0.004963512 0.0049018282 -0.0053739995
-0.028959515 0.008243543 0.033247143 -0.048577864 -0.008222382 0.017719766 0.025260422 -0.008634047
0.015443058 0.032851465 0.00029160557 0.0014635347 0.009901177 0.012159111 0.013073329 0.012579279
0.02477531 -0.0064246 0.04761835 -0.049762458 -0.0065705613 -0.020256024 0.022504859 0.026538095

convs.0.lin_r.weight f4 [32, 223]
00000000: dbc4 4ebc 138e 97bd 53c4 99bd 5ebb babb
00000010: 3781 0cbb c3e8 e43b 6334 9dba 8e5d 1b3c
00000020: 1a70 71b9 299e 0bbb d9f7 02bb 6417 80bb
00000030: 3026 953b e806 2ebb be4f a5bc d13d 1cbc
00000040: 322b c0bc 8cb1 7a3b 8bc1 9abb 92a6 0bba
00000050: 7e2a 12bb f16a 98bb 50e9 d23b a116 093d
00000060: e800 1d3d f64e 9cb9 08b5 7bbc 3c5f d3bc
00000070: 103c a7bc d257 05bd 3d5b 78bc a25d 3fbb
00000080: 2d07 b1bc 942a 053c c1af 81bc afc3 0bbd
00000090: 4be0 9a3b 503c ad3a 9ff1 e4bb c940 e3bc
000000a0: a577 8239 76da c9bc 4a2d 94bc 4d2b cfbb
000000b0: afa1 c3bc 669e a2bc ee18 a5bc 7f47 863b
000000c0: 57cb 3cbc 8971 a3bc c9f7 20bd d60a 81bc
000000d0: 4576 f1bb 17ba 88bb 8f05 69bb 4c46 213c
000000e0: 51df 0fbd 20e2 f5bb 6717 03bc fa3b 94bc
000000f0: 3663 ddbc 0e28 65bc 0932 353c 9585 b63b
00000100: 1a7f ac3b 4c25 72bd e20c b93c 3437 85bc
00000110: b55d 95bc 53c0 14bc 8758 5dbc c0ae 0bbb
00000120: 2d20 4cbb 1895 6fbc 435f 42bc cd74 cdbc
00000130: 8482 bfbc 753d 613a 803e f6ba a16d b7bb
00000140: 379a 60bc 8ccd 693c b291 ef3c 7884 f83c
00000150: 709e 61bc 9db9 68ba da29 0c3c 374e d7bc
00000160: 0259 103d e33d e73b c6aa 0fbd b9e6 7bbc
00000170: f728 e2bc ed07 243d f71e 1abc b386 bf3c
00000180: f82b f838 d3bb 28bb a007 a4bb 9af0 8cbc
00000190: 289f 21bb b929 cfbb d9dc 45bc 39c6 b5bc
000001a0: 5a2a 163a f1b8 a03c 6918 a2bb f657 8bbb
000001b0: 9221 083c 2a3b a1bc acd2 a53c 9753 5cbb
000001c0: f4ba b03c f89d 1d3c f8dc 5bbc f43a bebc
000001d0: 0e15 b8bc 5b61 9cbc 33c7 dbbc d5db b6bc
000001e0: 4e02 59bb 4829 9abc 0769 01bd 5c49 7fbc
000001f0: 4078 4abe 0d16 8b3c 4bc2 fbbd 8391 e4bd
00000200: 7807 1dbe ddc6 85bd 6b19 453d f937 a1bf
00000210: 05e2 81bd c579 17be 73fc 7ebf fb03 ddbd
00000220: 9f83 2e3a 4240 abbb 8a8c e2bd cc73 05be
00000230: f800 6a3c d760 c239 0020 2ebd b411 1a37
00000240: f9ef afbc c6e5 923b d30c 9cba b1e8 c4bd
00000250: f82a cebb 04d7 20bd bddb 5bbb f856 343b
00000260: 4788 05be 5eb1 65bc dfce c83c cdcd 0bbc
00000270: 9696 ba3b d14c 08bc 71b2 21bb 315f 3ebb
00000280: 373d d5bc 27a9 3f3a 92f8 8ebc 7281 f839
00000290: 21c0 193c 8558 b63a ddb8 f5bb 5590 233c
000002a0: 2206 22bc 458c 83bb 046b bf3c 77de a43b
000002b0: fa5c e03b 8e26 343b 06c4 71ba 1aeb 1b39
000002c0: 6ac8 e23a 0dae e43b 873c 92ba 8803 6abb
000002d0: d409 363c 30da 9d39 a1f2 30bc 4719 813b
000002e0: 0eb2 653c db7f a73b a694 243c f73d 463c
000002f0: 2361 86ba fa7a 553c d9fb 43ba 08d7 e03b
00000300: 98d2 f13b c45a 663c 1578 bb3c 634c 713c
00000310: aeef cf3c 684f b13c 8480 a23c 01f2 4e3c
00000320: d8e1 713c be9d 313c 0078 eb3b 3791 40bf
00000330: df0e 73bf 7aed c93c bda6 d73b 997c 64bb
00000340: af0b 393c 90c9 8d3c f635 403c 70d7 6cbe
00000350: df0d 5a3c e05f 773c 3da7 ef3c 9563 fa3c
00000360: 346e 013d a87d a63c a6e5 a23b dcbf c83c
00000370: f099 8e3c 22e7 4f3c 848e 983c 0061 153b
00000380: 7990 75bd be10 a1bd c732 1dbd c559 fbbc
00000390: 1763 91bb 5eb1 89bc ea87 c4bc 004a 63bb
000003a0: 6542 bcbc cebc 94bb 01b8 00bd 147f b5bc
000003b0: dc61 2cbd 4a71 ebbc d97c f2bc 40ec 33bd
000003c0: f866 18bd 896c f2bc 2c2c 15bd 1c1b c9bc
000003d0: c89e ecbc 4fe0 56bd 0024 0ebc 544b 5bbc
000003e0: dfbc 0cbc 610f 753b 417b 84bc 27d8 9f3b
000003f0: 1920 023d 449c 76bb 6e40 35bc 0740 3fbc
-0.012620176 -0.074001454 -0.07508149 -0.0056986054 -0.0021439323 0.006985755 -0.0011993762 0.009482754
-0.00023025312 -0.0021303988 -0.0019984154 -0.0039090384 0.0045516714 -0.002655441 -0.020179626 -0.009536223
-0.023458097 0.00382528 -0.004722779 -0.000532725 -0.002230316 -0.0046514203 0.0064365044 0.033468846
0.038330942 -0.0002981347 -0.015362985 -0.025802247 -0.020414382 -0.032554455 -0.015158472 -0.0029200097
-0.021609867 0.008127827 -0.015830876 -0.034122165 0.004726445 0.0013216827 -0.0069868113 -0.027740853
0.00024884674 -0.024640303 -0.018088002 -0.0063223005 -0.023880808 -0.01985092 -0.020153489 0.0040978785
-0.011523089 -0.019951599 -0.039298806 -0.015752237 -0.007368835 -0.0041725743 -0.0035556292 0.00984342
-0.03512508 -0.007503763 -0.008001185 -0.018095005 -0.027024847 -0.013986601 0.011059293 0.0055701234
0.005264175 -0.0591176 0.02258915 -0.016261674 -0.01823316 -0.009079057 -0.013509876 -0.0021313876
-0.0031147108 -0.014622949 -0.0118635325 -0.025080109 -0.023377664 0.00085922267 -0.0018786937 -0.0055977856
-0.013708643 0.014270198 0.029244278 0.030336604 -0.013770685 -0.0008877756 0.0085549 -0.026282413
0.035241134 0.007056938 -0.03507497 -0.015374833 -0.027607424 0.04004662 -0.009406797 0.02337966
0.00011833751 -0.0025746718 -0.005005792 -0.017204572 -0.0024661515 -0.0063221124 -0.01207658 -0.022189246
0.0005728357 0.019619437 -0.0049467576 -0.004252429 0.008308785 -0.019681532 0.020242058 -0.003361916
0.021573521 0.009620182 -0.013419382 -0.02322147 -0.022470977 -0.019089391 -0.026828384 -0.022321621
-0.0033112946 -0.018818513 -0.031594303 -0.015581455 -0.19772434 0.016978288 -0.12292918 -0.11160567
-0.1533488 -0.06532071 0.048119944 -1.2595206 -0.06341938 -0.14792545 -0.99603957 -0.10791775
0.00066571863 -0.005226166 -0.11061962 -0.13032454 0.0142824575 0.00037074715 -0.042510986 9.183237e-06
-0.021476733 0.0044829575 -0.0011905677 -0.09614695 -0.0062917434 -0.039267555 -0.0033547722 0.0027517658
-0.13040267 -0.014019338 0.024512706 -0.008532953 0.005694221 -0.008319096 -0.002467301 -0.0029048438
-0.026030166 0.00073112774 -0.017452512 0.0004739869 0.009384186 0.0013911879 -0.007498844 0.009983142
-0.0098891575 -0.004014524 0.023366459 0.0050314027 0.006847021 0.00274888 -0.000922263 0.00014869534
0.001730216 0.0069787563 -0.0011156955 -0.0035707671 0.011110742 0.00030107936 -0.010800035 0.003939781
0.014019502 0.005111677 0.010045206 0.0120997345 -0.0010252338 0.013029808 -0.0007476188 0.006861571
0.007379841 0.014059726 0.022884408 0.014727685 0.025382843 0.02164431 0.019836672 0.01263094
0.014763318 0.010840831 0.007185936 -0.7522158 -0.94944566 0.02464937 0.006581156 -0.0034864305
0.0112942895 0.017308027 0.011731615 -0.23129058 0.013308971 0.015098542 0.02925455 0.030565063
0.03159924 0.02032359 0.004971224 0.024505548 0.017407387 0.012689384 0.018622644 0.0022793412
-0.059952233 -0.078645214 -0.038378503 -0.030682454 -0.0044368613 -0.016808208 -0.02399059 -0.0034681559
-0.022980878 -0.004539109 -0.03142548 -0.022155322 -0.042085513 -0.028740544 -0.029600548 -0.043926477
-0.037207574 -0.02959277 -0.03641908 -0.02454906 -0.028884307 -0.05246001 -0.008675575 -0.013384659
-0.008589952 0.00373932 -0.016172053 0.0048780623 0.031768892 -0.0037629763 -0.0110627245 -0.01167298
